…
106111                            3.0  ...                             0.0
106112                            1.0  ...                             0.0

[106113 rows x 1336 columns]
./DATAFILES/MP_GapFeats_encodingMP_GapFeats_default already created.
Shape of dataset to encode: (106113, 1264)
Model: "model"
_________________________________________________________________
 Layer (type)                Output Shape              Param #   
=================================================================
 input_1 (InputLayer)        [(None, 1264)]            0         
                                                                 
 dense (Dense)               (None, 2528)              3197920   
                                                                 
 batch_normalization (BatchN  (None, 2528)             10112     
 ormalization)                                                   
                                                                 
 re_lu (ReLU)                (None, 2528)              0         
                                                                 
 bottleneck (Dense)          (None, 632)               1598328   
                                                                 
 batch_normalization_1 (Batc  (None, 632)              2528      
 hNormalization)                                                 
                                                                 
 re_lu_1 (ReLU)              (None, 632)               0         
                                                                 
 dense_1 (Dense)             (None, 2528)              1600224   
                                                                 
 batch_normalization_2 (Batc  (None, 2528)             10112     
 hNormalization)                                                 
                                                                 
 re_lu_2 (ReLU)              (None, 2528)              0         
                                                                 
 dense_2 (Dense)             (None, 1264)              3196656   
                                                                 
=================================================================
Total params: 9,615,880
Trainable params: 9,604,504
Non-trainable params: 11,376
_________________________________________________________________
Epoch 1/3
5969/5969 - 24s - loss: 0.0080 - val_loss: 0.0030 - 24s/epoch - 4ms/step
Epoch 2/3
5969/5969 - 16s - loss: 0.0036 - val_loss: 0.0023 - 16s/epoch - 3ms/step
…
