…
2022-12-25 23:53:11.901045: I tensorflow/core/common_runtime/gpu/gpu_device.cc:1616] Created device /job:localhost/replica:0/task:0/device:GPU:0 with 20637 MB memory:  -> device: 0, name: NVIDIA A10, pci bus id: 0000:0f:00.0, compute capability: 8.6
Model: "model"
_________________________________________________________________
 Layer (type)                Output Shape              Param #   
=================================================================
 input_1 (InputLayer)        [(None, 1264)]            0         
                                                                 
 dense (Dense)               (None, 2528)              3197920   
                                                                 
 batch_normalization (BatchN  (None, 2528)             10112     
 ormalization)                                                   
                                                                 
 re_lu (ReLU)                (None, 2528)              0         
                                                                 
 bottleneck (Dense)          (None, 632)               1598328   
                                                                 
 batch_normalization_1 (Batc  (None, 632)              2528      
 hNormalization)                                                 
                                                                 
 re_lu_1 (ReLU)              (None, 632)               0         
                                                                 
 dense_1 (Dense)             (None, 2528)              1600224   
                                                                 
 batch_normalization_2 (Batc  (None, 2528)             10112     
 hNormalization)                                                 
                                                                 
 re_lu_2 (ReLU)              (None, 2528)              0         
                                                                 
 dense_2 (Dense)             (None, 1264)              3196656   
                                                                 
=================================================================
Total params: 9,615,880
Trainable params: 9,604,504
Non-trainable params: 11,376
_________________________________________________________________
Epoch 1/50
2022-12-25 23:53:17.141449: I tensorflow/stream_executor/cuda/cuda_blas.cc:1614] TensorFloat-32 will be used for the matrix multiplication. This will only be logged once.
…
['default', 16, 50, 0.0005, 'mse', 0.5, 632, 0.00039812715840525925, 0.0003408200282137841, 0.003709340624615151, 0.0029864273473895636, 0.009747915901243687, 0.018461300060153008, 0.9778905582167768, 0.23411466903540806] [<class 'str'>, <class 'int'>, <class 'int'>, <class 'float'>, <class 'str'>, <class 'numpy.float64'>, <class 'int'>, <class 'float'>, <class 'float'>, <class 'float'>, <class 'float'>, <class 'float'>, <class 'float'>, <class 'float'>, <class 'float'>]
Full AutoEncoder
Model: "model"
_________________________________________________________________
 Layer (type)                Output Shape              Param #   
=================================================================
 input_1 (InputLayer)        multiple                  0         
                                                                 
 dense (Dense)               (None, 2528)              3197920   
                                                                 
 batch_normalization (BatchN  (None, 2528)             10112     
 ormalization)                                                   
                                                                 
 re_lu (ReLU)                (None, 2528)              0         
                                                                 
 bottleneck (Dense)          (None, 632)               1598328   
                                                                 
 batch_normalization_1 (Batc  (None, 632)              2528      
 hNormalization)                                                 
                                                                 
 re_lu_1 (ReLU)              (None, 632)               0         
                                                                 
 dense_1 (Dense)             (None, 2528)              1600224   
                                                                 
 batch_normalization_2 (Batc  (None, 2528)             10112     
 hNormalization)                                                 
                                                                 
 re_lu_2 (ReLU)              (None, 2528)              0         
                                                                 
 dense_2 (Dense)             (None, 1264)              3196656   
                                                                 
=================================================================
Total params: 9,615,880
Trainable params: 9,604,504
Non-trainable params: 11,376
_________________________________________________________________
Encoder
Model: "model_1"
_________________________________________________________________
 Layer (type)                Output Shape              Param #   
=================================================================
 input_2 (InputLayer)        [(None, 1264)]            0         
                                                                 
 input_1 (InputLayer)        multiple                  0         
                                                                 
 dense (Dense)               (None, 2528)              3197920   
                                                                 
 batch_normalization (BatchN  (None, 2528)             10112     
 ormalization)                                                   
                                                                 
 re_lu (ReLU)                (None, 2528)              0         
                                                                 
 bottleneck (Dense)          (None, 632)               1598328   
                                                                 
=================================================================
Total params: 4,806,360
Trainable params: 4,801,304
Non-trainable params: 5,056
_________________________________________________________________
Decoder
Model: "model_2"
_________________________________________________________________
 Layer (type)                Output Shape              Param #   
=================================================================
 input_3 (InputLayer)        [(None, 632)]             0         
                                                                 
 batch_normalization_1 (Batc  (None, 632)              2528      
 hNormalization)                                                 
                                                                 
 re_lu_1 (ReLU)              (None, 632)               0         
                                                                 
 dense_1 (Dense)             (None, 2528)              1600224   
                                                                 
 batch_normalization_2 (Batc  (None, 2528)             10112     
 hNormalization)                                                 
                                                                 
 re_lu_2 (ReLU)              (None, 2528)              0         
                                                                 
 dense_2 (Dense)             (None, 1264)              3196656   
                                                                 
=================================================================
Total params: 4,809,520
Trainable params: 4,803,200
Non-trainable params: 6,320
_________________________________________________________________
./DATAFILES/MP_GapFeats_default already created.
Shape of dataset to encode: (106113, 1264)
Model: "model_3"
_________________________________________________________________
 Layer (type)                Output Shape              Param #   
=================================================================
 input_4 (InputLayer)        [(None, 1264)]            0         
                                                                 
 dense_3 (Dense)             (None, 2528)              3197920   
                                                                 
 batch_normalization_3 (Batc  (None, 2528)             10112     
 hNormalization)                                                 
                                                                 
 re_lu_3 (ReLU)              (None, 2528)              0         
                                                                 
 bottleneck (Dense)          (None, 632)               1598328   
                                                                 
 batch_normalization_4 (Batc  (None, 632)              2528      
 hNormalization)                                                 
                                                                 
 re_lu_4 (ReLU)              (None, 632)               0         
                                                                 
 dense_4 (Dense)             (None, 2528)              1600224   
                                                                 
 batch_normalization_5 (Batc  (None, 2528)             10112     
 hNormalization)                                                 
                                                                 
 re_lu_5 (ReLU)              (None, 2528)              0         
                                                                 
 dense_5 (Dense)             (None, 1264)              3196656   
                                                                 
=================================================================
Total params: 9,615,880
Trainable params: 9,604,504
Non-trainable params: 11,376
_________________________________________________________________
Epoch 1/50
5969/5969 - 16s - loss: 0.0075 - val_loss: 0.0026 - 16s/epoch - 3ms/step
Epoch 2/50
5969/5969 - 16s - loss: 0.0027 - val_loss: 0.0018 - 16s/epoch - 3ms/step
…
