…
2022-12-30 01:44:55.656475: I tensorflow/core/platform/cpu_feature_guard.cc:193] This TensorFlow binary is optimized with oneAPI Deep Neural Network Library (oneDNN) to use the following CPU instructions in performance-critical operations:  SSE4.1 SSE4.2 AVX AVX2 FMA
To enable them in other operations, rebuild TensorFlow with the appropriate compiler flags.
Model: "model"
_________________________________________________________________
 Layer (type)                Output Shape              Param #   
=================================================================
 input_1 (InputLayer)        [(None, 1264)]            0         
                                                                 
 dense (Dense)               (None, 2780)              3516700   
                                                                 
 batch_normalization (BatchN  (None, 2780)             11120     
 ormalization)                                                   
                                                                 
 re_lu (ReLU)                (None, 2780)              0         
                                                                 
 bottleneck (Dense)          (None, 442)               1229202   
                                                                 
 batch_normalization_1 (Batc  (None, 442)              1768      
 hNormalization)                                                 
                                                                 
 re_lu_1 (ReLU)              (None, 442)               0         
                                                                 
 dense_1 (Dense)             (None, 2780)              1231540   
                                                                 
 batch_normalization_2 (Batc  (None, 2780)             11120     
 hNormalization)                                                 
                                                                 
 re_lu_2 (ReLU)              (None, 2780)              0         
                                                                 
 dense_2 (Dense)             (None, 1264)              3515184   
                                                                 
=================================================================
Total params: 9,516,634
Trainable params: 9,504,630
Non-trainable params: 12,004
_________________________________________________________________
Epoch 1/200
1493/1493 - 100s - loss: 0.0098 - val_loss: 0.0047 - 100s/epoch - 67ms/step
Epoch 2/200
1493/1493 - 98s - loss: 0.0032 - val_loss: 0.0033 - 98s/epoch - 66ms/step
…
 [==============================] - 4s 12ms/step
correlation 0.0014626095081966327
cosine 0.0011523480162367117
MAE: 0.0062691025
RMSE: 0.011324388
r2: 0.9916814469956458
RMSE zero-vector: 0.23411466903540806
Full AutoEncoder
Model: "model"
_________________________________________________________________
 Layer (type)                Output Shape              Param #   
=================================================================
 input_1 (InputLayer)        multiple                  0         
                                                                 
 dense (Dense)               (None, 2780)              3516700   
                                                                 
 batch_normalization (BatchN  (None, 2780)             11120     
 ormalization)                                                   
                                                                 
 re_lu (ReLU)                (None, 2780)              0         
                                                                 
 bottleneck (Dense)          (None, 442)               1229202   
                                                                 
 batch_normalization_1 (Batc  (None, 442)              1768      
 hNormalization)                                                 
                                                                 
 re_lu_1 (ReLU)              (None, 442)               0         
                                                                 
 dense_1 (Dense)             (None, 2780)              1231540   
                                                                 
 batch_normalization_2 (Batc  (None, 2780)             11120     
 hNormalization)                                                 
                                                                 
 re_lu_2 (ReLU)              (None, 2780)              0         
                                                                 
 dense_2 (Dense)             (None, 1264)              3515184   
                                                                 
=================================================================
Total params: 9,516,634
Trainable params: 9,504,630
Non-trainable params: 12,004
_________________________________________________________________
Encoder
Model: "model_1"
_________________________________________________________________
 Layer (type)                Output Shape              Param #   
=================================================================
 input_2 (InputLayer)        [(None, 1264)]            0         
                                                                 
 input_1 (InputLayer)        multiple                  0         
                                                                 
 dense (Dense)               (None, 2780)              3516700   
                                                                 
 batch_normalization (BatchN  (None, 2780)             11120     
 ormalization)                                                   
                                                                 
 re_lu (ReLU)                (None, 2780)              0         
                                                                 
 bottleneck (Dense)          (None, 442)               1229202   
                                                                 
=================================================================
Total params: 4,757,022
Trainable params: 4,751,462
Non-trainable params: 5,560
_________________________________________________________________
Decoder
Model: "model_2"
_________________________________________________________________
 Layer (type)                Output Shape              Param #   
=================================================================
 input_3 (InputLayer)        [(None, 442)]             0         
                                                                 
 batch_normalization_1 (Batc  (None, 442)              1768      
 hNormalization)                                                 
                                                                 
 re_lu_1 (ReLU)              (None, 442)               0         
                                                                 
 dense_1 (Dense)             (None, 2780)              1231540   
                                                                 
 batch_normalization_2 (Batc  (None, 2780)             11120     
 hNormalization)                                                 
                                                                 
 re_lu_2 (ReLU)              (None, 2780)              0         
                                                                 
 dense_2 (Dense)             (None, 1264)              3515184   
                                                                 
=================================================================
Total params: 4,759,612
Trainable params: 4,753,168
Non-trainable params: 6,444
_________________________________________________________________
['2.2custom_n_b', 'mse', 64, 200, 0.0005, 0.35, 442, 0.00011428669677115977, 0.0001282418379560113, 0.0014626095081966
…
<class 'float'>, <class 'float'>, <class 'float'>, <class 'float'>, <class 'float'>, <class 'float'>, <class 'float'>]
./DATAFILES/MP_GapFeats_2.2final3_custom_n_b already created.
Shape of dataset to encode: (106113, 1264)
Model: "model_3"
_________________________________________________________________
 Layer (type)                Output Shape              Param #   
=================================================================
 input_4 (InputLayer)        [(None, 1264)]            0         
                                                                 
 dense_3 (Dense)             (None, 2780)              3516700   
                                                                 
 batch_normalization_3 (Batc  (None, 2780)             11120     
 hNormalization)                                                 
                                                                 
 re_lu_3 (ReLU)              (None, 2780)              0         
                                                                 
 bottleneck (Dense)          (None, 379)               1053999   
                                                                 
 batch_normalization_4 (Batc  (None, 379)              1516      
 hNormalization)                                                 
                                                                 
 re_lu_4 (ReLU)              (None, 379)               0         
                                                                 
 dense_4 (Dense)             (None, 2780)              1056400   
                                                                 
 batch_normalization_5 (Batc  (None, 2780)             11120     
 hNormalization)                                                 
                                                                 
 re_lu_5 (ReLU)              (None, 2780)              0         
                                                                 
 dense_5 (Dense)             (None, 1264)              3515184   
                                                                 
=================================================================
Total params: 9,166,039
Trainable params: 9,154,161
Non-trainable params: 11,878
_________________________________________________________________
Epoch 1/200
1493/1493 - 96s - loss: 0.0098 - val_loss: 0.0043 - 96s/epoch - 64ms/step
Epoch 2/200
1493/1493 - 95s - loss: 0.0032 - val_loss: 0.0033 - 95s/epoch - 64ms/step
…
 [==============================] - 4s 11ms/step
correlation 0.0016341691944134536
cosine 0.001287530109291925
MAE: 0.006624467
RMSE: 0.011985517
r2: 0.9906815776181207
RMSE zero-vector: 0.23411466903540806
Full AutoEncoder
Model: "model_3"
_________________________________________________________________
 Layer (type)                Output Shape              Param #   
=================================================================
 input_4 (InputLayer)        multiple                  0         
                                                                 
 dense_3 (Dense)             (None, 2780)              3516700   
                                                                 
 batch_normalization_3 (Batc  (None, 2780)             11120     
 hNormalization)                                                 
                                                                 
 re_lu_3 (ReLU)              (None, 2780)              0         
                                                                 
 bottleneck (Dense)          (None, 379)               1053999   
                                                                 
 batch_normalization_4 (Batc  (None, 379)              1516      
 hNormalization)                                                 
                                                                 
 re_lu_4 (ReLU)              (None, 379)               0         
                                                                 
 dense_4 (Dense)             (None, 2780)              1056400   
                                                                 
 batch_normalization_5 (Batc  (None, 2780)             11120     
 hNormalization)                                                 
                                                                 
 re_lu_5 (ReLU)              (None, 2780)              0         
                                                                 
 dense_5 (Dense)             (None, 1264)              3515184   
                                                                 
=================================================================
Total params: 9,166,039
Trainable params: 9,154,161
Non-trainable params: 11,878
_________________________________________________________________
Encoder
Model: "model_4"
_________________________________________________________________
 Layer (type)                Output Shape              Param #   
=================================================================
 input_5 (InputLayer)        [(None, 1264)]            0         
                                                                 
 input_4 (InputLayer)        multiple                  0         
                                                                 
 dense_3 (Dense)             (None, 2780)              3516700   
                                                                 
 batch_normalization_3 (Batc  (None, 2780)             11120     
 hNormalization)                                                 
                                                                 
 re_lu_3 (ReLU)              (None, 2780)              0         
                                                                 
 bottleneck (Dense)          (None, 379)               1053999   
                                                                 
=================================================================
Total params: 4,581,819
Trainable params: 4,576,259
Non-trainable params: 5,560
_________________________________________________________________
Decoder
Model: "model_5"
_________________________________________________________________
 Layer (type)                Output Shape              Param #   
=================================================================
 input_6 (InputLayer)        [(None, 379)]             0         
                                                                 
 batch_normalization_4 (Batc  (None, 379)              1516      
 hNormalization)                                                 
                                                                 
 re_lu_4 (ReLU)              (None, 379)               0         
                                                                 
 dense_4 (Dense)             (None, 2780)              1056400   
                                                                 
 batch_normalization_5 (Batc  (None, 2780)             11120     
 hNormalization)                                                 
                                                                 
 re_lu_5 (ReLU)              (None, 2780)              0         
                                                                 
 dense_5 (Dense)             (None, 1264)              3515184   
                                                                 
=================================================================
Total params: 4,584,220
Trainable params: 4,577,902
Non-trainable params: 6,318
_________________________________________________________________
['2.2custom_n_b', 'mse', 64, 200, 0.0005, 0.3, 379, 0.0001294043759116903, 0.00014365273818839341, 0.00163416919441345
…
<class 'float'>, <class 'float'>, <class 'float'>, <class 'float'>, <class 'float'>, <class 'float'>, <class 'float'>]
./DATAFILES/MP_GapFeats_2.2final3_custom_n_b already created.
Shape of dataset to encode: (106113, 1264)
Model: "model_6"
_________________________________________________________________
 Layer (type)                Output Shape              Param #   
=================================================================
 input_7 (InputLayer)        [(None, 1264)]            0         
                                                                 
 dense_6 (Dense)             (None, 2780)              3516700   
                                                                 
 batch_normalization_6 (Batc  (None, 2780)             11120     
 hNormalization)                                                 
                                                                 
 re_lu_6 (ReLU)              (None, 2780)              0         
                                                                 
 bottleneck (Dense)          (None, 316)               878796    
                                                                 
 batch_normalization_7 (Batc  (None, 316)              1264      
 hNormalization)                                                 
                                                                 
 re_lu_7 (ReLU)              (None, 316)               0         
                                                                 
 dense_7 (Dense)             (None, 2780)              881260    
                                                                 
 batch_normalization_8 (Batc  (None, 2780)             11120     
 hNormalization)                                                 
                                                                 
 re_lu_8 (ReLU)              (None, 2780)              0         
                                                                 
 dense_8 (Dense)             (None, 1264)              3515184   
                                                                 
=================================================================
Total params: 8,815,444
Trainable params: 8,803,692
Non-trainable params: 11,752
_________________________________________________________________
Epoch 1/200
1493/1493 - 89s - loss: 0.0100 - val_loss: 0.0044 - 89s/epoch - 60ms/step
Epoch 2/200
1493/1493 - 88s - loss: 0.0033 - val_loss: 0.0034 - 88s/epoch - 59ms/step
…
 [==============================] - 4s 11ms/step
correlation 0.001890127468100144
cosine 0.0014886732174233135
MAE: 0.006962026
RMSE: 0.012815917
r2: 0.9893456367981057
RMSE zero-vector: 0.23411466903540806
Full AutoEncoder
Model: "model_6"
_________________________________________________________________
 Layer (type)                Output Shape              Param #   
=================================================================
 input_7 (InputLayer)        multiple                  0         
                                                                 
 dense_6 (Dense)             (None, 2780)              3516700   
                                                                 
 batch_normalization_6 (Batc  (None, 2780)             11120     
 hNormalization)                                                 
                                                                 
 re_lu_6 (ReLU)              (None, 2780)              0         
                                                                 
 bottleneck (Dense)          (None, 316)               878796    
                                                                 
 batch_normalization_7 (Batc  (None, 316)              1264      
 hNormalization)                                                 
                                                                 
 re_lu_7 (ReLU)              (None, 316)               0         
                                                                 
 dense_7 (Dense)             (None, 2780)              881260    
                                                                 
 batch_normalization_8 (Batc  (None, 2780)             11120     
 hNormalization)                                                 
                                                                 
 re_lu_8 (ReLU)              (None, 2780)              0         
                                                                 
 dense_8 (Dense)             (None, 1264)              3515184   
                                                                 
=================================================================
Total params: 8,815,444
Trainable params: 8,803,692
Non-trainable params: 11,752
_________________________________________________________________
Encoder
Model: "model_7"
_________________________________________________________________
 Layer (type)                Output Shape              Param #   
=================================================================
 input_8 (InputLayer)        [(None, 1264)]            0         
                                                                 
 input_7 (InputLayer)        multiple                  0         
                                                                 
 dense_6 (Dense)             (None, 2780)              3516700   
                                                                 
 batch_normalization_6 (Batc  (None, 2780)             11120     
 hNormalization)                                                 
                                                                 
 re_lu_6 (ReLU)              (None, 2780)              0         
                                                                 
 bottleneck (Dense)          (None, 316)               878796    
                                                                 
=================================================================
Total params: 4,406,616
Trainable params: 4,401,056
Non-trainable params: 5,560
_________________________________________________________________
Decoder
Model: "model_8"
_________________________________________________________________
 Layer (type)                Output Shape              Param #   
=================================================================
 input_9 (InputLayer)        [(None, 316)]             0         
                                                                 
 batch_normalization_7 (Batc  (None, 316)              1264      
 hNormalization)                                                 
                                                                 
 re_lu_7 (ReLU)              (None, 316)               0         
                                                                 
 dense_7 (Dense)             (None, 2780)              881260    
                                                                 
 batch_normalization_8 (Batc  (None, 2780)             11120     
 hNormalization)                                                 
                                                                 
 re_lu_8 (ReLU)              (None, 2780)              0         
                                                                 
 dense_8 (Dense)             (None, 1264)              3515184   
                                                                 
=================================================================
Total params: 4,408,828
Trainable params: 4,402,636
Non-trainable params: 6,192
_________________________________________________________________
['2.2custom_n_b', 'mse', 64, 200, 0.0005, 0.25, 316, 0.00015312973118852824, 0.00016424787463620305, 0.001890127468100
…
<class 'float'>, <class 'float'>, <class 'float'>, <class 'float'>, <class 'float'>, <class 'float'>, <class 'float'>]
./DATAFILES/MP_GapFeats_2.2final3_custom_n_b already created.
Shape of dataset to encode: (106113, 1264)
Model: "model_9"
_________________________________________________________________
 Layer (type)                Output Shape              Param #   
=================================================================
 input_10 (InputLayer)       [(None, 1264)]            0         
                                                                 
 dense_9 (Dense)             (None, 2780)              3516700   
                                                                 
 batch_normalization_9 (Batc  (None, 2780)             11120     
 hNormalization)                                                 
                                                                 
 re_lu_9 (ReLU)              (None, 2780)              0         
                                                                 
 bottleneck (Dense)          (None, 252)               700812    
                                                                 
 batch_normalization_10 (Bat  (None, 252)              1008      
 chNormalization)                                                
                                                                 
 re_lu_10 (ReLU)             (None, 252)               0         
                                                                 
 dense_10 (Dense)            (None, 2780)              703340    
                                                                 
 batch_normalization_11 (Bat  (None, 2780)             11120     
 chNormalization)                                                
                                                                 
 re_lu_11 (ReLU)             (None, 2780)              0         
                                                                 
 dense_11 (Dense)            (None, 1264)              3515184   
                                                                 
=================================================================
Total params: 8,459,284
Trainable params: 8,447,660
Non-trainable params: 11,624
_________________________________________________________________
Epoch 1/200
1493/1493 - 83s - loss: 0.0102 - val_loss: 0.0050 - 83s/epoch - 56ms/step
Epoch 2/200
1493/1493 - 82s - loss: 0.0035 - val_loss: 0.0035 - 82s/epoch - 55ms/step
…
 [==============================] - 4s 11ms/step
correlation 0.0021240231656506968
cosine 0.001671410369684325
MAE: 0.007387795
RMSE: 0.013602128
r2: 0.9879981188457637
RMSE zero-vector: 0.23411466903540806
Full AutoEncoder
Model: "model_9"
_________________________________________________________________
 Layer (type)                Output Shape              Param #   
=================================================================
 input_10 (InputLayer)       multiple                  0         
                                                                 
 dense_9 (Dense)             (None, 2780)              3516700   
                                                                 
 batch_normalization_9 (Batc  (None, 2780)             11120     
 hNormalization)                                                 
                                                                 
 re_lu_9 (ReLU)              (None, 2780)              0         
                                                                 
 bottleneck (Dense)          (None, 252)               700812    
                                                                 
 batch_normalization_10 (Bat  (None, 252)              1008      
 chNormalization)                                                
                                                                 
 re_lu_10 (ReLU)             (None, 252)               0         
                                                                 
 dense_10 (Dense)            (None, 2780)              703340    
                                                                 
 batch_normalization_11 (Bat  (None, 2780)             11120     
 chNormalization)                                                
                                                                 
 re_lu_11 (ReLU)             (None, 2780)              0         
                                                                 
 dense_11 (Dense)            (None, 1264)              3515184   
                                                                 
=================================================================
Total params: 8,459,284
Trainable params: 8,447,660
Non-trainable params: 11,624
_________________________________________________________________
Encoder
Model: "model_10"
_________________________________________________________________
 Layer (type)                Output Shape              Param #   
=================================================================
 input_11 (InputLayer)       [(None, 1264)]            0         
                                                                 
 input_10 (InputLayer)       multiple                  0         
                                                                 
 dense_9 (Dense)             (None, 2780)              3516700   
                                                                 
 batch_normalization_9 (Batc  (None, 2780)             11120     
 hNormalization)                                                 
                                                                 
 re_lu_9 (ReLU)              (None, 2780)              0         
                                                                 
 bottleneck (Dense)          (None, 252)               700812    
                                                                 
=================================================================
Total params: 4,228,632
Trainable params: 4,223,072
Non-trainable params: 5,560
_________________________________________________________________
Decoder
Model: "model_11"
_________________________________________________________________
 Layer (type)                Output Shape              Param #   
=================================================================
 input_12 (InputLayer)       [(None, 252)]             0         
                                                                 
 batch_normalization_10 (Bat  (None, 252)              1008      
 chNormalization)                                                
                                                                 
 re_lu_10 (ReLU)             (None, 252)               0         
                                                                 
 dense_10 (Dense)            (None, 2780)              703340    
                                                                 
 batch_normalization_11 (Bat  (None, 2780)             11120     
 chNormalization)                                                
                                                                 
 re_lu_11 (ReLU)             (None, 2780)              0         
                                                                 
 dense_11 (Dense)            (None, 1264)              3515184   
                                                                 
=================================================================
Total params: 4,230,652
Trainable params: 4,224,588
Non-trainable params: 6,064
_________________________________________________________________
['2.2custom_n_b', 'mse', 64, 200, 0.0005, 0.2, 252, 0.00018152584380004555, 0.00018501804152037948, 0.0021240231656506
…
class 'float'>, <class 'float'>, <class 'float'>, <class 'float'>, <class 'float'>, <class 'float'>, <class 'float'>]
./DATAFILES/MP_GapFeats_2.2final3_custom_n_b already created.
Shape of dataset to encode: (106113, 1264)
Model: "model_12"
_________________________________________________________________
 Layer (type)                Output Shape              Param #   
=================================================================
 input_13 (InputLayer)       [(None, 1264)]            0         
                                                                 
 dense_12 (Dense)            (None, 2780)              3516700   
                                                                 
 batch_normalization_12 (Bat  (None, 2780)             11120     
 chNormalization)                                                
                                                                 
 re_lu_12 (ReLU)             (None, 2780)              0         
                                                                 
 bottleneck (Dense)          (None, 189)               525609    
                                                                 
 batch_normalization_13 (Bat  (None, 189)              756       
 chNormalization)                                                
                                                                 
 re_lu_13 (ReLU)             (None, 189)               0         
                                                                 
 dense_13 (Dense)            (None, 2780)              528200    
                                                                 
 batch_normalization_14 (Bat  (None, 2780)             11120     
 chNormalization)                                                
                                                                 
 re_lu_14 (ReLU)             (None, 2780)              0         
                                                                 
 dense_14 (Dense)            (None, 1264)              3515184   
                                                                 
=================================================================
Total params: 8,108,689
Trainable params: 8,097,191
Non-trainable params: 11,498
_________________________________________________________________
Epoch 1/200
1493/1493 - 80s - loss: 0.0102 - val_loss: 0.0053 - 80s/epoch - 54ms/step
Epoch 2/200
1493/1493 - 79s - loss: 0.0037 - val_loss: 0.0032 - 79s/epoch - 53ms/step
…
==============================] - 4s 10ms/step
correlation 0.0026765233541137085
cosine 0.0021079230423113825
MAE: 0.008094473
RMSE: 0.015247739
r2: 0.9849181797195237
RMSE zero-vector: 0.23411466903540806
Full AutoEncoder
Model: "model_12"
_________________________________________________________________
 Layer (type)                Output Shape              Param #   
=================================================================
 input_13 (InputLayer)       multiple                  0         
                                                                 
 dense_12 (Dense)            (None, 2780)              3516700   
                                                                 
 batch_normalization_12 (Bat  (None, 2780)             11120     
 chNormalization)                                                
                                                                 
 re_lu_12 (ReLU)             (None, 2780)              0         
                                                                 
 bottleneck (Dense)          (None, 189)               525609    
                                                                 
 batch_normalization_13 (Bat  (None, 189)              756       
 chNormalization)                                                
                                                                 
 re_lu_13 (ReLU)             (None, 189)               0         
                                                                 
 dense_13 (Dense)            (None, 2780)              528200    
                                                                 
 batch_normalization_14 (Bat  (None, 2780)             11120     
 chNormalization)                                                
                                                                 
 re_lu_14 (ReLU)             (None, 2780)              0         
                                                                 
 dense_14 (Dense)            (None, 1264)              3515184   
                                                                 
=================================================================
Total params: 8,108,689
Trainable params: 8,097,191
Non-trainable params: 11,498
_________________________________________________________________
Encoder
Model: "model_13"
_________________________________________________________________
 Layer (type)                Output Shape              Param #   
=================================================================
 input_14 (InputLayer)       [(None, 1264)]            0         
                                                                 
 input_13 (InputLayer)       multiple                  0         
                                                                 
 dense_12 (Dense)            (None, 2780)              3516700   
                                                                 
 batch_normalization_12 (Bat  (None, 2780)             11120     
 chNormalization)                                                
                                                                 
 re_lu_12 (ReLU)             (None, 2780)              0         
                                                                 
 bottleneck (Dense)          (None, 189)               525609    
                                                                 
=================================================================
Total params: 4,053,429
Trainable params: 4,047,869
Non-trainable params: 5,560
_________________________________________________________________
Decoder
Model: "model_14"
_________________________________________________________________
 Layer (type)                Output Shape              Param #   
=================================================================
 input_15 (InputLayer)       [(None, 189)]             0         
                                                                 
 batch_normalization_13 (Bat  (None, 189)              756       
 chNormalization)                                                
                                                                 
 re_lu_13 (ReLU)             (None, 189)               0         
                                                                 
 dense_13 (Dense)            (None, 2780)              528200    
                                                                 
 batch_normalization_14 (Bat  (None, 2780)             11120     
 chNormalization)                                                
                                                                 
 re_lu_14 (ReLU)             (None, 2780)              0         
                                                                 
 dense_14 (Dense)            (None, 1264)              3515184   
                                                                 
=================================================================
Total params: 4,055,260
Trainable params: 4,049,322
Non-trainable params: 5,938
_________________________________________________________________
['2.2custom_n_b', 'mse', 64, 200, 0.0005, 0.15, 189, 0.0002376273478148505, 0.00023249372316058725, 0.0026765233541137
…
class 'float'>, <class 'float'>, <class 'float'>, <class 'float'>, <class 'float'>, <class 'float'>, <class 'float'>]
./DATAFILES/MP_GapFeats_2.2final3_custom_n_b already created.
Shape of dataset to encode: (106113, 1264)
Model: "model_15"
_________________________________________________________________
 Layer (type)                Output Shape              Param #   
=================================================================
 input_16 (InputLayer)       [(None, 1264)]            0         
                                                                 
 dense_15 (Dense)            (None, 2780)              3516700   
                                                                 
 batch_normalization_15 (Bat  (None, 2780)             11120     
 chNormalization)                                                
                                                                 
 re_lu_15 (ReLU)             (None, 2780)              0         
                                                                 
 bottleneck (Dense)          (None, 126)               350406    
                                                                 
 batch_normalization_16 (Bat  (None, 126)              504       
 chNormalization)                                                
                                                                 
 re_lu_16 (ReLU)             (None, 126)               0         
                                                                 
 dense_16 (Dense)            (None, 2780)              353060    
                                                                 
 batch_normalization_17 (Bat  (None, 2780)             11120     
 chNormalization)                                                
                                                                 
 re_lu_17 (ReLU)             (None, 2780)              0         
                                                                 
 dense_17 (Dense)            (None, 1264)              3515184   
                                                                 
=================================================================
Total params: 7,758,094
Trainable params: 7,746,722
Non-trainable params: 11,372
_________________________________________________________________
Epoch 1/200
1493/1493 - 76s - loss: 0.0107 - val_loss: 0.0057 - 76s/epoch - 51ms/step
Epoch 2/200
1493/1493 - 75s - loss: 0.0041 - val_loss: 0.0034 - 75s/epoch - 50ms/step
…
[==============================] - 3s 10ms/step
correlation 0.003755319536383809
cosine 0.0029600554374402933
MAE: 0.009452158
RMSE: 0.017992664
r2: 0.9789991851831441
RMSE zero-vector: 0.23411466903540806
Full AutoEncoder
Model: "model_15"
_________________________________________________________________
 Layer (type)                Output Shape              Param #   
=================================================================
 input_16 (InputLayer)       multiple                  0         
                                                                 
 dense_15 (Dense)            (None, 2780)              3516700   
                                                                 
 batch_normalization_15 (Bat  (None, 2780)             11120     
 chNormalization)                                                
                                                                 
 re_lu_15 (ReLU)             (None, 2780)              0         
                                                                 
 bottleneck (Dense)          (None, 126)               350406    
                                                                 
 batch_normalization_16 (Bat  (None, 126)              504       
 chNormalization)                                                
                                                                 
 re_lu_16 (ReLU)             (None, 126)               0         
                                                                 
 dense_16 (Dense)            (None, 2780)              353060    
                                                                 
 batch_normalization_17 (Bat  (None, 2780)             11120     
 chNormalization)                                                
                                                                 
 re_lu_17 (ReLU)             (None, 2780)              0         
                                                                 
 dense_17 (Dense)            (None, 1264)              3515184   
                                                                 
=================================================================
Total params: 7,758,094
Trainable params: 7,746,722
Non-trainable params: 11,372
_________________________________________________________________
Encoder
Model: "model_16"
_________________________________________________________________
 Layer (type)                Output Shape              Param #   
=================================================================
 input_17 (InputLayer)       [(None, 1264)]            0         
                                                                 
 input_16 (InputLayer)       multiple                  0         
                                                                 
 dense_15 (Dense)            (None, 2780)              3516700   
                                                                 
 batch_normalization_15 (Bat  (None, 2780)             11120     
 chNormalization)                                                
                                                                 
 re_lu_15 (ReLU)             (None, 2780)              0         
                                                                 
 bottleneck (Dense)          (None, 126)               350406    
                                                                 
=================================================================
Total params: 3,878,226
Trainable params: 3,872,666
Non-trainable params: 5,560
_________________________________________________________________
Decoder
Model: "model_17"
_________________________________________________________________
 Layer (type)                Output Shape              Param #   
=================================================================
 input_18 (InputLayer)       [(None, 126)]             0         
                                                                 
 batch_normalization_16 (Bat  (None, 126)              504       
 chNormalization)                                                
                                                                 
 re_lu_16 (ReLU)             (None, 126)               0         
                                                                 
 dense_16 (Dense)            (None, 2780)              353060    
                                                                 
 batch_normalization_17 (Bat  (None, 2780)             11120     
 chNormalization)                                                
                                                                 
 re_lu_17 (ReLU)             (None, 2780)              0         
                                                                 
 dense_17 (Dense)            (None, 1264)              3515184   
                                                                 
=================================================================
Total params: 3,879,868
Trainable params: 3,874,056
Non-trainable params: 5,812
_________________________________________________________________
['2.2custom_n_b', 'mse', 64, 200, 0.0005, 0.1, 126, 0.00032624456798657775, 0.0003237362252548337, 0.00375531953638380
…
class 'float'>, <class 'float'>, <class 'float'>, <class 'float'>, <class 'float'>, <class 'float'>, <class 'float'>]
./DATAFILES/MP_GapFeats_2.2final3_custom_n_b already created.
Shape of dataset to encode: (106113, 1264)
Model: "model_18"
_________________________________________________________________
 Layer (type)                Output Shape              Param #   
=================================================================
 input_19 (InputLayer)       [(None, 1264)]            0         
                                                                 
 dense_18 (Dense)            (None, 2780)              3516700   
                                                                 
 batch_normalization_18 (Bat  (None, 2780)             11120     
 chNormalization)                                                
                                                                 
 re_lu_18 (ReLU)             (None, 2780)              0         
                                                                 
 bottleneck (Dense)          (None, 63)                175203    
                                                                 
 batch_normalization_19 (Bat  (None, 63)               252       
 chNormalization)                                                
                                                                 
 re_lu_19 (ReLU)             (None, 63)                0         
                                                                 
 dense_19 (Dense)            (None, 2780)              177920    
                                                                 
 batch_normalization_20 (Bat  (None, 2780)             11120     
 chNormalization)                                                
                                                                 
 re_lu_20 (ReLU)             (None, 2780)              0         
                                                                 
 dense_20 (Dense)            (None, 1264)              3515184   
                                                                 
=================================================================
Total params: 7,407,499
Trainable params: 7,396,253
Non-trainable params: 11,246
_________________________________________________________________
Epoch 1/200
1493/1493 - 72s - loss: 0.0107 - val_loss: 0.0058 - 72s/epoch - 48ms/step
Epoch 2/200
1493/1493 - 71s - loss: 0.0050 - val_loss: 0.0052 - 71s/epoch - 48ms/step
…
 [==============================] - 3s 10ms/step
correlation 0.006856216778406502
cosine 0.005403283336141897
MAE: 0.012396275
RMSE: 0.024236256
r2: 0.9618947393887771
RMSE zero-vector: 0.23411466903540806
Full AutoEncoder
Model: "model_18"
_________________________________________________________________
 Layer (type)                Output Shape              Param #   
=================================================================
 input_19 (InputLayer)       multiple                  0         
                                                                 
 dense_18 (Dense)            (None, 2780)              3516700   
                                                                 
 batch_normalization_18 (Bat  (None, 2780)             11120     
 chNormalization)                                                
                                                                 
 re_lu_18 (ReLU)             (None, 2780)              0         
                                                                 
 bottleneck (Dense)          (None, 63)                175203    
                                                                 
 batch_normalization_19 (Bat  (None, 63)               252       
 chNormalization)                                                
                                                                 
 re_lu_19 (ReLU)             (None, 63)                0         
                                                                 
 dense_19 (Dense)            (None, 2780)              177920    
                                                                 
 batch_normalization_20 (Bat  (None, 2780)             11120     
 chNormalization)                                                
                                                                 
 re_lu_20 (ReLU)             (None, 2780)              0         
                                                                 
 dense_20 (Dense)            (None, 1264)              3515184   
                                                                 
=================================================================
Total params: 7,407,499
Trainable params: 7,396,253
Non-trainable params: 11,246
_________________________________________________________________
Encoder
Model: "model_19"
_________________________________________________________________
 Layer (type)                Output Shape              Param #   
=================================================================
 input_20 (InputLayer)       [(None, 1264)]            0         
                                                                 
 input_19 (InputLayer)       multiple                  0         
                                                                 
 dense_18 (Dense)            (None, 2780)              3516700   
                                                                 
 batch_normalization_18 (Bat  (None, 2780)             11120     
 chNormalization)                                                
                                                                 
 re_lu_18 (ReLU)             (None, 2780)              0         
                                                                 
 bottleneck (Dense)          (None, 63)                175203    
                                                                 
=================================================================
Total params: 3,703,023
Trainable params: 3,697,463
Non-trainable params: 5,560
_________________________________________________________________
Decoder
Model: "model_20"
_________________________________________________________________
 Layer (type)                Output Shape              Param #   
=================================================================
 input_21 (InputLayer)       [(None, 63)]              0         
                                                                 
 batch_normalization_19 (Bat  (None, 63)               252       
 chNormalization)                                                
                                                                 
 re_lu_19 (ReLU)             (None, 63)                0         
                                                                 
 dense_19 (Dense)            (None, 2780)              177920    
                                                                 
 batch_normalization_20 (Bat  (None, 2780)             11120     
 chNormalization)                                                
                                                                 
 re_lu_20 (ReLU)             (None, 2780)              0         
                                                                 
 dense_20 (Dense)            (None, 1264)              3515184   
                                                                 
=================================================================
Total params: 3,704,476
Trainable params: 3,698,790
Non-trainable params: 5,686
_________________________________________________________________
['2.2custom_n_b', 'mse', 64, 200, 0.0005, 0.05, 63, 0.0005915309302508831, 0.000587396789342165, 0.006856216778406502,
…
