…
2022-12-30 01:44:55.656475: I tensorflow/core/platform/cpu_feature_guard.cc:193] This TensorFlow binary is optimized with oneAPI Deep Neural Network Library (oneDNN) to use the following CPU instructions in performance-critical operations:  SSE4.1 SSE4.2 AVX AVX2 FMA
To enable them in other operations, rebuild TensorFlow with the appropriate compiler flags.
Model: "model"
_________________________________________________________________
 Layer (type)                Output Shape              Param #   
=================================================================
 input_1 (InputLayer)        [(None, 1264)]            0         
                                                                 
 dense (Dense)               (None, 2780)              3516700   
                                                                 
 batch_normalization (BatchN  (None, 2780)             11120     
 ormalization)                                                   
                                                                 
 re_lu (ReLU)                (None, 2780)              0         
                                                                 
 bottleneck (Dense)          (None, 884)               2458404   
                                                                 
 batch_normalization_1 (Batc  (None, 884)              3536      
 hNormalization)                                                 
                                                                 
 re_lu_1 (ReLU)              (None, 884)               0         
                                                                 
 dense_1 (Dense)             (None, 2780)              2460300   
                                                                 
 batch_normalization_2 (Batc  (None, 2780)             11120     
 hNormalization)                                                 
                                                                 
 re_lu_2 (ReLU)              (None, 2780)              0         
                                                                 
 dense_2 (Dense)             (None, 1264)              3515184   
                                                                 
=================================================================
Total params: 11,976,364
Trainable params: 11,963,476
Non-trainable params: 12,888
_________________________________________________________________
Epoch 1/200
1493/1493 - 124s - loss: 0.0092 - val_loss: 0.0038 - 124s/epoch - 83ms/step
Epoch 2/200
1493/1493 - 122s - loss: 0.0028 - val_loss: 0.0032 - 122s/epoch - 82ms/step
…
/332 [==============================] - 5s 14ms/step
correlation 0.001046483359649592
cosine 0.000824649772956782
MAE: 0.00533262
RMSE: 0.009618798
r2: 0.9939990699039647
RMSE zero-vector: 0.23411466903540806
Full AutoEncoder
Model: "model"
_________________________________________________________________
 Layer (type)                Output Shape              Param #   
=================================================================
 input_1 (InputLayer)        multiple                  0         
                                                                 
 dense (Dense)               (None, 2780)              3516700   
                                                                 
 batch_normalization (BatchN  (None, 2780)             11120     
 ormalization)                                                   
                                                                 
 re_lu (ReLU)                (None, 2780)              0         
                                                                 
 bottleneck (Dense)          (None, 884)               2458404   
                                                                 
 batch_normalization_1 (Batc  (None, 884)              3536      
 hNormalization)                                                 
                                                                 
 re_lu_1 (ReLU)              (None, 884)               0         
                                                                 
 dense_1 (Dense)             (None, 2780)              2460300   
                                                                 
 batch_normalization_2 (Batc  (None, 2780)             11120     
 hNormalization)                                                 
                                                                 
 re_lu_2 (ReLU)              (None, 2780)              0         
                                                                 
 dense_2 (Dense)             (None, 1264)              3515184   
                                                                 
=================================================================
Total params: 11,976,364
Trainable params: 11,963,476
Non-trainable params: 12,888
_________________________________________________________________
Encoder
Model: "model_1"
_________________________________________________________________
 Layer (type)                Output Shape              Param #   
=================================================================
 input_2 (InputLayer)        [(None, 1264)]            0         
                                                                 
 input_1 (InputLayer)        multiple                  0         
                                                                 
 dense (Dense)               (None, 2780)              3516700   
                                                                 
 batch_normalization (BatchN  (None, 2780)             11120     
 ormalization)                                                   
                                                                 
 re_lu (ReLU)                (None, 2780)              0         
                                                                 
 bottleneck (Dense)          (None, 884)               2458404   
                                                                 
=================================================================
Total params: 5,986,224
Trainable params: 5,980,664
Non-trainable params: 5,560
_________________________________________________________________
Decoder
Model: "model_2"
_________________________________________________________________
 Layer (type)                Output Shape              Param #   
=================================================================
 input_3 (InputLayer)        [(None, 884)]             0         
                                                                 
 batch_normalization_1 (Batc  (None, 884)              3536      
 hNormalization)                                                 
                                                                 
 re_lu_1 (ReLU)              (None, 884)               0         
                                                                 
 dense_1 (Dense)             (None, 2780)              2460300   
                                                                 
 batch_normalization_2 (Batc  (None, 2780)             11120     
 hNormalization)                                                 
                                                                 
 re_lu_2 (ReLU)              (None, 2780)              0         
                                                                 
 dense_2 (Dense)             (None, 1264)              3515184   
                                                                 
=================================================================
Total params: 5,990,140
Trainable params: 5,982,812
Non-trainable params: 7,328
_________________________________________________________________
['2.2custom_n_b', 'mse', 64, 200, 0.0005, 0.7, 884, 8.568156772525981e-05, 9.252134623238817e-05, 0.001046483359649592
…
<class 'float'>, <class 'float'>, <class 'float'>, <class 'float'>, <class 'float'>, <class 'float'>, <class 'float'>]
./DATAFILES/MP_GapFeats_2.2final2_custom_n_b already created.
Shape of dataset to encode: (106113, 1264)
Model: "model_3"
_________________________________________________________________
 Layer (type)                Output Shape              Param #   
=================================================================
 input_4 (InputLayer)        [(None, 1264)]            0         
                                                                 
 dense_3 (Dense)             (None, 2780)              3516700   
                                                                 
 batch_normalization_3 (Batc  (None, 2780)             11120     
 hNormalization)                                                 
                                                                 
 re_lu_3 (ReLU)              (None, 2780)              0         
                                                                 
 bottleneck (Dense)          (None, 821)               2283201   
                                                                 
 batch_normalization_4 (Batc  (None, 821)              3284      
 hNormalization)                                                 
                                                                 
 re_lu_4 (ReLU)              (None, 821)               0         
                                                                 
 dense_4 (Dense)             (None, 2780)              2285160   
                                                                 
 batch_normalization_5 (Batc  (None, 2780)             11120     
 hNormalization)                                                 
                                                                 
 re_lu_5 (ReLU)              (None, 2780)              0         
                                                                 
 dense_5 (Dense)             (None, 1264)              3515184   
                                                                 
=================================================================
Total params: 11,625,769
Trainable params: 11,613,007
Non-trainable params: 12,762
_________________________________________________________________
Epoch 1/200
1493/1493 - 118s - loss: 0.0093 - val_loss: 0.0042 - 118s/epoch - 79ms/step
Epoch 2/200
1493/1493 - 117s - loss: 0.0029 - val_loss: 0.0033 - 117s/epoch - 79ms/step
…
 [==============================] - 5s 14ms/step
correlation 0.001046567711567726
cosine 0.0008231534391270913
MAE: 0.0052993423
RMSE: 0.009609601
r2: 0.994010168921737
RMSE zero-vector: 0.23411466903540806
Full AutoEncoder
Model: "model_3"
_________________________________________________________________
 Layer (type)                Output Shape              Param #   
=================================================================
 input_4 (InputLayer)        multiple                  0         
                                                                 
 dense_3 (Dense)             (None, 2780)              3516700   
                                                                 
 batch_normalization_3 (Batc  (None, 2780)             11120     
 hNormalization)                                                 
                                                                 
 re_lu_3 (ReLU)              (None, 2780)              0         
                                                                 
 bottleneck (Dense)          (None, 821)               2283201   
                                                                 
 batch_normalization_4 (Batc  (None, 821)              3284      
 hNormalization)                                                 
                                                                 
 re_lu_4 (ReLU)              (None, 821)               0         
                                                                 
 dense_4 (Dense)             (None, 2780)              2285160   
                                                                 
 batch_normalization_5 (Batc  (None, 2780)             11120     
 hNormalization)                                                 
                                                                 
 re_lu_5 (ReLU)              (None, 2780)              0         
                                                                 
 dense_5 (Dense)             (None, 1264)              3515184   
                                                                 
=================================================================
Total params: 11,625,769
Trainable params: 11,613,007
Non-trainable params: 12,762
_________________________________________________________________
Encoder
Model: "model_4"
_________________________________________________________________
 Layer (type)                Output Shape              Param #   
=================================================================
 input_5 (InputLayer)        [(None, 1264)]            0         
                                                                 
 input_4 (InputLayer)        multiple                  0         
                                                                 
 dense_3 (Dense)             (None, 2780)              3516700   
                                                                 
 batch_normalization_3 (Batc  (None, 2780)             11120     
 hNormalization)                                                 
                                                                 
 re_lu_3 (ReLU)              (None, 2780)              0         
                                                                 
 bottleneck (Dense)          (None, 821)               2283201   
                                                                 
=================================================================
Total params: 5,811,021
Trainable params: 5,805,461
Non-trainable params: 5,560
_________________________________________________________________
Decoder
Model: "model_5"
_________________________________________________________________
 Layer (type)                Output Shape              Param #   
=================================================================
 input_6 (InputLayer)        [(None, 821)]             0         
                                                                 
 batch_normalization_4 (Batc  (None, 821)              3284      
 hNormalization)                                                 
                                                                 
 re_lu_4 (ReLU)              (None, 821)               0         
                                                                 
 dense_4 (Dense)             (None, 2780)              2285160   
                                                                 
 batch_normalization_5 (Batc  (None, 2780)             11120     
 hNormalization)                                                 
                                                                 
 re_lu_5 (ReLU)              (None, 2780)              0         
                                                                 
 dense_5 (Dense)             (None, 1264)              3515184   
                                                                 
=================================================================
Total params: 5,814,748
Trainable params: 5,807,546
Non-trainable params: 7,202
_________________________________________________________________
['2.2custom_n_b', 'mse', 64, 200, 0.0005, 0.65, 821, 8.634762343717739e-05, 9.234451863449067e-05, 0.00104656771156772
…
<class 'float'>, <class 'float'>, <class 'float'>, <class 'float'>, <class 'float'>, <class 'float'>, <class 'float'>]
./DATAFILES/MP_GapFeats_2.2final2_custom_n_b already created.
Shape of dataset to encode: (106113, 1264)
Model: "model_6"
_________________________________________________________________
 Layer (type)                Output Shape              Param #   
=================================================================
 input_7 (InputLayer)        [(None, 1264)]            0         
                                                                 
 dense_6 (Dense)             (None, 2780)              3516700   
                                                                 
 batch_normalization_6 (Batc  (None, 2780)             11120     
 hNormalization)                                                 
                                                                 
 re_lu_6 (ReLU)              (None, 2780)              0         
                                                                 
 bottleneck (Dense)          (None, 758)               2107998   
                                                                 
 batch_normalization_7 (Batc  (None, 758)              3032      
 hNormalization)                                                 
                                                                 
 re_lu_7 (ReLU)              (None, 758)               0         
                                                                 
 dense_7 (Dense)             (None, 2780)              2110020   
                                                                 
 batch_normalization_8 (Batc  (None, 2780)             11120     
 hNormalization)                                                 
                                                                 
 re_lu_8 (ReLU)              (None, 2780)              0         
                                                                 
 dense_8 (Dense)             (None, 1264)              3515184   
                                                                 
=================================================================
Total params: 11,275,174
Trainable params: 11,262,538
Non-trainable params: 12,636
_________________________________________________________________
Epoch 1/200
1493/1493 - 111s - loss: 0.0093 - val_loss: 0.0039 - 111s/epoch - 74ms/step
Epoch 2/200
1493/1493 - 110s - loss: 0.0029 - val_loss: 0.0032 - 110s/epoch - 74ms/step
…
==============================] - 5s 14ms/step
correlation 0.0011070087816056511
cosine 0.0008754217530303392
MAE: 0.0054543833
RMSE: 0.009881898
r2: 0.9936658850661778
RMSE zero-vector: 0.23411466903540806
Full AutoEncoder
Model: "model_6"
_________________________________________________________________
 Layer (type)                Output Shape              Param #   
=================================================================
 input_7 (InputLayer)        multiple                  0         
                                                                 
 dense_6 (Dense)             (None, 2780)              3516700   
                                                                 
 batch_normalization_6 (Batc  (None, 2780)             11120     
 hNormalization)                                                 
                                                                 
 re_lu_6 (ReLU)              (None, 2780)              0         
                                                                 
 bottleneck (Dense)          (None, 758)               2107998   
                                                                 
 batch_normalization_7 (Batc  (None, 758)              3032      
 hNormalization)                                                 
                                                                 
 re_lu_7 (ReLU)              (None, 758)               0         
                                                                 
 dense_7 (Dense)             (None, 2780)              2110020   
                                                                 
 batch_normalization_8 (Batc  (None, 2780)             11120     
 hNormalization)                                                 
                                                                 
 re_lu_8 (ReLU)              (None, 2780)              0         
                                                                 
 dense_8 (Dense)             (None, 1264)              3515184   
                                                                 
=================================================================
Total params: 11,275,174
Trainable params: 11,262,538
Non-trainable params: 12,636
_________________________________________________________________
Encoder
Model: "model_7"
_________________________________________________________________
 Layer (type)                Output Shape              Param #   
=================================================================
 input_8 (InputLayer)        [(None, 1264)]            0         
                                                                 
 input_7 (InputLayer)        multiple                  0         
                                                                 
 dense_6 (Dense)             (None, 2780)              3516700   
                                                                 
 batch_normalization_6 (Batc  (None, 2780)             11120     
 hNormalization)                                                 
                                                                 
 re_lu_6 (ReLU)              (None, 2780)              0         
                                                                 
 bottleneck (Dense)          (None, 758)               2107998   
                                                                 
=================================================================
Total params: 5,635,818
Trainable params: 5,630,258
Non-trainable params: 5,560
_________________________________________________________________
Decoder
Model: "model_8"
_________________________________________________________________
 Layer (type)                Output Shape              Param #   
=================================================================
 input_9 (InputLayer)        [(None, 758)]             0         
                                                                 
 batch_normalization_7 (Batc  (None, 758)              3032      
 hNormalization)                                                 
                                                                 
 re_lu_7 (ReLU)              (None, 758)               0         
                                                                 
 dense_7 (Dense)             (None, 2780)              2110020   
                                                                 
 batch_normalization_8 (Batc  (None, 2780)             11120     
 hNormalization)                                                 
                                                                 
 re_lu_8 (ReLU)              (None, 2780)              0         
                                                                 
 dense_8 (Dense)             (None, 1264)              3515184   
                                                                 
=================================================================
Total params: 5,639,356
Trainable params: 5,632,280
Non-trainable params: 7,076
_________________________________________________________________
['2.2custom_n_b', 'mse', 64, 200, 0.0005, 0.6, 758, 8.890915341908112e-05, 9.76520313997753e-05, 0.0011070087816056511
…
<class 'float'>, <class 'float'>, <class 'float'>, <class 'float'>, <class 'float'>, <class 'float'>, <class 'float'>]
./DATAFILES/MP_GapFeats_2.2final2_custom_n_b already created.
Shape of dataset to encode: (106113, 1264)
Model: "model_9"
_________________________________________________________________
 Layer (type)                Output Shape              Param #   
=================================================================
 input_10 (InputLayer)       [(None, 1264)]            0         
                                                                 
 dense_9 (Dense)             (None, 2780)              3516700   
                                                                 
 batch_normalization_9 (Batc  (None, 2780)             11120     
 hNormalization)                                                 
                                                                 
 re_lu_9 (ReLU)              (None, 2780)              0         
                                                                 
 bottleneck (Dense)          (None, 695)               1932795   
                                                                 
 batch_normalization_10 (Bat  (None, 695)              2780      
 chNormalization)                                                
                                                                 
 re_lu_10 (ReLU)             (None, 695)               0         
                                                                 
 dense_10 (Dense)            (None, 2780)              1934880   
                                                                 
 batch_normalization_11 (Bat  (None, 2780)             11120     
 chNormalization)                                                
                                                                 
 re_lu_11 (ReLU)             (None, 2780)              0         
                                                                 
 dense_11 (Dense)            (None, 1264)              3515184   
                                                                 
=================================================================
Total params: 10,924,579
Trainable params: 10,912,069
Non-trainable params: 12,510
_________________________________________________________________
Epoch 1/200
1493/1493 - 108s - loss: 0.0094 - val_loss: 0.0039 - 108s/epoch - 72ms/step
Epoch 2/200
1493/1493 - 107s - loss: 0.0029 - val_loss: 0.0033 - 107s/epoch - 72ms/step
…
==============================] - 4s 13ms/step
correlation 0.0011760411489877079
cosine 0.0009267863028012623
MAE: 0.0055900365
RMSE: 0.010163451
r2: 0.9932991669411992
RMSE zero-vector: 0.23411466903540806
Full AutoEncoder
Model: "model_9"
_________________________________________________________________
 Layer (type)                Output Shape              Param #   
=================================================================
 input_10 (InputLayer)       multiple                  0         
                                                                 
 dense_9 (Dense)             (None, 2780)              3516700   
                                                                 
 batch_normalization_9 (Batc  (None, 2780)             11120     
 hNormalization)                                                 
                                                                 
 re_lu_9 (ReLU)              (None, 2780)              0         
                                                                 
 bottleneck (Dense)          (None, 695)               1932795   
                                                                 
 batch_normalization_10 (Bat  (None, 695)              2780      
 chNormalization)                                                
                                                                 
 re_lu_10 (ReLU)             (None, 695)               0         
                                                                 
 dense_10 (Dense)            (None, 2780)              1934880   
                                                                 
 batch_normalization_11 (Bat  (None, 2780)             11120     
 chNormalization)                                                
                                                                 
 re_lu_11 (ReLU)             (None, 2780)              0         
                                                                 
 dense_11 (Dense)            (None, 1264)              3515184   
                                                                 
=================================================================
Total params: 10,924,579
Trainable params: 10,912,069
Non-trainable params: 12,510
_________________________________________________________________
Encoder
Model: "model_10"
_________________________________________________________________
 Layer (type)                Output Shape              Param #   
=================================================================
 input_11 (InputLayer)       [(None, 1264)]            0         
                                                                 
 input_10 (InputLayer)       multiple                  0         
                                                                 
 dense_9 (Dense)             (None, 2780)              3516700   
                                                                 
 batch_normalization_9 (Batc  (None, 2780)             11120     
 hNormalization)                                                 
                                                                 
 re_lu_9 (ReLU)              (None, 2780)              0         
                                                                 
 bottleneck (Dense)          (None, 695)               1932795   
                                                                 
=================================================================
Total params: 5,460,615
Trainable params: 5,455,055
Non-trainable params: 5,560
_________________________________________________________________
Decoder
Model: "model_11"
_________________________________________________________________
 Layer (type)                Output Shape              Param #   
=================================================================
 input_12 (InputLayer)       [(None, 695)]             0         
                                                                 
 batch_normalization_10 (Bat  (None, 695)              2780      
 chNormalization)                                                
                                                                 
 re_lu_10 (ReLU)             (None, 695)               0         
                                                                 
 dense_10 (Dense)            (None, 2780)              1934880   
                                                                 
 batch_normalization_11 (Bat  (None, 2780)             11120     
 chNormalization)                                                
                                                                 
 re_lu_11 (ReLU)             (None, 2780)              0         
                                                                 
 dense_11 (Dense)            (None, 1264)              3515184   
                                                                 
=================================================================
Total params: 5,463,964
Trainable params: 5,457,014
Non-trainable params: 6,950
_________________________________________________________________
['2.2custom_n_b', 'mse', 64, 200, 0.0005, 0.55, 695, 9.149807738140225e-05, 0.00010329580254619941, 0.0011760411489877
…
class 'float'>, <class 'float'>, <class 'float'>, <class 'float'>, <class 'float'>, <class 'float'>, <class 'float'>]
./DATAFILES/MP_GapFeats_2.2final2_custom_n_b already created.
Shape of dataset to encode: (106113, 1264)
Model: "model_12"
_________________________________________________________________
 Layer (type)                Output Shape              Param #   
=================================================================
 input_13 (InputLayer)       [(None, 1264)]            0         
                                                                 
 dense_12 (Dense)            (None, 2780)              3516700   
                                                                 
 batch_normalization_12 (Bat  (None, 2780)             11120     
 chNormalization)                                                
                                                                 
 re_lu_12 (ReLU)             (None, 2780)              0         
                                                                 
 bottleneck (Dense)          (None, 631)               1754811   
                                                                 
 batch_normalization_13 (Bat  (None, 631)              2524      
 chNormalization)                                                
                                                                 
 re_lu_13 (ReLU)             (None, 631)               0         
                                                                 
 dense_13 (Dense)            (None, 2780)              1756960   
                                                                 
 batch_normalization_14 (Bat  (None, 2780)             11120     
 chNormalization)                                                
                                                                 
 re_lu_14 (ReLU)             (None, 2780)              0         
                                                                 
 dense_14 (Dense)            (None, 1264)              3515184   
                                                                 
=================================================================
Total params: 10,568,419
Trainable params: 10,556,037
Non-trainable params: 12,382
_________________________________________________________________
Epoch 1/200
1493/1493 - 106s - loss: 0.0094 - val_loss: 0.0039 - 106s/epoch - 71ms/step
Epoch 2/200
1493/1493 - 105s - loss: 0.0030 - val_loss: 0.0030 - 105s/epoch - 70ms/step
…
[==============================] - 4s 13ms/step
correlation 0.0012034337295031845
cosine 0.00094699596194919
MAE: 0.0057332683
RMSE: 0.010291853
r2: 0.9931287228058481
RMSE zero-vector: 0.23411466903540806
Full AutoEncoder
Model: "model_12"
_________________________________________________________________
 Layer (type)                Output Shape              Param #   
=================================================================
 input_13 (InputLayer)       multiple                  0         
                                                                 
 dense_12 (Dense)            (None, 2780)              3516700   
                                                                 
 batch_normalization_12 (Bat  (None, 2780)             11120     
 chNormalization)                                                
                                                                 
 re_lu_12 (ReLU)             (None, 2780)              0         
                                                                 
 bottleneck (Dense)          (None, 631)               1754811   
                                                                 
 batch_normalization_13 (Bat  (None, 631)              2524      
 chNormalization)                                                
                                                                 
 re_lu_13 (ReLU)             (None, 631)               0         
                                                                 
 dense_13 (Dense)            (None, 2780)              1756960   
                                                                 
 batch_normalization_14 (Bat  (None, 2780)             11120     
 chNormalization)                                                
                                                                 
 re_lu_14 (ReLU)             (None, 2780)              0         
                                                                 
 dense_14 (Dense)            (None, 1264)              3515184   
                                                                 
=================================================================
Total params: 10,568,419
Trainable params: 10,556,037
Non-trainable params: 12,382
_________________________________________________________________
Encoder
Model: "model_13"
_________________________________________________________________
 Layer (type)                Output Shape              Param #   
=================================================================
 input_14 (InputLayer)       [(None, 1264)]            0         
                                                                 
 input_13 (InputLayer)       multiple                  0         
                                                                 
 dense_12 (Dense)            (None, 2780)              3516700   
                                                                 
 batch_normalization_12 (Bat  (None, 2780)             11120     
 chNormalization)                                                
                                                                 
 re_lu_12 (ReLU)             (None, 2780)              0         
                                                                 
 bottleneck (Dense)          (None, 631)               1754811   
                                                                 
=================================================================
Total params: 5,282,631
Trainable params: 5,277,071
Non-trainable params: 5,560
_________________________________________________________________
Decoder
Model: "model_14"
_________________________________________________________________
 Layer (type)                Output Shape              Param #   
=================================================================
 input_15 (InputLayer)       [(None, 631)]             0         
                                                                 
 batch_normalization_13 (Bat  (None, 631)              2524      
 chNormalization)                                                
                                                                 
 re_lu_13 (ReLU)             (None, 631)               0         
                                                                 
 dense_13 (Dense)            (None, 2780)              1756960   
                                                                 
 batch_normalization_14 (Bat  (None, 2780)             11120     
 chNormalization)                                                
                                                                 
 re_lu_14 (ReLU)             (None, 2780)              0         
                                                                 
 dense_14 (Dense)            (None, 1264)              3515184   
                                                                 
=================================================================
Total params: 5,285,788
Trainable params: 5,278,966
Non-trainable params: 6,822
_________________________________________________________________
['2.2custom_n_b', 'mse', 64, 200, 0.0005, 0.5, 631, 9.792287164600566e-05, 0.00010592234320938587, 0.00120343372950318
…
class 'float'>, <class 'float'>, <class 'float'>, <class 'float'>, <class 'float'>, <class 'float'>, <class 'float'>]
./DATAFILES/MP_GapFeats_2.2final2_custom_n_b already created.
Shape of dataset to encode: (106113, 1264)
Model: "model_15"
_________________________________________________________________
 Layer (type)                Output Shape              Param #   
=================================================================
 input_16 (InputLayer)       [(None, 1264)]            0         
                                                                 
 dense_15 (Dense)            (None, 2780)              3516700   
                                                                 
 batch_normalization_15 (Bat  (None, 2780)             11120     
 chNormalization)                                                
                                                                 
 re_lu_15 (ReLU)             (None, 2780)              0         
                                                                 
 bottleneck (Dense)          (None, 568)               1579608   
                                                                 
 batch_normalization_16 (Bat  (None, 568)              2272      
 chNormalization)                                                
                                                                 
 re_lu_16 (ReLU)             (None, 568)               0         
                                                                 
 dense_16 (Dense)            (None, 2780)              1581820   
                                                                 
 batch_normalization_17 (Bat  (None, 2780)             11120     
 chNormalization)                                                
                                                                 
 re_lu_17 (ReLU)             (None, 2780)              0         
                                                                 
 dense_17 (Dense)            (None, 1264)              3515184   
                                                                 
=================================================================
Total params: 10,217,824
Trainable params: 10,205,568
Non-trainable params: 12,256
_________________________________________________________________
Epoch 1/200
1493/1493 - 102s - loss: 0.0095 - val_loss: 0.0045 - 102s/epoch - 68ms/step
Epoch 2/200
1493/1493 - 101s - loss: 0.0030 - val_loss: 0.0030 - 101s/epoch - 68ms/step
…
=============================] - 4s 12ms/step
correlation 0.0012731167827962795
cosine 0.0010020038035066002
MAE: 0.0058802767
RMSE: 0.010615483
r2: 0.9926909039660967
RMSE zero-vector: 0.23411466903540806
Full AutoEncoder
Model: "model_15"
_________________________________________________________________
 Layer (type)                Output Shape              Param #   
=================================================================
 input_16 (InputLayer)       multiple                  0         
                                                                 
 dense_15 (Dense)            (None, 2780)              3516700   
                                                                 
 batch_normalization_15 (Bat  (None, 2780)             11120     
 chNormalization)                                                
                                                                 
 re_lu_15 (ReLU)             (None, 2780)              0         
                                                                 
 bottleneck (Dense)          (None, 568)               1579608   
                                                                 
 batch_normalization_16 (Bat  (None, 568)              2272      
 chNormalization)                                                
                                                                 
 re_lu_16 (ReLU)             (None, 568)               0         
                                                                 
 dense_16 (Dense)            (None, 2780)              1581820   
                                                                 
 batch_normalization_17 (Bat  (None, 2780)             11120     
 chNormalization)                                                
                                                                 
 re_lu_17 (ReLU)             (None, 2780)              0         
                                                                 
 dense_17 (Dense)            (None, 1264)              3515184   
                                                                 
=================================================================
Total params: 10,217,824
Trainable params: 10,205,568
Non-trainable params: 12,256
_________________________________________________________________
Encoder
Model: "model_16"
_________________________________________________________________
 Layer (type)                Output Shape              Param #   
=================================================================
 input_17 (InputLayer)       [(None, 1264)]            0         
                                                                 
 input_16 (InputLayer)       multiple                  0         
                                                                 
 dense_15 (Dense)            (None, 2780)              3516700   
                                                                 
 batch_normalization_15 (Bat  (None, 2780)             11120     
 chNormalization)                                                
                                                                 
 re_lu_15 (ReLU)             (None, 2780)              0         
                                                                 
 bottleneck (Dense)          (None, 568)               1579608   
                                                                 
=================================================================
Total params: 5,107,428
Trainable params: 5,101,868
Non-trainable params: 5,560
_________________________________________________________________
Decoder
Model: "model_17"
_________________________________________________________________
 Layer (type)                Output Shape              Param #   
=================================================================
 input_18 (InputLayer)       [(None, 568)]             0         
                                                                 
 batch_normalization_16 (Bat  (None, 568)              2272      
 chNormalization)                                                
                                                                 
 re_lu_16 (ReLU)             (None, 568)               0         
                                                                 
 dense_16 (Dense)            (None, 2780)              1581820   
                                                                 
 batch_normalization_17 (Bat  (None, 2780)             11120     
 chNormalization)                                                
                                                                 
 re_lu_17 (ReLU)             (None, 2780)              0         
                                                                 
 dense_17 (Dense)            (None, 1264)              3515184   
                                                                 
=================================================================
Total params: 5,110,396
Trainable params: 5,103,700
Non-trainable params: 6,696
_________________________________________________________________
['2.2custom_n_b', 'mse', 64, 200, 0.0005, 0.45, 568, 0.00010218996612820774, 0.00011268856906099245, 0.001273116782796
…
class 'float'>, <class 'float'>, <class 'float'>, <class 'float'>, <class 'float'>, <class 'float'>, <class 'float'>]
./DATAFILES/MP_GapFeats_2.2final2_custom_n_b already created.
Shape of dataset to encode: (106113, 1264)
Model: "model_18"
_________________________________________________________________
 Layer (type)                Output Shape              Param #   
=================================================================
 input_19 (InputLayer)       [(None, 1264)]            0         
                                                                 
 dense_18 (Dense)            (None, 2780)              3516700   
                                                                 
 batch_normalization_18 (Bat  (None, 2780)             11120     
 chNormalization)                                                
                                                                 
 re_lu_18 (ReLU)             (None, 2780)              0         
                                                                 
 bottleneck (Dense)          (None, 505)               1404405   
                                                                 
 batch_normalization_19 (Bat  (None, 505)              2020      
 chNormalization)                                                
                                                                 
 re_lu_19 (ReLU)             (None, 505)               0         
                                                                 
 dense_19 (Dense)            (None, 2780)              1406680   
                                                                 
 batch_normalization_20 (Bat  (None, 2780)             11120     
 chNormalization)                                                
                                                                 
 re_lu_20 (ReLU)             (None, 2780)              0         
                                                                 
 dense_20 (Dense)            (None, 1264)              3515184   
                                                                 
=================================================================
Total params: 9,867,229
Trainable params: 9,855,099
Non-trainable params: 12,130
_________________________________________________________________
Epoch 1/200
1493/1493 - 97s - loss: 0.0096 - val_loss: 0.0041 - 97s/epoch - 65ms/step
Epoch 2/200
1493/1493 - 96s - loss: 0.0031 - val_loss: 0.0033 - 96s/epoch - 64ms/step
…
2 [==============================] - 4s 12ms/step
correlation 0.001282121482050019
cosine 0.001011340108359934
MAE: 0.005929075
RMSE: 0.010659336
r2: 0.992629987633154
RMSE zero-vector: 0.23411466903540806
Full AutoEncoder
Model: "model_18"
_________________________________________________________________
 Layer (type)                Output Shape              Param #   
=================================================================
 input_19 (InputLayer)       multiple                  0         
                                                                 
 dense_18 (Dense)            (None, 2780)              3516700   
                                                                 
 batch_normalization_18 (Bat  (None, 2780)             11120     
 chNormalization)                                                
                                                                 
 re_lu_18 (ReLU)             (None, 2780)              0         
                                                                 
 bottleneck (Dense)          (None, 505)               1404405   
                                                                 
 batch_normalization_19 (Bat  (None, 505)              2020      
 chNormalization)                                                
                                                                 
 re_lu_19 (ReLU)             (None, 505)               0         
                                                                 
 dense_19 (Dense)            (None, 2780)              1406680   
                                                                 
 batch_normalization_20 (Bat  (None, 2780)             11120     
 chNormalization)                                                
                                                                 
 re_lu_20 (ReLU)             (None, 2780)              0         
                                                                 
 dense_20 (Dense)            (None, 1264)              3515184   
                                                                 
=================================================================
Total params: 9,867,229
Trainable params: 9,855,099
Non-trainable params: 12,130
_________________________________________________________________
Encoder
Model: "model_19"
_________________________________________________________________
 Layer (type)                Output Shape              Param #   
=================================================================
 input_20 (InputLayer)       [(None, 1264)]            0         
                                                                 
 input_19 (InputLayer)       multiple                  0         
                                                                 
 dense_18 (Dense)            (None, 2780)              3516700   
                                                                 
 batch_normalization_18 (Bat  (None, 2780)             11120     
 chNormalization)                                                
                                                                 
 re_lu_18 (ReLU)             (None, 2780)              0         
                                                                 
 bottleneck (Dense)          (None, 505)               1404405   
                                                                 
=================================================================
Total params: 4,932,225
Trainable params: 4,926,665
Non-trainable params: 5,560
_________________________________________________________________
Decoder
Model: "model_20"
_________________________________________________________________
 Layer (type)                Output Shape              Param #   
=================================================================
 input_21 (InputLayer)       [(None, 505)]             0         
                                                                 
 batch_normalization_19 (Bat  (None, 505)              2020      
 chNormalization)                                                
                                                                 
 re_lu_19 (ReLU)             (None, 505)               0         
                                                                 
 dense_19 (Dense)            (None, 2780)              1406680   
                                                                 
 batch_normalization_20 (Bat  (None, 2780)             11120     
 chNormalization)                                                
                                                                 
 re_lu_20 (ReLU)             (None, 2780)              0         
                                                                 
 dense_20 (Dense)            (None, 1264)              3515184   
                                                                 
=================================================================
Total params: 4,935,004
Trainable params: 4,928,434
Non-trainable params: 6,570
_________________________________________________________________
['2.2custom_n_b', 'mse', 64, 200, 0.0005, 0.4, 505, 0.00010923185618594289, 0.00011362153600202873, 0.0012821214820500
…
