…
2022-12-20 18:29:43.093010: I tensorflow/core/common_runtime/gpu/gpu_device.cc:1616] Created device /job:localhost/replica:0/task:0/device:GPU:0 with 9636 MB memory:  -> device: 0, name: GeForce RTX 2080 Ti, pci bus id: 0000:1e:00.0, compute capability: 7.5
Model: "model"
_________________________________________________________________
 Layer (type)                Output Shape              Param #   
=================================================================
 input_1 (InputLayer)        [(None, 1264)]            0         
                                                                 
 dense (Dense)               (None, 2528)              3197920   
                                                                 
 batch_normalization (BatchN  (None, 2528)             10112     
 ormalization)                                                   
                                                                 
 re_lu (ReLU)                (None, 2528)              0         
                                                                 
 dense_1 (Dense)             (None, 1896)              4794984   
                                                                 
 batch_normalization_1 (Batc  (None, 1896)             7584      
 hNormalization)                                                 
                                                                 
 re_lu_1 (ReLU)              (None, 1896)              0         
                                                                 
 bottleneck (Dense)          (None, 1264)              2397808   
                                                                 
 batch_normalization_2 (Batc  (None, 1264)             5056      
 hNormalization)                                                 
                                                                 
 re_lu_2 (ReLU)              (None, 1264)              0         
                                                                 
 dense_2 (Dense)             (None, 1896)              2398440   
                                                                 
 batch_normalization_3 (Batc  (None, 1896)             7584      
 hNormalization)                                                 
                                                                 
 re_lu_3 (ReLU)              (None, 1896)              0         
                                                                 
 dense_3 (Dense)             (None, 2528)              4795616   
                                                                 
 batch_normalization_4 (Batc  (None, 2528)             10112     
 hNormalization)                                                 
                                                                 
 re_lu_4 (ReLU)              (None, 2528)              0         
                                                                 
 dense_4 (Dense)             (None, 1264)              3196656   
                                                                 
=================================================================
Total params: 20,821,872
Trainable params: 20,801,648
Non-trainable params: 20,224
_________________________________________________________________
Epoch 1/400
5969/5969 - 27s - loss: 0.0081 - val_loss: 0.0046 - 27s/epoch - 4ms/step
Epoch 2/400
5969/5969 - 24s - loss: 0.0036 - val_loss: 0.0030 - 24s/epoch - 4ms/step
…
332/332 [==============================] - 1s 1ms/step
correlation 0.05223990431286414
cosine 0.047272968135108555
MAE: 0.18373947
RMSE: 1.4801812
r2: -141.13216808468985
RMSE zero-vector: 0.23411466903540806
Full AutoEncoder
Model: "model"
_________________________________________________________________
 Layer (type)                Output Shape              Param #   
=================================================================
 input_1 (InputLayer)        multiple                  0         
                                                                 
 dense (Dense)               (None, 2528)              3197920   
                                                                 
 batch_normalization (BatchN  (None, 2528)             10112     
 ormalization)                                                   
                                                                 
 re_lu (ReLU)                (None, 2528)              0         
                                                                 
 dense_1 (Dense)             (None, 1896)              4794984   
                                                                 
 batch_normalization_1 (Batc  (None, 1896)             7584      
 hNormalization)                                                 
                                                                 
 re_lu_1 (ReLU)              (None, 1896)              0         
                                                                 
 bottleneck (Dense)          (None, 1264)              2397808   
                                                                 
 batch_normalization_2 (Batc  (None, 1264)             5056      
 hNormalization)                                                 
                                                                 
 re_lu_2 (ReLU)              (None, 1264)              0         
                                                                 
 dense_2 (Dense)             (None, 1896)              2398440   
                                                                 
 batch_normalization_3 (Batc  (None, 1896)             7584      
 hNormalization)                                                 
                                                                 
 re_lu_3 (ReLU)              (None, 1896)              0         
                                                                 
 dense_3 (Dense)             (None, 2528)              4795616   
                                                                 
 batch_normalization_4 (Batc  (None, 2528)             10112     
 hNormalization)                                                 
                                                                 
 re_lu_4 (ReLU)              (None, 2528)              0         
                                                                 
 dense_4 (Dense)             (None, 1264)              3196656   
                                                                 
=================================================================
Total params: 20,821,872
Trainable params: 20,801,648
Non-trainable params: 20,224
_________________________________________________________________
Encoder
Model: "model_1"
_________________________________________________________________
 Layer (type)                Output Shape              Param #   
=================================================================
 input_2 (InputLayer)        [(None, 1264)]            0         
                                                                 
 input_1 (InputLayer)        multiple                  0         
                                                                 
 dense (Dense)               (None, 2528)              3197920   
                                                                 
 batch_normalization (BatchN  (None, 2528)             10112     
 ormalization)                                                   
                                                                 
 re_lu (ReLU)                (None, 2528)              0         
                                                                 
 dense_1 (Dense)             (None, 1896)              4794984   
                                                                 
 batch_normalization_1 (Batc  (None, 1896)             7584      
 hNormalization)                                                 
                                                                 
 re_lu_1 (ReLU)              (None, 1896)              0         
                                                                 
 bottleneck (Dense)          (None, 1264)              2397808   
                                                                 
=================================================================
Total params: 10,408,408
Trainable params: 10,399,560
Non-trainable params: 8,848
_________________________________________________________________
Decoder
Model: "model_2"
_________________________________________________________________
 Layer (type)                Output Shape              Param #   
=================================================================
 input_3 (InputLayer)        [(None, 1264)]            0         
                                                                 
 batch_normalization_2 (Batc  (None, 1264)             5056      
 hNormalization)                                                 
                                                                 
 re_lu_2 (ReLU)              (None, 1264)              0         
                                                                 
 dense_2 (Dense)             (None, 1896)              2398440   
                                                                 
 batch_normalization_3 (Batc  (None, 1896)             7584      
 hNormalization)                                                 
                                                                 
 re_lu_3 (ReLU)              (None, 1896)              0         
                                                                 
 dense_3 (Dense)             (None, 2528)              4795616   
                                                                 
 batch_normalization_4 (Batc  (None, 2528)             10112     
 hNormalization)                                                 
                                                                 
 re_lu_4 (ReLU)              (None, 2528)              0         
                                                                 
 dense_4 (Dense)             (None, 1264)              3196656   
                                                                 
=================================================================
Total params: 10,413,464
Trainable params: 10,402,088
Non-trainable params: 11,376
_________________________________________________________________
Model: "model_3"
_________________________________________________________________
 Layer (type)                Output Shape              Param #   
=================================================================
 input_4 (InputLayer)        [(None, 1264)]            0         
                                                                 
 dense_5 (Dense)             (None, 2528)              3197920   
                                                                 
 batch_normalization_5 (Batc  (None, 2528)             10112     
 hNormalization)                                                 
                                                                 
 re_lu_5 (ReLU)              (None, 2528)              0         
                                                                 
 dense_6 (Dense)             (None, 1864)              4714056   
                                                                 
 batch_normalization_6 (Batc  (None, 1864)             7456      
 hNormalization)                                                 
                                                                 
 re_lu_6 (ReLU)              (None, 1864)              0         
                                                                 
 bottleneck (Dense)          (None, 1200)              2238000   
                                                                 
 batch_normalization_7 (Batc  (None, 1200)             4800      
 hNormalization)                                                 
                                                                 
 re_lu_7 (ReLU)              (None, 1200)              0         
                                                                 
 dense_7 (Dense)             (None, 1864)              2238664   
                                                                 
 batch_normalization_8 (Batc  (None, 1864)             7456      
 hNormalization)                                                 
                                                                 
 re_lu_8 (ReLU)              (None, 1864)              0         
                                                                 
 dense_8 (Dense)             (None, 2528)              4714720   
                                                                 
 batch_normalization_9 (Batc  (None, 2528)             10112     
 hNormalization)                                                 
                                                                 
 re_lu_9 (ReLU)              (None, 2528)              0         
                                                                 
 dense_9 (Dense)             (None, 1264)              3196656   
                                                                 
=================================================================
Total params: 20,339,952
Trainable params: 20,319,984
Non-trainable params: 19,968
_________________________________________________________________
Epoch 1/400
5969/5969 - 26s - loss: 0.0083 - val_loss: 0.0039 - 26s/epoch - 4ms/step
Epoch 2/400
5969/5969 - 24s - loss: 0.0035 - val_loss: 0.0024 - 24s/epoch - 4ms/step
…
332/332 [==============================] - 1s 1ms/step
correlation 0.03589597478934328
cosine 0.03198922691460245
MAE: 0.03938379
RMSE: 0.258826
r2: -3.3458615741982682
RMSE zero-vector: 0.23411466903540806
Full AutoEncoder
Model: "model_3"
_________________________________________________________________
 Layer (type)                Output Shape              Param #   
=================================================================
 input_4 (InputLayer)        multiple                  0         
                                                                 
 dense_5 (Dense)             (None, 2528)              3197920   
                                                                 
 batch_normalization_5 (Batc  (None, 2528)             10112     
 hNormalization)                                                 
                                                                 
 re_lu_5 (ReLU)              (None, 2528)              0         
                                                                 
 dense_6 (Dense)             (None, 1864)              4714056   
                                                                 
 batch_normalization_6 (Batc  (None, 1864)             7456      
 hNormalization)                                                 
                                                                 
 re_lu_6 (ReLU)              (None, 1864)              0         
                                                                 
 bottleneck (Dense)          (None, 1200)              2238000   
                                                                 
 batch_normalization_7 (Batc  (None, 1200)             4800      
 hNormalization)                                                 
                                                                 
 re_lu_7 (ReLU)              (None, 1200)              0         
                                                                 
 dense_7 (Dense)             (None, 1864)              2238664   
                                                                 
 batch_normalization_8 (Batc  (None, 1864)             7456      
 hNormalization)                                                 
                                                                 
 re_lu_8 (ReLU)              (None, 1864)              0         
                                                                 
 dense_8 (Dense)             (None, 2528)              4714720   
                                                                 
 batch_normalization_9 (Batc  (None, 2528)             10112     
 hNormalization)                                                 
                                                                 
 re_lu_9 (ReLU)              (None, 2528)              0         
                                                                 
 dense_9 (Dense)             (None, 1264)              3196656   
                                                                 
=================================================================
Total params: 20,339,952
Trainable params: 20,319,984
Non-trainable params: 19,968
_________________________________________________________________
Encoder
Model: "model_4"
_________________________________________________________________
 Layer (type)                Output Shape              Param #   
=================================================================
 input_5 (InputLayer)        [(None, 1264)]            0         
                                                                 
 input_4 (InputLayer)        multiple                  0         
                                                                 
 dense_5 (Dense)             (None, 2528)              3197920   
                                                                 
 batch_normalization_5 (Batc  (None, 2528)             10112     
 hNormalization)                                                 
                                                                 
 re_lu_5 (ReLU)              (None, 2528)              0         
                                                                 
 dense_6 (Dense)             (None, 1864)              4714056   
                                                                 
 batch_normalization_6 (Batc  (None, 1864)             7456      
 hNormalization)                                                 
                                                                 
 re_lu_6 (ReLU)              (None, 1864)              0         
                                                                 
 bottleneck (Dense)          (None, 1200)              2238000   
                                                                 
=================================================================
Total params: 10,167,544
Trainable params: 10,158,760
Non-trainable params: 8,784
_________________________________________________________________
Decoder
Model: "model_5"
_________________________________________________________________
 Layer (type)                Output Shape              Param #   
=================================================================
 input_6 (InputLayer)        [(None, 1200)]            0         
                                                                 
 batch_normalization_7 (Batc  (None, 1200)             4800      
 hNormalization)                                                 
                                                                 
 re_lu_7 (ReLU)              (None, 1200)              0         
                                                                 
 dense_7 (Dense)             (None, 1864)              2238664   
                                                                 
 batch_normalization_8 (Batc  (None, 1864)             7456      
 hNormalization)                                                 
                                                                 
 re_lu_8 (ReLU)              (None, 1864)              0         
                                                                 
 dense_8 (Dense)             (None, 2528)              4714720   
                                                                 
 batch_normalization_9 (Batc  (None, 2528)             10112     
 hNormalization)                                                 
                                                                 
 re_lu_9 (ReLU)              (None, 2528)              0         
                                                                 
 dense_9 (Dense)             (None, 1264)              3196656   
                                                                 
=================================================================
Total params: 10,172,408
Trainable params: 10,161,224
Non-trainable params: 11,184
_________________________________________________________________
Model: "model_6"
_________________________________________________________________
 Layer (type)                Output Shape              Param #   
=================================================================
 input_7 (InputLayer)        [(None, 1264)]            0         
                                                                 
 dense_10 (Dense)            (None, 2528)              3197920   
                                                                 
 batch_normalization_10 (Bat  (None, 2528)             10112     
 chNormalization)                                                
                                                                 
 re_lu_10 (ReLU)             (None, 2528)              0         
                                                                 
 dense_11 (Dense)            (None, 1832)              4633128   
                                                                 
 batch_normalization_11 (Bat  (None, 1832)             7328      
 chNormalization)                                                
                                                                 
 re_lu_11 (ReLU)             (None, 1832)              0         
                                                                 
 bottleneck (Dense)          (None, 1137)              2084121   
                                                                 
 batch_normalization_12 (Bat  (None, 1137)             4548      
 chNormalization)                                                
                                                                 
 re_lu_12 (ReLU)             (None, 1137)              0         
                                                                 
 dense_12 (Dense)            (None, 1832)              2084816   
                                                                 
 batch_normalization_13 (Bat  (None, 1832)             7328      
 chNormalization)                                                
                                                                 
 re_lu_13 (ReLU)             (None, 1832)              0         
                                                                 
 dense_13 (Dense)            (None, 2528)              4633824   
                                                                 
 batch_normalization_14 (Bat  (None, 2528)             10112     
 chNormalization)                                                
                                                                 
 re_lu_14 (ReLU)             (None, 2528)              0         
                                                                 
 dense_14 (Dense)            (None, 1264)              3196656   
                                                                 
=================================================================
Total params: 19,869,893
Trainable params: 19,850,179
Non-trainable params: 19,714
_________________________________________________________________
Epoch 1/400
5969/5969 - 28s - loss: 0.0084 - val_loss: 0.0035 - 28s/epoch - 5ms/step
Epoch 2/400
5969/5969 - 26s - loss: 0.0034 - val_loss: 0.0023 - 26s/epoch - 4ms/step
…
32 [==============================] - 2s 2ms/step
correlation 0.029143761087906162
cosine 0.025793749202459564
MAE: 0.025441015
RMSE: 0.26726893
r2: -3.6340751318170548
RMSE zero-vector: 0.23411466903540806
Full AutoEncoder
Model: "model_6"
_________________________________________________________________
 Layer (type)                Output Shape              Param #   
=================================================================
 input_7 (InputLayer)        multiple                  0         
                                                                 
 dense_10 (Dense)            (None, 2528)              3197920   
                                                                 
 batch_normalization_10 (Bat  (None, 2528)             10112     
 chNormalization)                                                
                                                                 
 re_lu_10 (ReLU)             (None, 2528)              0         
                                                                 
 dense_11 (Dense)            (None, 1832)              4633128   
                                                                 
 batch_normalization_11 (Bat  (None, 1832)             7328      
 chNormalization)                                                
                                                                 
 re_lu_11 (ReLU)             (None, 1832)              0         
                                                                 
 bottleneck (Dense)          (None, 1137)              2084121   
                                                                 
 batch_normalization_12 (Bat  (None, 1137)             4548      
 chNormalization)                                                
                                                                 
 re_lu_12 (ReLU)             (None, 1137)              0         
                                                                 
 dense_12 (Dense)            (None, 1832)              2084816   
                                                                 
 batch_normalization_13 (Bat  (None, 1832)             7328      
 chNormalization)                                                
                                                                 
 re_lu_13 (ReLU)             (None, 1832)              0         
                                                                 
 dense_13 (Dense)            (None, 2528)              4633824   
                                                                 
 batch_normalization_14 (Bat  (None, 2528)             10112     
 chNormalization)                                                
                                                                 
 re_lu_14 (ReLU)             (None, 2528)              0         
                                                                 
 dense_14 (Dense)            (None, 1264)              3196656   
                                                                 
=================================================================
Total params: 19,869,893
Trainable params: 19,850,179
Non-trainable params: 19,714
_________________________________________________________________
Encoder
Model: "model_7"
_________________________________________________________________
 Layer (type)                Output Shape              Param #   
=================================================================
 input_8 (InputLayer)        [(None, 1264)]            0         
                                                                 
 input_7 (InputLayer)        multiple                  0         
                                                                 
 dense_10 (Dense)            (None, 2528)              3197920   
                                                                 
 batch_normalization_10 (Bat  (None, 2528)             10112     
 chNormalization)                                                
                                                                 
 re_lu_10 (ReLU)             (None, 2528)              0         
                                                                 
 dense_11 (Dense)            (None, 1832)              4633128   
                                                                 
 batch_normalization_11 (Bat  (None, 1832)             7328      
 chNormalization)                                                
                                                                 
 re_lu_11 (ReLU)             (None, 1832)              0         
                                                                 
 bottleneck (Dense)          (None, 1137)              2084121   
                                                                 
=================================================================
Total params: 9,932,609
Trainable params: 9,923,889
Non-trainable params: 8,720
_________________________________________________________________
Decoder
Model: "model_8"
_________________________________________________________________
 Layer (type)                Output Shape              Param #   
=================================================================
 input_9 (InputLayer)        [(None, 1137)]            0         
                                                                 
 batch_normalization_12 (Bat  (None, 1137)             4548      
 chNormalization)                                                
                                                                 
 re_lu_12 (ReLU)             (None, 1137)              0         
                                                                 
 dense_12 (Dense)            (None, 1832)              2084816   
                                                                 
 batch_normalization_13 (Bat  (None, 1832)             7328      
 chNormalization)                                                
                                                                 
 re_lu_13 (ReLU)             (None, 1832)              0         
                                                                 
 dense_13 (Dense)            (None, 2528)              4633824   
                                                                 
 batch_normalization_14 (Bat  (None, 2528)             10112     
 chNormalization)                                                
                                                                 
 re_lu_14 (ReLU)             (None, 2528)              0         
                                                                 
 dense_14 (Dense)            (None, 1264)              3196656   
                                                                 
=================================================================
Total params: 9,937,284
Trainable params: 9,926,290
Non-trainable params: 10,994
_________________________________________________________________
Model: "model_9"
_________________________________________________________________
 Layer (type)                Output Shape              Param #   
=================================================================
 input_10 (InputLayer)       [(None, 1264)]            0         
                                                                 
 dense_15 (Dense)            (None, 2528)              3197920   
                                                                 
 batch_normalization_15 (Bat  (None, 2528)             10112     
 chNormalization)                                                
                                                                 
 re_lu_15 (ReLU)             (None, 2528)              0         
                                                                 
 dense_16 (Dense)            (None, 1801)              4554729   
                                                                 
 batch_normalization_16 (Bat  (None, 1801)             7204      
 chNormalization)                                                
                                                                 
 re_lu_16 (ReLU)             (None, 1801)              0         
                                                                 
 bottleneck (Dense)          (None, 1074)              1935348   
                                                                 
 batch_normalization_17 (Bat  (None, 1074)             4296      
 chNormalization)                                                
                                                                 
 re_lu_17 (ReLU)             (None, 1074)              0         
                                                                 
 dense_17 (Dense)            (None, 1801)              1936075   
                                                                 
 batch_normalization_18 (Bat  (None, 1801)             7204      
 chNormalization)                                                
                                                                 
 re_lu_18 (ReLU)             (None, 1801)              0         
                                                                 
 dense_18 (Dense)            (None, 2528)              4555456   
                                                                 
 batch_normalization_19 (Bat  (None, 2528)             10112     
 chNormalization)                                                
                                                                 
 re_lu_19 (ReLU)             (None, 2528)              0         
                                                                 
 dense_19 (Dense)            (None, 1264)              3196656   
                                                                 
=================================================================
Total params: 19,415,112
Trainable params: 19,395,648
Non-trainable params: 19,464
_________________________________________________________________
Epoch 1/400
5969/5969 - 26s - loss: 0.0082 - val_loss: 0.0037 - 26s/epoch - 4ms/step
Epoch 2/400
5969/5969 - 24s - loss: 0.0055 - val_loss: 0.0052 - 24s/epoch - 4ms/step
…
2/332 [==============================] - 2s 2ms/step
correlation 0.03389350708190765
cosine 0.03147398024989242
MAE: 0.038687058
RMSE: 0.5999177
r2: -22.347665045759648
RMSE zero-vector: 0.23411466903540806
Full AutoEncoder
Model: "model_9"
_________________________________________________________________
 Layer (type)                Output Shape              Param #   
=================================================================
 input_10 (InputLayer)       multiple                  0         
                                                                 
 dense_15 (Dense)            (None, 2528)              3197920   
                                                                 
 batch_normalization_15 (Bat  (None, 2528)             10112     
 chNormalization)                                                
                                                                 
 re_lu_15 (ReLU)             (None, 2528)              0         
                                                                 
 dense_16 (Dense)            (None, 1801)              4554729   
                                                                 
 batch_normalization_16 (Bat  (None, 1801)             7204      
 chNormalization)                                                
                                                                 
 re_lu_16 (ReLU)             (None, 1801)              0         
                                                                 
 bottleneck (Dense)          (None, 1074)              1935348   
                                                                 
 batch_normalization_17 (Bat  (None, 1074)             4296      
 chNormalization)                                                
                                                                 
 re_lu_17 (ReLU)             (None, 1074)              0         
                                                                 
 dense_17 (Dense)            (None, 1801)              1936075   
                                                                 
 batch_normalization_18 (Bat  (None, 1801)             7204      
 chNormalization)                                                
                                                                 
 re_lu_18 (ReLU)             (None, 1801)              0         
                                                                 
 dense_18 (Dense)            (None, 2528)              4555456   
                                                                 
 batch_normalization_19 (Bat  (None, 2528)             10112     
 chNormalization)                                                
                                                                 
 re_lu_19 (ReLU)             (None, 2528)              0         
                                                                 
 dense_19 (Dense)            (None, 1264)              3196656   
                                                                 
=================================================================
Total params: 19,415,112
Trainable params: 19,395,648
Non-trainable params: 19,464
_________________________________________________________________
Encoder
Model: "model_10"
_________________________________________________________________
 Layer (type)                Output Shape              Param #   
=================================================================
 input_11 (InputLayer)       [(None, 1264)]            0         
                                                                 
 input_10 (InputLayer)       multiple                  0         
                                                                 
 dense_15 (Dense)            (None, 2528)              3197920   
                                                                 
 batch_normalization_15 (Bat  (None, 2528)             10112     
 chNormalization)                                                
                                                                 
 re_lu_15 (ReLU)             (None, 2528)              0         
                                                                 
 dense_16 (Dense)            (None, 1801)              4554729   
                                                                 
 batch_normalization_16 (Bat  (None, 1801)             7204      
 chNormalization)                                                
                                                                 
 re_lu_16 (ReLU)             (None, 1801)              0         
                                                                 
 bottleneck (Dense)          (None, 1074)              1935348   
                                                                 
=================================================================
Total params: 9,705,313
Trainable params: 9,696,655
Non-trainable params: 8,658
_________________________________________________________________
Decoder
Model: "model_11"
_________________________________________________________________
 Layer (type)                Output Shape              Param #   
=================================================================
 input_12 (InputLayer)       [(None, 1074)]            0         
                                                                 
 batch_normalization_17 (Bat  (None, 1074)             4296      
 chNormalization)                                                
                                                                 
 re_lu_17 (ReLU)             (None, 1074)              0         
                                                                 
 dense_17 (Dense)            (None, 1801)              1936075   
                                                                 
 batch_normalization_18 (Bat  (None, 1801)             7204      
 chNormalization)                                                
                                                                 
 re_lu_18 (ReLU)             (None, 1801)              0         
                                                                 
 dense_18 (Dense)            (None, 2528)              4555456   
                                                                 
 batch_normalization_19 (Bat  (None, 2528)             10112     
 chNormalization)                                                
                                                                 
 re_lu_19 (ReLU)             (None, 2528)              0         
                                                                 
 dense_19 (Dense)            (None, 1264)              3196656   
                                                                 
=================================================================
Total params: 9,709,799
Trainable params: 9,698,993
Non-trainable params: 10,806
_________________________________________________________________
Model: "model_12"
_________________________________________________________________
 Layer (type)                Output Shape              Param #   
=================================================================
 input_13 (InputLayer)       [(None, 1264)]            0         
                                                                 
 dense_20 (Dense)            (None, 2528)              3197920   
                                                                 
 batch_normalization_20 (Bat  (None, 2528)             10112     
 chNormalization)                                                
                                                                 
 re_lu_20 (ReLU)             (None, 2528)              0         
                                                                 
 dense_21 (Dense)            (None, 1769)              4473801   
                                                                 
 batch_normalization_21 (Bat  (None, 1769)             7076      
 chNormalization)                                                
                                                                 
 re_lu_21 (ReLU)             (None, 1769)              0         
                                                                 
 bottleneck (Dense)          (None, 1011)              1789470   
                                                                 
 batch_normalization_22 (Bat  (None, 1011)             4044      
 chNormalization)                                                
                                                                 
 re_lu_22 (ReLU)             (None, 1011)              0         
                                                                 
 dense_22 (Dense)            (None, 1769)              1790228   
                                                                 
 batch_normalization_23 (Bat  (None, 1769)             7076      
 chNormalization)                                                
                                                                 
 re_lu_23 (ReLU)             (None, 1769)              0         
                                                                 
 dense_23 (Dense)            (None, 2528)              4474560   
                                                                 
 batch_normalization_24 (Bat  (None, 2528)             10112     
 chNormalization)                                                
                                                                 
 re_lu_24 (ReLU)             (None, 2528)              0         
                                                                 
 dense_24 (Dense)            (None, 1264)              3196656   
                                                                 
=================================================================
Total params: 18,961,055
Trainable params: 18,941,845
Non-trainable params: 19,210
_________________________________________________________________
Epoch 1/400
5969/5969 - 25s - loss: 0.0087 - val_loss: 0.0035 - 25s/epoch - 4ms/step
Epoch 2/400
5969/5969 - 23s - loss: 0.0040 - val_loss: 0.0035 - 23s/epoch - 4ms/step
…
32 [==============================] - 2s 1ms/step
correlation 0.01735729680393457
cosine 0.014080720023373882
MAE: 0.016178014
RMSE: 0.093075685
r2: 0.4380025180320598
RMSE zero-vector: 0.23411466903540806
Full AutoEncoder
Model: "model_12"
_________________________________________________________________
 Layer (type)                Output Shape              Param #   
=================================================================
 input_13 (InputLayer)       multiple                  0         
                                                                 
 dense_20 (Dense)            (None, 2528)              3197920   
                                                                 
 batch_normalization_20 (Bat  (None, 2528)             10112     
 chNormalization)                                                
                                                                 
 re_lu_20 (ReLU)             (None, 2528)              0         
                                                                 
 dense_21 (Dense)            (None, 1769)              4473801   
                                                                 
 batch_normalization_21 (Bat  (None, 1769)             7076      
 chNormalization)                                                
                                                                 
 re_lu_21 (ReLU)             (None, 1769)              0         
                                                                 
 bottleneck (Dense)          (None, 1011)              1789470   
                                                                 
 batch_normalization_22 (Bat  (None, 1011)             4044      
 chNormalization)                                                
                                                                 
 re_lu_22 (ReLU)             (None, 1011)              0         
                                                                 
 dense_22 (Dense)            (None, 1769)              1790228   
                                                                 
 batch_normalization_23 (Bat  (None, 1769)             7076      
 chNormalization)                                                
                                                                 
 re_lu_23 (ReLU)             (None, 1769)              0         
                                                                 
 dense_23 (Dense)            (None, 2528)              4474560   
                                                                 
 batch_normalization_24 (Bat  (None, 2528)             10112     
 chNormalization)                                                
                                                                 
 re_lu_24 (ReLU)             (None, 2528)              0         
                                                                 
 dense_24 (Dense)            (None, 1264)              3196656   
                                                                 
=================================================================
Total params: 18,961,055
Trainable params: 18,941,845
Non-trainable params: 19,210
_________________________________________________________________
Encoder
Model: "model_13"
_________________________________________________________________
 Layer (type)                Output Shape              Param #   
=================================================================
 input_14 (InputLayer)       [(None, 1264)]            0         
                                                                 
 input_13 (InputLayer)       multiple                  0         
                                                                 
 dense_20 (Dense)            (None, 2528)              3197920   
                                                                 
 batch_normalization_20 (Bat  (None, 2528)             10112     
 chNormalization)                                                
                                                                 
 re_lu_20 (ReLU)             (None, 2528)              0         
                                                                 
 dense_21 (Dense)            (None, 1769)              4473801   
                                                                 
 batch_normalization_21 (Bat  (None, 1769)             7076      
 chNormalization)                                                
                                                                 
 re_lu_21 (ReLU)             (None, 1769)              0         
                                                                 
 bottleneck (Dense)          (None, 1011)              1789470   
                                                                 
=================================================================
Total params: 9,478,379
Trainable params: 9,469,785
Non-trainable params: 8,594
_________________________________________________________________
Decoder
Model: "model_14"
_________________________________________________________________
 Layer (type)                Output Shape              Param #   
=================================================================
 input_15 (InputLayer)       [(None, 1011)]            0         
                                                                 
 batch_normalization_22 (Bat  (None, 1011)             4044      
 chNormalization)                                                
                                                                 
 re_lu_22 (ReLU)             (None, 1011)              0         
                                                                 
 dense_22 (Dense)            (None, 1769)              1790228   
                                                                 
 batch_normalization_23 (Bat  (None, 1769)             7076      
 chNormalization)                                                
                                                                 
 re_lu_23 (ReLU)             (None, 1769)              0         
                                                                 
 dense_23 (Dense)            (None, 2528)              4474560   
                                                                 
 batch_normalization_24 (Bat  (None, 2528)             10112     
 chNormalization)                                                
                                                                 
 re_lu_24 (ReLU)             (None, 2528)              0         
                                                                 
 dense_24 (Dense)            (None, 1264)              3196656   
                                                                 
=================================================================
Total params: 9,482,676
Trainable params: 9,472,060
Non-trainable params: 10,616
_________________________________________________________________
Model: "model_15"
_________________________________________________________________
 Layer (type)                Output Shape              Param #   
=================================================================
 input_16 (InputLayer)       [(None, 1264)]            0         
                                                                 
 dense_25 (Dense)            (None, 2528)              3197920   
                                                                 
 batch_normalization_25 (Bat  (None, 2528)             10112     
 chNormalization)                                                
                                                                 
 re_lu_25 (ReLU)             (None, 2528)              0         
                                                                 
 dense_26 (Dense)            (None, 1737)              4392873   
                                                                 
 batch_normalization_26 (Bat  (None, 1737)             6948      
 chNormalization)                                                
                                                                 
 re_lu_26 (ReLU)             (None, 1737)              0         
                                                                 
 bottleneck (Dense)          (None, 947)               1645886   
                                                                 
 batch_normalization_27 (Bat  (None, 947)              3788      
 chNormalization)                                                
                                                                 
 re_lu_27 (ReLU)             (None, 947)               0         
                                                                 
 dense_27 (Dense)            (None, 1737)              1646676   
                                                                 
 batch_normalization_28 (Bat  (None, 1737)             6948      
 chNormalization)                                                
                                                                 
 re_lu_28 (ReLU)             (None, 1737)              0         
                                                                 
 dense_28 (Dense)            (None, 2528)              4393664   
                                                                 
 batch_normalization_29 (Bat  (None, 2528)             10112     
 chNormalization)                                                
                                                                 
 re_lu_29 (ReLU)             (None, 2528)              0         
                                                                 
 dense_29 (Dense)            (None, 1264)              3196656   
                                                                 
=================================================================
Total params: 18,511,583
Trainable params: 18,492,629
Non-trainable params: 18,954
_________________________________________________________________
Epoch 1/400
5969/5969 - 26s - loss: 0.0085 - val_loss: 0.0038 - 26s/epoch - 4ms/step
Epoch 2/400
5969/5969 - 24s - loss: 0.0034 - val_loss: 0.0026 - 24s/epoch - 4ms/step
…
/332 [==============================] - 2s 1ms/step
correlation 0.03681788542699328
cosine 0.031648762987507455
MAE: 0.04379065
RMSE: 0.27687022
r2: -3.972791692116862
RMSE zero-vector: 0.23411466903540806
Full AutoEncoder
Model: "model_15"
_________________________________________________________________
 Layer (type)                Output Shape              Param #   
=================================================================
 input_16 (InputLayer)       multiple                  0         
                                                                 
 dense_25 (Dense)            (None, 2528)              3197920   
                                                                 
 batch_normalization_25 (Bat  (None, 2528)             10112     
 chNormalization)                                                
                                                                 
 re_lu_25 (ReLU)             (None, 2528)              0         
                                                                 
 dense_26 (Dense)            (None, 1737)              4392873   
                                                                 
 batch_normalization_26 (Bat  (None, 1737)             6948      
 chNormalization)                                                
                                                                 
 re_lu_26 (ReLU)             (None, 1737)              0         
                                                                 
 bottleneck (Dense)          (None, 947)               1645886   
                                                                 
 batch_normalization_27 (Bat  (None, 947)              3788      
 chNormalization)                                                
                                                                 
 re_lu_27 (ReLU)             (None, 947)               0         
                                                                 
 dense_27 (Dense)            (None, 1737)              1646676   
                                                                 
 batch_normalization_28 (Bat  (None, 1737)             6948      
 chNormalization)                                                
                                                                 
 re_lu_28 (ReLU)             (None, 1737)              0         
                                                                 
 dense_28 (Dense)            (None, 2528)              4393664   
                                                                 
 batch_normalization_29 (Bat  (None, 2528)             10112     
 chNormalization)                                                
                                                                 
 re_lu_29 (ReLU)             (None, 2528)              0         
                                                                 
 dense_29 (Dense)            (None, 1264)              3196656   
                                                                 
=================================================================
Total params: 18,511,583
Trainable params: 18,492,629
Non-trainable params: 18,954
_________________________________________________________________
Encoder
Model: "model_16"
_________________________________________________________________
 Layer (type)                Output Shape              Param #   
=================================================================
 input_17 (InputLayer)       [(None, 1264)]            0         
                                                                 
 input_16 (InputLayer)       multiple                  0         
                                                                 
 dense_25 (Dense)            (None, 2528)              3197920   
                                                                 
 batch_normalization_25 (Bat  (None, 2528)             10112     
 chNormalization)                                                
                                                                 
 re_lu_25 (ReLU)             (None, 2528)              0         
                                                                 
 dense_26 (Dense)            (None, 1737)              4392873   
                                                                 
 batch_normalization_26 (Bat  (None, 1737)             6948      
 chNormalization)                                                
                                                                 
 re_lu_26 (ReLU)             (None, 1737)              0         
                                                                 
 bottleneck (Dense)          (None, 947)               1645886   
                                                                 
=================================================================
Total params: 9,253,739
Trainable params: 9,245,209
Non-trainable params: 8,530
_________________________________________________________________
Decoder
Model: "model_17"
_________________________________________________________________
 Layer (type)                Output Shape              Param #   
=================================================================
 input_18 (InputLayer)       [(None, 947)]             0         
                                                                 
 batch_normalization_27 (Bat  (None, 947)              3788      
 chNormalization)                                                
                                                                 
 re_lu_27 (ReLU)             (None, 947)               0         
                                                                 
 dense_27 (Dense)            (None, 1737)              1646676   
                                                                 
 batch_normalization_28 (Bat  (None, 1737)             6948      
 chNormalization)                                                
                                                                 
 re_lu_28 (ReLU)             (None, 1737)              0         
                                                                 
 dense_28 (Dense)            (None, 2528)              4393664   
                                                                 
 batch_normalization_29 (Bat  (None, 2528)             10112     
 chNormalization)                                                
                                                                 
 re_lu_29 (ReLU)             (None, 2528)              0         
                                                                 
 dense_29 (Dense)            (None, 1264)              3196656   
                                                                 
=================================================================
Total params: 9,257,844
Trainable params: 9,247,420
Non-trainable params: 10,424
_________________________________________________________________
Model: "model_18"
_________________________________________________________________
 Layer (type)                Output Shape              Param #   
=================================================================
 input_19 (InputLayer)       [(None, 1264)]            0         
                                                                 
 dense_30 (Dense)            (None, 2528)              3197920   
                                                                 
 batch_normalization_30 (Bat  (None, 2528)             10112     
 chNormalization)                                                
                                                                 
 re_lu_30 (ReLU)             (None, 2528)              0         
                                                                 
 dense_31 (Dense)            (None, 1706)              4314474   
                                                                 
 batch_normalization_31 (Bat  (None, 1706)             6824      
 chNormalization)                                                
                                                                 
 re_lu_31 (ReLU)             (None, 1706)              0         
                                                                 
 bottleneck (Dense)          (None, 884)               1508988   
                                                                 
 batch_normalization_32 (Bat  (None, 884)              3536      
 chNormalization)                                                
                                                                 
 re_lu_32 (ReLU)             (None, 884)               0         
                                                                 
 dense_32 (Dense)            (None, 1706)              1509810   
                                                                 
 batch_normalization_33 (Bat  (None, 1706)             6824      
 chNormalization)                                                
                                                                 
 re_lu_33 (ReLU)             (None, 1706)              0         
                                                                 
 dense_33 (Dense)            (None, 2528)              4315296   
                                                                 
 batch_normalization_34 (Bat  (None, 2528)             10112     
 chNormalization)                                                
                                                                 
 re_lu_34 (ReLU)             (None, 2528)              0         
                                                                 
 dense_34 (Dense)            (None, 1264)              3196656   
                                                                 
=================================================================
Total params: 18,080,552
Trainable params: 18,061,848
Non-trainable params: 18,704
_________________________________________________________________
Epoch 1/400
5969/5969 - 25s - loss: 0.0086 - val_loss: 0.0035 - 25s/epoch - 4ms/step
Epoch 2/400
5969/5969 - 23s - loss: 0.0039 - val_loss: 0.0025 - 23s/epoch - 4ms/step
…
