…
2022-12-30 01:36:28.278778: I tensorflow/core/platform/cpu_feature_guard.cc:193] This TensorFlow binary is optimized with oneAPI Deep Neural Network Library (oneDNN) to use the following CPU instructions in performance-critical operations:  SSE4.1 SSE4.2 AVX AVX2 AVX512F AVX512_VNNI FMA
To enable them in other operations, rebuild TensorFlow with the appropriate compiler flags.
Model: "model"
_________________________________________________________________
 Layer (type)                Output Shape              Param #   
=================================================================
 input_1 (InputLayer)        [(None, 1264)]            0         
                                                                 
 dense (Dense)               (None, 2780)              3516700   
                                                                 
 batch_normalization (BatchN  (None, 2780)             11120     
 ormalization)                                                   
                                                                 
 re_lu (ReLU)                (None, 2780)              0         
                                                                 
 bottleneck (Dense)          (None, 1264)              3515184   
                                                                 
 batch_normalization_1 (Batc  (None, 1264)             5056      
 hNormalization)                                                 
                                                                 
 re_lu_1 (ReLU)              (None, 1264)              0         
                                                                 
 dense_1 (Dense)             (None, 2780)              3516700   
                                                                 
 batch_normalization_2 (Batc  (None, 2780)             11120     
 hNormalization)                                                 
                                                                 
 re_lu_2 (ReLU)              (None, 2780)              0         
                                                                 
 dense_2 (Dense)             (None, 1264)              3515184   
                                                                 
=================================================================
Total params: 14,091,064
Trainable params: 14,077,416
Non-trainable params: 13,648
_________________________________________________________________
Epoch 1/200
1493/1493 - 105s - loss: 0.0088 - val_loss: 0.0036 - 105s/epoch - 71ms/step
Epoch 2/200
1493/1493 - 105s - loss: 0.0027 - val_loss: 0.0027 - 105s/epoch - 70ms/step
…
2 [==============================] - 3s 8ms/step
correlation 0.0008727824332980987
cosine 0.0006873934416334179
MAE: 0.0047894814
RMSE: 0.008771385
r2: 0.9950095047984727
RMSE zero-vector: 0.23411466903540806
Full AutoEncoder
Model: "model"
_________________________________________________________________
 Layer (type)                Output Shape              Param #   
=================================================================
 input_1 (InputLayer)        multiple                  0         
                                                                 
 dense (Dense)               (None, 2780)              3516700   
                                                                 
 batch_normalization (BatchN  (None, 2780)             11120     
 ormalization)                                                   
                                                                 
 re_lu (ReLU)                (None, 2780)              0         
                                                                 
 bottleneck (Dense)          (None, 1264)              3515184   
                                                                 
 batch_normalization_1 (Batc  (None, 1264)             5056      
 hNormalization)                                                 
                                                                 
 re_lu_1 (ReLU)              (None, 1264)              0         
                                                                 
 dense_1 (Dense)             (None, 2780)              3516700   
                                                                 
 batch_normalization_2 (Batc  (None, 2780)             11120     
 hNormalization)                                                 
                                                                 
 re_lu_2 (ReLU)              (None, 2780)              0         
                                                                 
 dense_2 (Dense)             (None, 1264)              3515184   
                                                                 
=================================================================
Total params: 14,091,064
Trainable params: 14,077,416
Non-trainable params: 13,648
_________________________________________________________________
Encoder
Model: "model_1"
_________________________________________________________________
 Layer (type)                Output Shape              Param #   
=================================================================
 input_2 (InputLayer)        [(None, 1264)]            0         
                                                                 
 input_1 (InputLayer)        multiple                  0         
                                                                 
 dense (Dense)               (None, 2780)              3516700   
                                                                 
 batch_normalization (BatchN  (None, 2780)             11120     
 ormalization)                                                   
                                                                 
 re_lu (ReLU)                (None, 2780)              0         
                                                                 
 bottleneck (Dense)          (None, 1264)              3515184   
                                                                 
=================================================================
Total params: 7,043,004
Trainable params: 7,037,444
Non-trainable params: 5,560
_________________________________________________________________
Decoder
Model: "model_2"
_________________________________________________________________
 Layer (type)                Output Shape              Param #   
=================================================================
 input_3 (InputLayer)        [(None, 1264)]            0         
                                                                 
 batch_normalization_1 (Batc  (None, 1264)             5056      
 hNormalization)                                                 
                                                                 
 re_lu_1 (ReLU)              (None, 1264)              0         
                                                                 
 dense_1 (Dense)             (None, 2780)              3516700   
                                                                 
 batch_normalization_2 (Batc  (None, 2780)             11120     
 hNormalization)                                                 
                                                                 
 re_lu_2 (ReLU)              (None, 2780)              0         
                                                                 
 dense_2 (Dense)             (None, 1264)              3515184   
                                                                 
=================================================================
Total params: 7,048,060
Trainable params: 7,039,972
Non-trainable params: 8,088
_________________________________________________________________
['2.2custom_n_b', 'mse', 64, 200, 0.0005, 1.0, 1264, 7.909729902166873e-05, 7.693725638091564e-05, 0.00087278243329809
…
 <class 'float'>, <class 'float'>, <class 'float'>, <class 'float'>, <class 'float'>, <class 'float'>, <class 'float'>]
./DATAFILES/MP_GapFeats_2.2final_custom_n_b already created.
Shape of dataset to encode: (106113, 1264)
Model: "model_3"
_________________________________________________________________
 Layer (type)                Output Shape              Param #   
=================================================================
 input_4 (InputLayer)        [(None, 1264)]            0         
                                                                 
 dense_3 (Dense)             (None, 2780)              3516700   
                                                                 
 batch_normalization_3 (Batc  (None, 2780)             11120     
 hNormalization)                                                 
                                                                 
 re_lu_3 (ReLU)              (None, 2780)              0         
                                                                 
 bottleneck (Dense)          (None, 1200)              3337200   
                                                                 
 batch_normalization_4 (Batc  (None, 1200)             4800      
 hNormalization)                                                 
                                                                 
 re_lu_4 (ReLU)              (None, 1200)              0         
                                                                 
 dense_4 (Dense)             (None, 2780)              3338780   
                                                                 
 batch_normalization_5 (Batc  (None, 2780)             11120     
 hNormalization)                                                 
                                                                 
 re_lu_5 (ReLU)              (None, 2780)              0         
                                                                 
 dense_5 (Dense)             (None, 1264)              3515184   
                                                                 
=================================================================
Total params: 13,734,904
Trainable params: 13,721,384
Non-trainable params: 13,520
_________________________________________________________________
Epoch 1/200
1493/1493 - 102s - loss: 0.0087 - val_loss: 0.0037 - 102s/epoch - 69ms/step
Epoch 2/200
1493/1493 - 102s - loss: 0.0027 - val_loss: 0.0030 - 102s/epoch - 68ms/step
…
 [==============================] - 3s 8ms/step
correlation 0.0008853701793873395
cosine 0.0006976771244587559
MAE: 0.004920613
RMSE: 0.008825927
r2: 0.9949479536348343
RMSE zero-vector: 0.23411466903540806
Full AutoEncoder
Model: "model_3"
_________________________________________________________________
 Layer (type)                Output Shape              Param #   
=================================================================
 input_4 (InputLayer)        multiple                  0         
                                                                 
 dense_3 (Dense)             (None, 2780)              3516700   
                                                                 
 batch_normalization_3 (Batc  (None, 2780)             11120     
 hNormalization)                                                 
                                                                 
 re_lu_3 (ReLU)              (None, 2780)              0         
                                                                 
 bottleneck (Dense)          (None, 1200)              3337200   
                                                                 
 batch_normalization_4 (Batc  (None, 1200)             4800      
 hNormalization)                                                 
                                                                 
 re_lu_4 (ReLU)              (None, 1200)              0         
                                                                 
 dense_4 (Dense)             (None, 2780)              3338780   
                                                                 
 batch_normalization_5 (Batc  (None, 2780)             11120     
 hNormalization)                                                 
                                                                 
 re_lu_5 (ReLU)              (None, 2780)              0         
                                                                 
 dense_5 (Dense)             (None, 1264)              3515184   
                                                                 
=================================================================
Total params: 13,734,904
Trainable params: 13,721,384
Non-trainable params: 13,520
_________________________________________________________________
Encoder
Model: "model_4"
_________________________________________________________________
 Layer (type)                Output Shape              Param #   
=================================================================
 input_5 (InputLayer)        [(None, 1264)]            0         
                                                                 
 input_4 (InputLayer)        multiple                  0         
                                                                 
 dense_3 (Dense)             (None, 2780)              3516700   
                                                                 
 batch_normalization_3 (Batc  (None, 2780)             11120     
 hNormalization)                                                 
                                                                 
 re_lu_3 (ReLU)              (None, 2780)              0         
                                                                 
 bottleneck (Dense)          (None, 1200)              3337200   
                                                                 
=================================================================
Total params: 6,865,020
Trainable params: 6,859,460
Non-trainable params: 5,560
_________________________________________________________________
Decoder
Model: "model_5"
_________________________________________________________________
 Layer (type)                Output Shape              Param #   
=================================================================
 input_6 (InputLayer)        [(None, 1200)]            0         
                                                                 
 batch_normalization_4 (Batc  (None, 1200)             4800      
 hNormalization)                                                 
                                                                 
 re_lu_4 (ReLU)              (None, 1200)              0         
                                                                 
 dense_4 (Dense)             (None, 2780)              3338780   
                                                                 
 batch_normalization_5 (Batc  (None, 2780)             11120     
 hNormalization)                                                 
                                                                 
 re_lu_5 (ReLU)              (None, 2780)              0         
                                                                 
 dense_5 (Dense)             (None, 1264)              3515184   
                                                                 
=================================================================
Total params: 6,869,884
Trainable params: 6,861,924
Non-trainable params: 7,960
_________________________________________________________________
['2.2custom_n_b', 'mse', 64, 200, 0.0005, 0.95, 1200, 7.915879541542381e-05, 7.78970425017178e-05, 0.00088537017938733
…
 <class 'float'>, <class 'float'>, <class 'float'>, <class 'float'>, <class 'float'>, <class 'float'>, <class 'float'>]
./DATAFILES/MP_GapFeats_2.2final_custom_n_b already created.
Shape of dataset to encode: (106113, 1264)
Model: "model_6"
_________________________________________________________________
 Layer (type)                Output Shape              Param #   
=================================================================
 input_7 (InputLayer)        [(None, 1264)]            0         
                                                                 
 dense_6 (Dense)             (None, 2780)              3516700   
                                                                 
 batch_normalization_6 (Batc  (None, 2780)             11120     
 hNormalization)                                                 
                                                                 
 re_lu_6 (ReLU)              (None, 2780)              0         
                                                                 
 bottleneck (Dense)          (None, 1137)              3161997   
                                                                 
 batch_normalization_7 (Batc  (None, 1137)             4548      
 hNormalization)                                                 
                                                                 
 re_lu_7 (ReLU)              (None, 1137)              0         
                                                                 
 dense_7 (Dense)             (None, 2780)              3163640   
                                                                 
 batch_normalization_8 (Batc  (None, 2780)             11120     
 hNormalization)                                                 
                                                                 
 re_lu_8 (ReLU)              (None, 2780)              0         
                                                                 
 dense_8 (Dense)             (None, 1264)              3515184   
                                                                 
=================================================================
Total params: 13,384,309
Trainable params: 13,370,915
Non-trainable params: 13,394
_________________________________________________________________
Epoch 1/200
1493/1493 - 100s - loss: 0.0089 - val_loss: 0.0036 - 100s/epoch - 67ms/step
Epoch 2/200
1493/1493 - 99s - loss: 0.0027 - val_loss: 0.0032 - 99s/epoch - 66ms/step
…
 [==============================] - 3s 8ms/step
correlation 0.0009609337375157741
cosine 0.0007572043820502306
MAE: 0.005098861
RMSE: 0.009230484
r2: 0.9944735264702135
RMSE zero-vector: 0.23411466903540806
Full AutoEncoder
Model: "model_6"
_________________________________________________________________
 Layer (type)                Output Shape              Param #   
=================================================================
 input_7 (InputLayer)        multiple                  0         
                                                                 
 dense_6 (Dense)             (None, 2780)              3516700   
                                                                 
 batch_normalization_6 (Batc  (None, 2780)             11120     
 hNormalization)                                                 
                                                                 
 re_lu_6 (ReLU)              (None, 2780)              0         
                                                                 
 bottleneck (Dense)          (None, 1137)              3161997   
                                                                 
 batch_normalization_7 (Batc  (None, 1137)             4548      
 hNormalization)                                                 
                                                                 
 re_lu_7 (ReLU)              (None, 1137)              0         
                                                                 
 dense_7 (Dense)             (None, 2780)              3163640   
                                                                 
 batch_normalization_8 (Batc  (None, 2780)             11120     
 hNormalization)                                                 
                                                                 
 re_lu_8 (ReLU)              (None, 2780)              0         
                                                                 
 dense_8 (Dense)             (None, 1264)              3515184   
                                                                 
=================================================================
Total params: 13,384,309
Trainable params: 13,370,915
Non-trainable params: 13,394
_________________________________________________________________
Encoder
Model: "model_7"
_________________________________________________________________
 Layer (type)                Output Shape              Param #   
=================================================================
 input_8 (InputLayer)        [(None, 1264)]            0         
                                                                 
 input_7 (InputLayer)        multiple                  0         
                                                                 
 dense_6 (Dense)             (None, 2780)              3516700   
                                                                 
 batch_normalization_6 (Batc  (None, 2780)             11120     
 hNormalization)                                                 
                                                                 
 re_lu_6 (ReLU)              (None, 2780)              0         
                                                                 
 bottleneck (Dense)          (None, 1137)              3161997   
                                                                 
=================================================================
Total params: 6,689,817
Trainable params: 6,684,257
Non-trainable params: 5,560
_________________________________________________________________
Decoder
Model: "model_8"
_________________________________________________________________
 Layer (type)                Output Shape              Param #   
=================================================================
 input_9 (InputLayer)        [(None, 1137)]            0         
                                                                 
 batch_normalization_7 (Batc  (None, 1137)             4548      
 hNormalization)                                                 
                                                                 
 re_lu_7 (ReLU)              (None, 1137)              0         
                                                                 
 dense_7 (Dense)             (None, 2780)              3163640   
                                                                 
 batch_normalization_8 (Batc  (None, 2780)             11120     
 hNormalization)                                                 
                                                                 
 re_lu_8 (ReLU)              (None, 2780)              0         
                                                                 
 dense_8 (Dense)             (None, 1264)              3515184   
                                                                 
=================================================================
Total params: 6,694,492
Trainable params: 6,686,658
Non-trainable params: 7,834
_________________________________________________________________
['2.2custom_n_b', 'mse', 64, 200, 0.0005, 0.9, 1137, 8.661876199766994e-05, 8.520190021954477e-05, 0.00096093373751577
…
 <class 'float'>, <class 'float'>, <class 'float'>, <class 'float'>, <class 'float'>, <class 'float'>, <class 'float'>]
./DATAFILES/MP_GapFeats_2.2final_custom_n_b already created.
Shape of dataset to encode: (106113, 1264)
Model: "model_9"
_________________________________________________________________
 Layer (type)                Output Shape              Param #   
=================================================================
 input_10 (InputLayer)       [(None, 1264)]            0         
                                                                 
 dense_9 (Dense)             (None, 2780)              3516700   
                                                                 
 batch_normalization_9 (Batc  (None, 2780)             11120     
 hNormalization)                                                 
                                                                 
 re_lu_9 (ReLU)              (None, 2780)              0         
                                                                 
 bottleneck (Dense)          (None, 1074)              2986794   
                                                                 
 batch_normalization_10 (Bat  (None, 1074)             4296      
 chNormalization)                                                
                                                                 
 re_lu_10 (ReLU)             (None, 1074)              0         
                                                                 
 dense_10 (Dense)            (None, 2780)              2988500   
                                                                 
 batch_normalization_11 (Bat  (None, 2780)             11120     
 chNormalization)                                                
                                                                 
 re_lu_11 (ReLU)             (None, 2780)              0         
                                                                 
 dense_11 (Dense)            (None, 1264)              3515184   
                                                                 
=================================================================
Total params: 13,033,714
Trainable params: 13,020,446
Non-trainable params: 13,268
_________________________________________________________________
Epoch 1/200
1493/1493 - 100s - loss: 0.0090 - val_loss: 0.0038 - 100s/epoch - 67ms/step
Epoch 2/200
1493/1493 - 100s - loss: 0.0027 - val_loss: 0.0032 - 100s/epoch - 67ms/step
…
 [==============================] - 3s 8ms/step
correlation 0.0009515074527897207
cosine 0.0007491325190774549
MAE: 0.0050833025
RMSE: 0.009199309
r2: 0.994510679166031
RMSE zero-vector: 0.23411466903540806
Full AutoEncoder
Model: "model_9"
_________________________________________________________________
 Layer (type)                Output Shape              Param #   
=================================================================
 input_10 (InputLayer)       multiple                  0         
                                                                 
 dense_9 (Dense)             (None, 2780)              3516700   
                                                                 
 batch_normalization_9 (Batc  (None, 2780)             11120     
 hNormalization)                                                 
                                                                 
 re_lu_9 (ReLU)              (None, 2780)              0         
                                                                 
 bottleneck (Dense)          (None, 1074)              2986794   
                                                                 
 batch_normalization_10 (Bat  (None, 1074)             4296      
 chNormalization)                                                
                                                                 
 re_lu_10 (ReLU)             (None, 1074)              0         
                                                                 
 dense_10 (Dense)            (None, 2780)              2988500   
                                                                 
 batch_normalization_11 (Bat  (None, 2780)             11120     
 chNormalization)                                                
                                                                 
 re_lu_11 (ReLU)             (None, 2780)              0         
                                                                 
 dense_11 (Dense)            (None, 1264)              3515184   
                                                                 
=================================================================
Total params: 13,033,714
Trainable params: 13,020,446
Non-trainable params: 13,268
_________________________________________________________________
Encoder
Model: "model_10"
_________________________________________________________________
 Layer (type)                Output Shape              Param #   
=================================================================
 input_11 (InputLayer)       [(None, 1264)]            0         
                                                                 
 input_10 (InputLayer)       multiple                  0         
                                                                 
 dense_9 (Dense)             (None, 2780)              3516700   
                                                                 
 batch_normalization_9 (Batc  (None, 2780)             11120     
 hNormalization)                                                 
                                                                 
 re_lu_9 (ReLU)              (None, 2780)              0         
                                                                 
 bottleneck (Dense)          (None, 1074)              2986794   
                                                                 
=================================================================
Total params: 6,514,614
Trainable params: 6,509,054
Non-trainable params: 5,560
_________________________________________________________________
Decoder
Model: "model_11"
_________________________________________________________________
 Layer (type)                Output Shape              Param #   
=================================================================
 input_12 (InputLayer)       [(None, 1074)]            0         
                                                                 
 batch_normalization_10 (Bat  (None, 1074)             4296      
 chNormalization)                                                
                                                                 
 re_lu_10 (ReLU)             (None, 1074)              0         
                                                                 
 dense_10 (Dense)            (None, 2780)              2988500   
                                                                 
 batch_normalization_11 (Bat  (None, 2780)             11120     
 chNormalization)                                                
                                                                 
 re_lu_11 (ReLU)             (None, 2780)              0         
                                                                 
 dense_11 (Dense)            (None, 1264)              3515184   
                                                                 
=================================================================
Total params: 6,519,100
Trainable params: 6,511,392
Non-trainable params: 7,708
_________________________________________________________________
['2.2custom_n_b', 'mse', 64, 200, 0.0005, 0.85, 1074, 8.056678052525967e-05, 8.462734695058316e-05, 0.0009515074527897
…
<class 'float'>, <class 'float'>, <class 'float'>, <class 'float'>, <class 'float'>, <class 'float'>, <class 'float'>]
./DATAFILES/MP_GapFeats_2.2final_custom_n_b already created.
Shape of dataset to encode: (106113, 1264)
Model: "model_12"
_________________________________________________________________
 Layer (type)                Output Shape              Param #   
=================================================================
 input_13 (InputLayer)       [(None, 1264)]            0         
                                                                 
 dense_12 (Dense)            (None, 2780)              3516700   
                                                                 
 batch_normalization_12 (Bat  (None, 2780)             11120     
 chNormalization)                                                
                                                                 
 re_lu_12 (ReLU)             (None, 2780)              0         
                                                                 
 bottleneck (Dense)          (None, 1011)              2811591   
                                                                 
 batch_normalization_13 (Bat  (None, 1011)             4044      
 chNormalization)                                                
                                                                 
 re_lu_13 (ReLU)             (None, 1011)              0         
                                                                 
 dense_13 (Dense)            (None, 2780)              2813360   
                                                                 
 batch_normalization_14 (Bat  (None, 2780)             11120     
 chNormalization)                                                
                                                                 
 re_lu_14 (ReLU)             (None, 2780)              0         
                                                                 
 dense_14 (Dense)            (None, 1264)              3515184   
                                                                 
=================================================================
Total params: 12,683,119
Trainable params: 12,669,977
Non-trainable params: 13,142
_________________________________________________________________
Epoch 1/200
1493/1493 - 96s - loss: 0.0090 - val_loss: 0.0039 - 96s/epoch - 64ms/step
Epoch 2/200
1493/1493 - 95s - loss: 0.0028 - val_loss: 0.0034 - 95s/epoch - 64ms/step
…
==============================] - 3s 8ms/step
correlation 0.0009083637776035118
cosine 0.0007162429659132053
MAE: 0.0050101033
RMSE: 0.008964744
r2: 0.9947873550666143
RMSE zero-vector: 0.23411466903540806
Full AutoEncoder
Model: "model_12"
_________________________________________________________________
 Layer (type)                Output Shape              Param #   
=================================================================
 input_13 (InputLayer)       multiple                  0         
                                                                 
 dense_12 (Dense)            (None, 2780)              3516700   
                                                                 
 batch_normalization_12 (Bat  (None, 2780)             11120     
 chNormalization)                                                
                                                                 
 re_lu_12 (ReLU)             (None, 2780)              0         
                                                                 
 bottleneck (Dense)          (None, 1011)              2811591   
                                                                 
 batch_normalization_13 (Bat  (None, 1011)             4044      
 chNormalization)                                                
                                                                 
 re_lu_13 (ReLU)             (None, 1011)              0         
                                                                 
 dense_13 (Dense)            (None, 2780)              2813360   
                                                                 
 batch_normalization_14 (Bat  (None, 2780)             11120     
 chNormalization)                                                
                                                                 
 re_lu_14 (ReLU)             (None, 2780)              0         
                                                                 
 dense_14 (Dense)            (None, 1264)              3515184   
                                                                 
=================================================================
Total params: 12,683,119
Trainable params: 12,669,977
Non-trainable params: 13,142
_________________________________________________________________
Encoder
Model: "model_13"
_________________________________________________________________
 Layer (type)                Output Shape              Param #   
=================================================================
 input_14 (InputLayer)       [(None, 1264)]            0         
                                                                 
 input_13 (InputLayer)       multiple                  0         
                                                                 
 dense_12 (Dense)            (None, 2780)              3516700   
                                                                 
 batch_normalization_12 (Bat  (None, 2780)             11120     
 chNormalization)                                                
                                                                 
 re_lu_12 (ReLU)             (None, 2780)              0         
                                                                 
 bottleneck (Dense)          (None, 1011)              2811591   
                                                                 
=================================================================
Total params: 6,339,411
Trainable params: 6,333,851
Non-trainable params: 5,560
_________________________________________________________________
Decoder
Model: "model_14"
_________________________________________________________________
 Layer (type)                Output Shape              Param #   
=================================================================
 input_15 (InputLayer)       [(None, 1011)]            0         
                                                                 
 batch_normalization_13 (Bat  (None, 1011)             4044      
 chNormalization)                                                
                                                                 
 re_lu_13 (ReLU)             (None, 1011)              0         
                                                                 
 dense_13 (Dense)            (None, 2780)              2813360   
                                                                 
 batch_normalization_14 (Bat  (None, 2780)             11120     
 chNormalization)                                                
                                                                 
 re_lu_14 (ReLU)             (None, 2780)              0         
                                                                 
 dense_14 (Dense)            (None, 1264)              3515184   
                                                                 
=================================================================
Total params: 6,343,708
Trainable params: 6,336,126
Non-trainable params: 7,582
_________________________________________________________________
['2.2custom_n_b', 'mse', 64, 200, 0.0005, 0.8, 1011, 8.587007323512807e-05, 8.036670624278486e-05, 0.00090836377760351
…
<class 'float'>, <class 'float'>, <class 'float'>, <class 'float'>, <class 'float'>, <class 'float'>, <class 'float'>]
./DATAFILES/MP_GapFeats_2.2final_custom_n_b already created.
Shape of dataset to encode: (106113, 1264)
Model: "model_15"
_________________________________________________________________
 Layer (type)                Output Shape              Param #   
=================================================================
 input_16 (InputLayer)       [(None, 1264)]            0         
                                                                 
 dense_15 (Dense)            (None, 2780)              3516700   
                                                                 
 batch_normalization_15 (Bat  (None, 2780)             11120     
 chNormalization)                                                
                                                                 
 re_lu_15 (ReLU)             (None, 2780)              0         
                                                                 
 bottleneck (Dense)          (None, 947)               2633607   
                                                                 
 batch_normalization_16 (Bat  (None, 947)              3788      
 chNormalization)                                                
                                                                 
 re_lu_16 (ReLU)             (None, 947)               0         
                                                                 
 dense_16 (Dense)            (None, 2780)              2635440   
                                                                 
 batch_normalization_17 (Bat  (None, 2780)             11120     
 chNormalization)                                                
                                                                 
 re_lu_17 (ReLU)             (None, 2780)              0         
                                                                 
 dense_17 (Dense)            (None, 1264)              3515184   
                                                                 
=================================================================
Total params: 12,326,959
Trainable params: 12,313,945
Non-trainable params: 13,014
_________________________________________________________________
Epoch 1/200
1493/1493 - 93s - loss: 0.0091 - val_loss: 0.0036 - 93s/epoch - 63ms/step
Epoch 2/200
1493/1493 - 93s - loss: 0.0028 - val_loss: 0.0038 - 93s/epoch - 62ms/step
…
 [==============================] - 3s 7ms/step
correlation 0.0009526293591378187
cosine 0.0007505394178563767
MAE: 0.00506973
RMSE: 0.009165766
r2: 0.9945508671100357
RMSE zero-vector: 0.23411466903540806
Full AutoEncoder
Model: "model_15"
_________________________________________________________________
 Layer (type)                Output Shape              Param #   
=================================================================
 input_16 (InputLayer)       multiple                  0         
                                                                 
 dense_15 (Dense)            (None, 2780)              3516700   
                                                                 
 batch_normalization_15 (Bat  (None, 2780)             11120     
 chNormalization)                                                
                                                                 
 re_lu_15 (ReLU)             (None, 2780)              0         
                                                                 
 bottleneck (Dense)          (None, 947)               2633607   
                                                                 
 batch_normalization_16 (Bat  (None, 947)              3788      
 chNormalization)                                                
                                                                 
 re_lu_16 (ReLU)             (None, 947)               0         
                                                                 
 dense_16 (Dense)            (None, 2780)              2635440   
                                                                 
 batch_normalization_17 (Bat  (None, 2780)             11120     
 chNormalization)                                                
                                                                 
 re_lu_17 (ReLU)             (None, 2780)              0         
                                                                 
 dense_17 (Dense)            (None, 1264)              3515184   
                                                                 
=================================================================
Total params: 12,326,959
Trainable params: 12,313,945
Non-trainable params: 13,014
_________________________________________________________________
Encoder
Model: "model_16"
_________________________________________________________________
 Layer (type)                Output Shape              Param #   
=================================================================
 input_17 (InputLayer)       [(None, 1264)]            0         
                                                                 
 input_16 (InputLayer)       multiple                  0         
                                                                 
 dense_15 (Dense)            (None, 2780)              3516700   
                                                                 
 batch_normalization_15 (Bat  (None, 2780)             11120     
 chNormalization)                                                
                                                                 
 re_lu_15 (ReLU)             (None, 2780)              0         
                                                                 
 bottleneck (Dense)          (None, 947)               2633607   
                                                                 
=================================================================
Total params: 6,161,427
Trainable params: 6,155,867
Non-trainable params: 5,560
_________________________________________________________________
Decoder
Model: "model_17"
_________________________________________________________________
 Layer (type)                Output Shape              Param #   
=================================================================
 input_18 (InputLayer)       [(None, 947)]             0         
                                                                 
 batch_normalization_16 (Bat  (None, 947)              3788      
 chNormalization)                                                
                                                                 
 re_lu_16 (ReLU)             (None, 947)               0         
                                                                 
 dense_16 (Dense)            (None, 2780)              2635440   
                                                                 
 batch_normalization_17 (Bat  (None, 2780)             11120     
 chNormalization)                                                
                                                                 
 re_lu_17 (ReLU)             (None, 2780)              0         
                                                                 
 dense_17 (Dense)            (None, 1264)              3515184   
                                                                 
=================================================================
Total params: 6,165,532
Trainable params: 6,158,078
Non-trainable params: 7,454
_________________________________________________________________
['2.2custom_n_b', 'mse', 64, 200, 0.0005, 0.75, 947, 8.248145604738966e-05, 8.401132799917832e-05, 0.00095262935913781
…
<class 'float'>, <class 'float'>, <class 'float'>, <class 'float'>, <class 'float'>, <class 'float'>, <class 'float'>]
./DATAFILES/MP_GapFeats_2.2final_custom_n_b already created.
Shape of dataset to encode: (106113, 1264)
Model: "model_18"
_________________________________________________________________
 Layer (type)                Output Shape              Param #   
=================================================================
 input_19 (InputLayer)       [(None, 1264)]            0         
                                                                 
 dense_18 (Dense)            (None, 2780)              3516700   
                                                                 
 batch_normalization_18 (Bat  (None, 2780)             11120     
 chNormalization)                                                
                                                                 
 re_lu_18 (ReLU)             (None, 2780)              0         
                                                                 
 bottleneck (Dense)          (None, 884)               2458404   
                                                                 
 batch_normalization_19 (Bat  (None, 884)              3536      
 chNormalization)                                                
                                                                 
 re_lu_19 (ReLU)             (None, 884)               0         
                                                                 
 dense_19 (Dense)            (None, 2780)              2460300   
                                                                 
 batch_normalization_20 (Bat  (None, 2780)             11120     
 chNormalization)                                                
                                                                 
 re_lu_20 (ReLU)             (None, 2780)              0         
                                                                 
 dense_20 (Dense)            (None, 1264)              3515184   
                                                                 
=================================================================
Total params: 11,976,364
Trainable params: 11,963,476
Non-trainable params: 12,888
_________________________________________________________________
Epoch 1/200
1493/1493 - 92s - loss: 0.0090 - val_loss: 0.0039 - 92s/epoch - 61ms/step
Epoch 2/200
1493/1493 - 91s - loss: 0.0028 - val_loss: 0.0043 - 91s/epoch - 61ms/step
…
[==============================] - 2s 7ms/step
correlation 0.001037228699454801
cosine 0.0008174447610249755
MAE: 0.0053092605
RMSE: 0.009593259
r2: 0.9940301040908446
RMSE zero-vector: 0.23411466903540806
Full AutoEncoder
Model: "model_18"
_________________________________________________________________
 Layer (type)                Output Shape              Param #   
=================================================================
 input_19 (InputLayer)       multiple                  0         
                                                                 
 dense_18 (Dense)            (None, 2780)              3516700   
                                                                 
 batch_normalization_18 (Bat  (None, 2780)             11120     
 chNormalization)                                                
                                                                 
 re_lu_18 (ReLU)             (None, 2780)              0         
                                                                 
 bottleneck (Dense)          (None, 884)               2458404   
                                                                 
 batch_normalization_19 (Bat  (None, 884)              3536      
 chNormalization)                                                
                                                                 
 re_lu_19 (ReLU)             (None, 884)               0         
                                                                 
 dense_19 (Dense)            (None, 2780)              2460300   
                                                                 
 batch_normalization_20 (Bat  (None, 2780)             11120     
 chNormalization)                                                
                                                                 
 re_lu_20 (ReLU)             (None, 2780)              0         
                                                                 
 dense_20 (Dense)            (None, 1264)              3515184   
                                                                 
=================================================================
Total params: 11,976,364
Trainable params: 11,963,476
Non-trainable params: 12,888
_________________________________________________________________
Encoder
Model: "model_19"
_________________________________________________________________
 Layer (type)                Output Shape              Param #   
=================================================================
 input_20 (InputLayer)       [(None, 1264)]            0         
                                                                 
 input_19 (InputLayer)       multiple                  0         
                                                                 
 dense_18 (Dense)            (None, 2780)              3516700   
                                                                 
 batch_normalization_18 (Bat  (None, 2780)             11120     
 chNormalization)                                                
                                                                 
 re_lu_18 (ReLU)             (None, 2780)              0         
                                                                 
 bottleneck (Dense)          (None, 884)               2458404   
                                                                 
=================================================================
Total params: 5,986,224
Trainable params: 5,980,664
Non-trainable params: 5,560
_________________________________________________________________
Decoder
Model: "model_20"
_________________________________________________________________
 Layer (type)                Output Shape              Param #   
=================================================================
 input_21 (InputLayer)       [(None, 884)]             0         
                                                                 
 batch_normalization_19 (Bat  (None, 884)              3536      
 chNormalization)                                                
                                                                 
 re_lu_19 (ReLU)             (None, 884)               0         
                                                                 
 dense_19 (Dense)            (None, 2780)              2460300   
                                                                 
 batch_normalization_20 (Bat  (None, 2780)             11120     
 chNormalization)                                                
                                                                 
 re_lu_20 (ReLU)             (None, 2780)              0         
                                                                 
 dense_20 (Dense)            (None, 1264)              3515184   
                                                                 
=================================================================
Total params: 5,990,140
Trainable params: 5,982,812
Non-trainable params: 7,328
_________________________________________________________________
['2.2custom_n_b', 'mse', 64, 200, 0.0005, 0.7, 884, 8.601768786320463e-05, 9.203071385854855e-05, 0.001037228699454801
…
<class 'float'>, <class 'float'>, <class 'float'>, <class 'float'>, <class 'float'>, <class 'float'>, <class 'float'>]
./DATAFILES/MP_GapFeats_2.2final_custom_n_b already created.
Shape of dataset to encode: (106113, 1264)
Model: "model_21"
_________________________________________________________________
 Layer (type)                Output Shape              Param #   
=================================================================
 input_22 (InputLayer)       [(None, 1264)]            0         
                                                                 
 dense_21 (Dense)            (None, 2780)              3516700   
                                                                 
 batch_normalization_21 (Bat  (None, 2780)             11120     
 chNormalization)                                                
                                                                 
 re_lu_21 (ReLU)             (None, 2780)              0         
                                                                 
 bottleneck (Dense)          (None, 821)               2283201   
                                                                 
 batch_normalization_22 (Bat  (None, 821)              3284      
 chNormalization)                                                
                                                                 
 re_lu_22 (ReLU)             (None, 821)               0         
                                                                 
 dense_22 (Dense)            (None, 2780)              2285160   
                                                                 
 batch_normalization_23 (Bat  (None, 2780)             11120     
 chNormalization)                                                
                                                                 
 re_lu_23 (ReLU)             (None, 2780)              0         
                                                                 
 dense_23 (Dense)            (None, 1264)              3515184   
                                                                 
=================================================================
Total params: 11,625,769
Trainable params: 11,613,007
Non-trainable params: 12,762
_________________________________________________________________
Epoch 1/200
1493/1493 - 88s - loss: 0.0092 - val_loss: 0.0041 - 88s/epoch - 59ms/step
Epoch 2/200
1493/1493 - 87s - loss: 0.0029 - val_loss: 0.0031 - 87s/epoch - 58ms/step
…
=============================] - 2s 7ms/step
correlation 0.0009581813700370774
cosine 0.0007561417264934759
MAE: 0.0051078107
RMSE: 0.0091821095
r2: 0.9945315623762949
RMSE zero-vector: 0.23411466903540806
Full AutoEncoder
Model: "model_21"
_________________________________________________________________
 Layer (type)                Output Shape              Param #   
=================================================================
 input_22 (InputLayer)       multiple                  0         
                                                                 
 dense_21 (Dense)            (None, 2780)              3516700   
                                                                 
 batch_normalization_21 (Bat  (None, 2780)             11120     
 chNormalization)                                                
                                                                 
 re_lu_21 (ReLU)             (None, 2780)              0         
                                                                 
 bottleneck (Dense)          (None, 821)               2283201   
                                                                 
 batch_normalization_22 (Bat  (None, 821)              3284      
 chNormalization)                                                
                                                                 
 re_lu_22 (ReLU)             (None, 821)               0         
                                                                 
 dense_22 (Dense)            (None, 2780)              2285160   
                                                                 
 batch_normalization_23 (Bat  (None, 2780)             11120     
 chNormalization)                                                
                                                                 
 re_lu_23 (ReLU)             (None, 2780)              0         
                                                                 
 dense_23 (Dense)            (None, 1264)              3515184   
                                                                 
=================================================================
Total params: 11,625,769
Trainable params: 11,613,007
Non-trainable params: 12,762
_________________________________________________________________
Encoder
Model: "model_22"
_________________________________________________________________
 Layer (type)                Output Shape              Param #   
=================================================================
 input_23 (InputLayer)       [(None, 1264)]            0         
                                                                 
 input_22 (InputLayer)       multiple                  0         
                                                                 
 dense_21 (Dense)            (None, 2780)              3516700   
                                                                 
 batch_normalization_21 (Bat  (None, 2780)             11120     
 chNormalization)                                                
                                                                 
 re_lu_21 (ReLU)             (None, 2780)              0         
                                                                 
 bottleneck (Dense)          (None, 821)               2283201   
                                                                 
=================================================================
Total params: 5,811,021
Trainable params: 5,805,461
Non-trainable params: 5,560
_________________________________________________________________
Decoder
Model: "model_23"
_________________________________________________________________
 Layer (type)                Output Shape              Param #   
=================================================================
 input_24 (InputLayer)       [(None, 821)]             0         
                                                                 
 batch_normalization_22 (Bat  (None, 821)              3284      
 chNormalization)                                                
                                                                 
 re_lu_22 (ReLU)             (None, 821)               0         
                                                                 
 dense_22 (Dense)            (None, 2780)              2285160   
                                                                 
 batch_normalization_23 (Bat  (None, 2780)             11120     
 chNormalization)                                                
                                                                 
 re_lu_23 (ReLU)             (None, 2780)              0         
                                                                 
 dense_23 (Dense)            (None, 1264)              3515184   
                                                                 
=================================================================
Total params: 5,814,748
Trainable params: 5,807,546
Non-trainable params: 7,202
_________________________________________________________________
['2.2custom_n_b', 'mse', 64, 200, 0.0005, 0.65, 821, 8.660641469759867e-05, 8.431119204033166e-05, 0.00095818137003707
…
<class 'float'>, <class 'float'>, <class 'float'>, <class 'float'>, <class 'float'>, <class 'float'>, <class 'float'>]
./DATAFILES/MP_GapFeats_2.2final_custom_n_b already created.
Shape of dataset to encode: (106113, 1264)
Model: "model_24"
_________________________________________________________________
 Layer (type)                Output Shape              Param #   
=================================================================
 input_25 (InputLayer)       [(None, 1264)]            0         
                                                                 
 dense_24 (Dense)            (None, 2780)              3516700   
                                                                 
 batch_normalization_24 (Bat  (None, 2780)             11120     
 chNormalization)                                                
                                                                 
 re_lu_24 (ReLU)             (None, 2780)              0         
                                                                 
 bottleneck (Dense)          (None, 758)               2107998   
                                                                 
 batch_normalization_25 (Bat  (None, 758)              3032      
 chNormalization)                                                
                                                                 
 re_lu_25 (ReLU)             (None, 758)               0         
                                                                 
 dense_25 (Dense)            (None, 2780)              2110020   
                                                                 
 batch_normalization_26 (Bat  (None, 2780)             11120     
 chNormalization)                                                
                                                                 
 re_lu_26 (ReLU)             (None, 2780)              0         
                                                                 
 dense_26 (Dense)            (None, 1264)              3515184   
                                                                 
=================================================================
Total params: 11,275,174
Trainable params: 11,262,538
Non-trainable params: 12,636
_________________________________________________________________
Epoch 1/200
1493/1493 - 86s - loss: 0.0093 - val_loss: 0.0039 - 86s/epoch - 58ms/step
Epoch 2/200
1493/1493 - 86s - loss: 0.0029 - val_loss: 0.0032 - 86s/epoch - 57ms/step
…
[==============================] - 2s 7ms/step
correlation 0.0010643114840988839
cosine 0.0008385015115888893
MAE: 0.005411794
RMSE: 0.009719756
r2: 0.9938721427418928
RMSE zero-vector: 0.23411466903540806
Full AutoEncoder
Model: "model_24"
_________________________________________________________________
 Layer (type)                Output Shape              Param #   
=================================================================
 input_25 (InputLayer)       multiple                  0         
                                                                 
 dense_24 (Dense)            (None, 2780)              3516700   
                                                                 
 batch_normalization_24 (Bat  (None, 2780)             11120     
 chNormalization)                                                
                                                                 
 re_lu_24 (ReLU)             (None, 2780)              0         
                                                                 
 bottleneck (Dense)          (None, 758)               2107998   
                                                                 
 batch_normalization_25 (Bat  (None, 758)              3032      
 chNormalization)                                                
                                                                 
 re_lu_25 (ReLU)             (None, 758)               0         
                                                                 
 dense_25 (Dense)            (None, 2780)              2110020   
                                                                 
 batch_normalization_26 (Bat  (None, 2780)             11120     
 chNormalization)                                                
                                                                 
 re_lu_26 (ReLU)             (None, 2780)              0         
                                                                 
 dense_26 (Dense)            (None, 1264)              3515184   
                                                                 
=================================================================
Total params: 11,275,174
Trainable params: 11,262,538
Non-trainable params: 12,636
_________________________________________________________________
Encoder
Model: "model_25"
_________________________________________________________________
 Layer (type)                Output Shape              Param #   
=================================================================
 input_26 (InputLayer)       [(None, 1264)]            0         
                                                                 
 input_25 (InputLayer)       multiple                  0         
                                                                 
 dense_24 (Dense)            (None, 2780)              3516700   
                                                                 
 batch_normalization_24 (Bat  (None, 2780)             11120     
 chNormalization)                                                
                                                                 
 re_lu_24 (ReLU)             (None, 2780)              0         
                                                                 
 bottleneck (Dense)          (None, 758)               2107998   
                                                                 
=================================================================
Total params: 5,635,818
Trainable params: 5,630,258
Non-trainable params: 5,560
_________________________________________________________________
Decoder
Model: "model_26"
_________________________________________________________________
 Layer (type)                Output Shape              Param #   
=================================================================
 input_27 (InputLayer)       [(None, 758)]             0         
                                                                 
 batch_normalization_25 (Bat  (None, 758)              3032      
 chNormalization)                                                
                                                                 
 re_lu_25 (ReLU)             (None, 758)               0         
                                                                 
 dense_25 (Dense)            (None, 2780)              2110020   
                                                                 
 batch_normalization_26 (Bat  (None, 2780)             11120     
 chNormalization)                                                
                                                                 
 re_lu_26 (ReLU)             (None, 2780)              0         
                                                                 
 dense_26 (Dense)            (None, 1264)              3515184   
                                                                 
=================================================================
Total params: 5,639,356
Trainable params: 5,632,280
Non-trainable params: 7,076
_________________________________________________________________
['2.2custom_n_b', 'mse', 64, 200, 0.0005, 0.6, 758, 9.270010923501104e-05, 9.447374031879008e-05, 0.001064311484098883
…
<class 'float'>, <class 'float'>, <class 'float'>, <class 'float'>, <class 'float'>, <class 'float'>, <class 'float'>]
./DATAFILES/MP_GapFeats_2.2final_custom_n_b already created.
Shape of dataset to encode: (106113, 1264)
Model: "model_27"
_________________________________________________________________
 Layer (type)                Output Shape              Param #   
=================================================================
 input_28 (InputLayer)       [(None, 1264)]            0         
                                                                 
 dense_27 (Dense)            (None, 2780)              3516700   
                                                                 
 batch_normalization_27 (Bat  (None, 2780)             11120     
 chNormalization)                                                
                                                                 
 re_lu_27 (ReLU)             (None, 2780)              0         
                                                                 
 bottleneck (Dense)          (None, 695)               1932795   
                                                                 
 batch_normalization_28 (Bat  (None, 695)              2780      
 chNormalization)                                                
                                                                 
 re_lu_28 (ReLU)             (None, 695)               0         
                                                                 
 dense_28 (Dense)            (None, 2780)              1934880   
                                                                 
 batch_normalization_29 (Bat  (None, 2780)             11120     
 chNormalization)                                                
                                                                 
 re_lu_29 (ReLU)             (None, 2780)              0         
                                                                 
 dense_29 (Dense)            (None, 1264)              3515184   
                                                                 
=================================================================
Total params: 10,924,579
Trainable params: 10,912,069
Non-trainable params: 12,510
_________________________________________________________________
Epoch 1/200
1493/1493 - 82s - loss: 0.0093 - val_loss: 0.0044 - 82s/epoch - 55ms/step
Epoch 2/200
1493/1493 - 81s - loss: 0.0029 - val_loss: 0.0038 - 81s/epoch - 54ms/step
…
