…
2022-12-26 21:12:53.618256: I tensorflow/core/common_runtime/gpu/gpu_device.cc:1616] Created device /job:localhost/replica:0/task:0/device:GPU:0 with 20637 MB memory:  -> device: 0, name: NVIDIA A10, pci bus id: 0000:0f:00.0, compute capability: 8.6
Model: "model"
_________________________________________________________________
 Layer (type)                Output Shape              Param #   
=================================================================
 input_1 (InputLayer)        [(None, 1264)]            0         
                                                                 
 dense (Dense)               (None, 2528)              3197920   
                                                                 
 batch_normalization (BatchN  (None, 2528)             10112     
 ormalization)                                                   
                                                                 
 re_lu (ReLU)                (None, 2528)              0         
                                                                 
 bottleneck (Dense)          (None, 632)               1598328   
                                                                 
 batch_normalization_1 (Batc  (None, 632)              2528      
 hNormalization)                                                 
                                                                 
 re_lu_1 (ReLU)              (None, 632)               0         
                                                                 
 dense_1 (Dense)             (None, 2528)              1600224   
                                                                 
 batch_normalization_2 (Batc  (None, 2528)             10112     
 hNormalization)                                                 
                                                                 
 re_lu_2 (ReLU)              (None, 2528)              0         
                                                                 
 dense_2 (Dense)             (None, 1264)              3196656   
                                                                 
=================================================================
Total params: 9,615,880
Trainable params: 9,604,504
Non-trainable params: 11,376
_________________________________________________________________
Epoch 1/300
2022-12-26 21:12:55.889998: I tensorflow/stream_executor/cuda/cuda_blas.cc:1614] TensorFloat-32 will be used for the matrix multiplication. This will only be logged once.
…
/332 [==============================] - 0s 1ms/step
correlation 0.020372172346968052
cosine 0.019114926600466927
MAE: 0.015857114
RMSE: 0.09833999
r2: 0.37265830873138145
RMSE zero-vector: 0.23411466903540806
Full AutoEncoder
Model: "model"
_________________________________________________________________
 Layer (type)                Output Shape              Param #   
=================================================================
 input_1 (InputLayer)        multiple                  0         
                                                                 
 dense (Dense)               (None, 2528)              3197920   
                                                                 
 batch_normalization (BatchN  (None, 2528)             10112     
 ormalization)                                                   
                                                                 
 re_lu (ReLU)                (None, 2528)              0         
                                                                 
 bottleneck (Dense)          (None, 632)               1598328   
                                                                 
 batch_normalization_1 (Batc  (None, 632)              2528      
 hNormalization)                                                 
                                                                 
 re_lu_1 (ReLU)              (None, 632)               0         
                                                                 
 dense_1 (Dense)             (None, 2528)              1600224   
                                                                 
 batch_normalization_2 (Batc  (None, 2528)             10112     
 hNormalization)                                                 
                                                                 
 re_lu_2 (ReLU)              (None, 2528)              0         
                                                                 
 dense_2 (Dense)             (None, 1264)              3196656   
                                                                 
=================================================================
Total params: 9,615,880
Trainable params: 9,604,504
Non-trainable params: 11,376
_________________________________________________________________
Encoder
Model: "model_1"
_________________________________________________________________
 Layer (type)                Output Shape              Param #   
=================================================================
 input_2 (InputLayer)        [(None, 1264)]            0         
                                                                 
 input_1 (InputLayer)        multiple                  0         
                                                                 
 dense (Dense)               (None, 2528)              3197920   
                                                                 
 batch_normalization (BatchN  (None, 2528)             10112     
 ormalization)                                                   
                                                                 
 re_lu (ReLU)                (None, 2528)              0         
                                                                 
 bottleneck (Dense)          (None, 632)               1598328   
                                                                 
=================================================================
Total params: 4,806,360
Trainable params: 4,801,304
Non-trainable params: 5,056
_________________________________________________________________
Decoder
Model: "model_2"
_________________________________________________________________
 Layer (type)                Output Shape              Param #   
=================================================================
 input_3 (InputLayer)        [(None, 632)]             0         
                                                                 
 batch_normalization_1 (Batc  (None, 632)              2528      
 hNormalization)                                                 
                                                                 
 re_lu_1 (ReLU)              (None, 632)               0         
                                                                 
 dense_1 (Dense)             (None, 2528)              1600224   
                                                                 
 batch_normalization_2 (Batc  (None, 2528)             10112     
 hNormalization)                                                 
                                                                 
 re_lu_2 (ReLU)              (None, 2528)              0         
                                                                 
 dense_2 (Dense)             (None, 1264)              3196656   
                                                                 
=================================================================
Total params: 4,809,520
Trainable params: 4,803,200
Non-trainable params: 6,320
_________________________________________________________________
['default', 'mse', 16, 300, 0.002, 0.5, 632, 0.0005082017160020769, 0.009670952335000038, 0.020372172346968052, 0.0191
…
