…
2022-12-29 23:36:25.652148: I tensorflow/core/platform/cpu_feature_guard.cc:193] This TensorFlow binary is optimized with oneAPI Deep Neural Network Library (oneDNN) to use the following CPU instructions in performance-critical operations:  SSE4.1 SSE4.2 AVX AVX2 AVX512F AVX512_VNNI FMA
To enable them in other operations, rebuild TensorFlow with the appropriate compiler flags.
Model: "model"
_________________________________________________________________
 Layer (type)                Output Shape              Param #   
=================================================================
 input_1 (InputLayer)        [(None, 1264)]            0         
                                                                 
 dense (Dense)               (None, 1264)              1598960   
                                                                 
 batch_normalization (BatchN  (None, 1264)             5056      
 ormalization)                                                   
                                                                 
 re_lu (ReLU)                (None, 1264)              0         
                                                                 
 bottleneck (Dense)          (None, 632)               799480    
                                                                 
 batch_normalization_1 (Batc  (None, 632)              2528      
 hNormalization)                                                 
                                                                 
 re_lu_1 (ReLU)              (None, 632)               0         
                                                                 
 dense_1 (Dense)             (None, 1264)              800112    
                                                                 
 batch_normalization_2 (Batc  (None, 1264)             5056      
 hNormalization)                                                 
                                                                 
 re_lu_2 (ReLU)              (None, 1264)              0         
                                                                 
 dense_2 (Dense)             (None, 1264)              1598960   
                                                                 
=================================================================
Total params: 4,810,152
Trainable params: 4,803,832
Non-trainable params: 6,320
_________________________________________________________________
Epoch 1/300
2985/2985 - 59s - loss: 0.0080 - val_loss: 0.0035 - 59s/epoch - 20ms/step
Epoch 2/300
2985/2985 - 59s - loss: 0.0028 - val_loss: 0.0020 - 59s/epoch - 20ms/step
…
/332 [==============================] - 1s 3ms/step
correlation 0.002402845049776134
cosine 0.001918440039455329
MAE: 0.008907639
RMSE: 0.014812136
r2: 0.9857674980929735
RMSE zero-vector: 0.23411466903540806
Full AutoEncoder
Model: "model"
_________________________________________________________________
 Layer (type)                Output Shape              Param #   
=================================================================
 input_1 (InputLayer)        multiple                  0         
                                                                 
 dense (Dense)               (None, 1264)              1598960   
                                                                 
 batch_normalization (BatchN  (None, 1264)             5056      
 ormalization)                                                   
                                                                 
 re_lu (ReLU)                (None, 1264)              0         
                                                                 
 bottleneck (Dense)          (None, 632)               799480    
                                                                 
 batch_normalization_1 (Batc  (None, 632)              2528      
 hNormalization)                                                 
                                                                 
 re_lu_1 (ReLU)              (None, 632)               0         
                                                                 
 dense_1 (Dense)             (None, 1264)              800112    
                                                                 
 batch_normalization_2 (Batc  (None, 1264)             5056      
 hNormalization)                                                 
                                                                 
 re_lu_2 (ReLU)              (None, 1264)              0         
                                                                 
 dense_2 (Dense)             (None, 1264)              1598960   
                                                                 
=================================================================
Total params: 4,810,152
Trainable params: 4,803,832
Non-trainable params: 6,320
_________________________________________________________________
Encoder
Model: "model_1"
_________________________________________________________________
 Layer (type)                Output Shape              Param #   
=================================================================
 input_2 (InputLayer)        [(None, 1264)]            0         
                                                                 
 input_1 (InputLayer)        multiple                  0         
                                                                 
 dense (Dense)               (None, 1264)              1598960   
                                                                 
 batch_normalization (BatchN  (None, 1264)             5056      
 ormalization)                                                   
                                                                 
 re_lu (ReLU)                (None, 1264)              0         
                                                                 
 bottleneck (Dense)          (None, 632)               799480    
                                                                 
=================================================================
Total params: 2,403,496
Trainable params: 2,400,968
Non-trainable params: 2,528
_________________________________________________________________
Decoder
Model: "model_2"
_________________________________________________________________
 Layer (type)                Output Shape              Param #   
=================================================================
 input_3 (InputLayer)        [(None, 632)]             0         
                                                                 
 batch_normalization_1 (Batc  (None, 632)              2528      
 hNormalization)                                                 
                                                                 
 re_lu_1 (ReLU)              (None, 632)               0         
                                                                 
 dense_1 (Dense)             (None, 1264)              800112    
                                                                 
 batch_normalization_2 (Batc  (None, 1264)             5056      
 hNormalization)                                                 
                                                                 
 re_lu_2 (ReLU)              (None, 1264)              0         
                                                                 
 dense_2 (Dense)             (None, 1264)              1598960   
                                                                 
=================================================================
Total params: 2,406,656
Trainable params: 2,402,864
Non-trainable params: 3,792
_________________________________________________________________
['n_b', 'mse', 32, 300, 0.0005, 0.5, 632, 0.0001738768332870677, 0.00021939950238447636, 0.002402845049776134, 0.00191
…
