…
2022-12-20 01:22:18.049271: I tensorflow/core/common_runtime/gpu/gpu_device.cc:1616] Created device /job:localhost/replica:0/task:0/device:GPU:0 with 20637 MB memory:  -> device: 0, name: NVIDIA A10, pci bus id: 0000:2b:00.0, compute capability: 8.6
Model: "model"
_________________________________________________________________
 Layer (type)                Output Shape              Param #   
=================================================================
 input_1 (InputLayer)        [(None, 1264)]            0         
                                                                 
 dense (Dense)               (None, 2528)              3197920   
                                                                 
 batch_normalization (BatchN  (None, 2528)             10112     
 ormalization)                                                   
                                                                 
 re_lu (ReLU)                (None, 2528)              0         
                                                                 
 dense_1 (Dense)             (None, 1264)              3196656   
                                                                 
 batch_normalization_1 (Batc  (None, 1264)             5056      
 hNormalization)                                                 
                                                                 
 re_lu_1 (ReLU)              (None, 1264)              0         
                                                                 
 bottleneck (Dense)          (None, 1264)              1598960   
                                                                 
 batch_normalization_2 (Batc  (None, 1264)             5056      
 hNormalization)                                                 
                                                                 
 re_lu_2 (ReLU)              (None, 1264)              0         
                                                                 
 dense_2 (Dense)             (None, 1264)              1598960   
                                                                 
 batch_normalization_3 (Batc  (None, 1264)             5056      
 hNormalization)                                                 
                                                                 
 re_lu_3 (ReLU)              (None, 1264)              0         
                                                                 
 dense_3 (Dense)             (None, 2528)              3197920   
                                                                 
 batch_normalization_4 (Batc  (None, 2528)             10112     
 hNormalization)                                                 
                                                                 
 re_lu_4 (ReLU)              (None, 2528)              0         
                                                                 
 dense_4 (Dense)             (None, 1264)              3196656   
                                                                 
=================================================================
Total params: 16,022,464
Trainable params: 16,004,768
Non-trainable params: 17,696
_________________________________________________________________
Epoch 1/400
2022-12-20 01:22:21.476353: I tensorflow/stream_executor/cuda/cuda_blas.cc:1614] TensorFloat-32 will be used for the matrix multiplication. This will only be logged once.
…
332 [==============================] - 1s 1ms/step
correlation 0.027377891397728654
cosine 0.025530026959794998
MAE: 0.017871732
RMSE: 0.12602237
r2: -0.03029257712550189
RMSE zero-vector: 0.23411466903540806
Full AutoEncoder
Model: "model"
_________________________________________________________________
 Layer (type)                Output Shape              Param #   
=================================================================
 input_1 (InputLayer)        multiple                  0         
                                                                 
 dense (Dense)               (None, 2528)              3197920   
                                                                 
 batch_normalization (BatchN  (None, 2528)             10112     
 ormalization)                                                   
                                                                 
 re_lu (ReLU)                (None, 2528)              0         
                                                                 
 dense_1 (Dense)             (None, 1264)              3196656   
                                                                 
 batch_normalization_1 (Batc  (None, 1264)             5056      
 hNormalization)                                                 
                                                                 
 re_lu_1 (ReLU)              (None, 1264)              0         
                                                                 
 bottleneck (Dense)          (None, 1264)              1598960   
                                                                 
 batch_normalization_2 (Batc  (None, 1264)             5056      
 hNormalization)                                                 
                                                                 
 re_lu_2 (ReLU)              (None, 1264)              0         
                                                                 
 dense_2 (Dense)             (None, 1264)              1598960   
                                                                 
 batch_normalization_3 (Batc  (None, 1264)             5056      
 hNormalization)                                                 
                                                                 
 re_lu_3 (ReLU)              (None, 1264)              0         
                                                                 
 dense_3 (Dense)             (None, 2528)              3197920   
                                                                 
 batch_normalization_4 (Batc  (None, 2528)             10112     
 hNormalization)                                                 
                                                                 
 re_lu_4 (ReLU)              (None, 2528)              0         
                                                                 
 dense_4 (Dense)             (None, 1264)              3196656   
                                                                 
=================================================================
Total params: 16,022,464
Trainable params: 16,004,768
Non-trainable params: 17,696
_________________________________________________________________
Encoder
Model: "model_1"
_________________________________________________________________
 Layer (type)                Output Shape              Param #   
=================================================================
 input_2 (InputLayer)        [(None, 1264)]            0         
                                                                 
 input_1 (InputLayer)        multiple                  0         
                                                                 
 dense (Dense)               (None, 2528)              3197920   
                                                                 
 batch_normalization (BatchN  (None, 2528)             10112     
 ormalization)                                                   
                                                                 
 re_lu (ReLU)                (None, 2528)              0         
                                                                 
 dense_1 (Dense)             (None, 1264)              3196656   
                                                                 
 batch_normalization_1 (Batc  (None, 1264)             5056      
 hNormalization)                                                 
                                                                 
 re_lu_1 (ReLU)              (None, 1264)              0         
                                                                 
 bottleneck (Dense)          (None, 1264)              1598960   
                                                                 
=================================================================
Total params: 8,008,704
Trainable params: 8,001,120
Non-trainable params: 7,584
_________________________________________________________________
Decoder
Model: "model_2"
_________________________________________________________________
 Layer (type)                Output Shape              Param #   
=================================================================
 input_3 (InputLayer)        [(None, 1264)]            0         
                                                                 
 batch_normalization_2 (Batc  (None, 1264)             5056      
 hNormalization)                                                 
                                                                 
 re_lu_2 (ReLU)              (None, 1264)              0         
                                                                 
 dense_2 (Dense)             (None, 1264)              1598960   
                                                                 
 batch_normalization_3 (Batc  (None, 1264)             5056      
 hNormalization)                                                 
                                                                 
 re_lu_3 (ReLU)              (None, 1264)              0         
                                                                 
 dense_3 (Dense)             (None, 2528)              3197920   
                                                                 
 batch_normalization_4 (Batc  (None, 2528)             10112     
 hNormalization)                                                 
                                                                 
 re_lu_4 (ReLU)              (None, 2528)              0         
                                                                 
 dense_4 (Dense)             (None, 1264)              3196656   
                                                                 
=================================================================
Total params: 8,013,760
Trainable params: 8,003,648
Non-trainable params: 10,112
_________________________________________________________________
Model: "model_3"
_________________________________________________________________
 Layer (type)                Output Shape              Param #   
=================================================================
 input_4 (InputLayer)        [(None, 1264)]            0         
                                                                 
 dense_5 (Dense)             (None, 2528)              3197920   
                                                                 
 batch_normalization_5 (Batc  (None, 2528)             10112     
 hNormalization)                                                 
                                                                 
 re_lu_5 (ReLU)              (None, 2528)              0         
                                                                 
 dense_6 (Dense)             (None, 1264)              3196656   
                                                                 
 batch_normalization_6 (Batc  (None, 1264)             5056      
 hNormalization)                                                 
                                                                 
 re_lu_6 (ReLU)              (None, 1264)              0         
                                                                 
 bottleneck (Dense)          (None, 1200)              1518000   
                                                                 
 batch_normalization_7 (Batc  (None, 1200)             4800      
 hNormalization)                                                 
                                                                 
 re_lu_7 (ReLU)              (None, 1200)              0         
                                                                 
 dense_7 (Dense)             (None, 1264)              1518064   
                                                                 
 batch_normalization_8 (Batc  (None, 1264)             5056      
 hNormalization)                                                 
                                                                 
 re_lu_8 (ReLU)              (None, 1264)              0         
                                                                 
 dense_8 (Dense)             (None, 2528)              3197920   
                                                                 
 batch_normalization_9 (Batc  (None, 2528)             10112     
 hNormalization)                                                 
                                                                 
 re_lu_9 (ReLU)              (None, 2528)              0         
                                                                 
 dense_9 (Dense)             (None, 1264)              3196656   
                                                                 
=================================================================
Total params: 15,860,352
Trainable params: 15,842,784
Non-trainable params: 17,568
_________________________________________________________________
Epoch 1/400
5969/5969 - 23s - loss: 0.0084 - val_loss: 0.0035 - 23s/epoch - 4ms/step
Epoch 2/400
5969/5969 - 22s - loss: 0.0034 - val_loss: 0.0026 - 22s/epoch - 4ms/step
…
2/332 [==============================] - 1s 1ms/step
correlation 0.02460015181008315
cosine 0.021378584574701605
MAE: 0.0241607
RMSE: 0.18513799
r2: -1.2236030459603797
RMSE zero-vector: 0.23411466903540806
Full AutoEncoder
Model: "model_3"
_________________________________________________________________
 Layer (type)                Output Shape              Param #   
=================================================================
 input_4 (InputLayer)        multiple                  0         
                                                                 
 dense_5 (Dense)             (None, 2528)              3197920   
                                                                 
 batch_normalization_5 (Batc  (None, 2528)             10112     
 hNormalization)                                                 
                                                                 
 re_lu_5 (ReLU)              (None, 2528)              0         
                                                                 
 dense_6 (Dense)             (None, 1264)              3196656   
                                                                 
 batch_normalization_6 (Batc  (None, 1264)             5056      
 hNormalization)                                                 
                                                                 
 re_lu_6 (ReLU)              (None, 1264)              0         
                                                                 
 bottleneck (Dense)          (None, 1200)              1518000   
                                                                 
 batch_normalization_7 (Batc  (None, 1200)             4800      
 hNormalization)                                                 
                                                                 
 re_lu_7 (ReLU)              (None, 1200)              0         
                                                                 
 dense_7 (Dense)             (None, 1264)              1518064   
                                                                 
 batch_normalization_8 (Batc  (None, 1264)             5056      
 hNormalization)                                                 
                                                                 
 re_lu_8 (ReLU)              (None, 1264)              0         
                                                                 
 dense_8 (Dense)             (None, 2528)              3197920   
                                                                 
 batch_normalization_9 (Batc  (None, 2528)             10112     
 hNormalization)                                                 
                                                                 
 re_lu_9 (ReLU)              (None, 2528)              0         
                                                                 
 dense_9 (Dense)             (None, 1264)              3196656   
                                                                 
=================================================================
Total params: 15,860,352
Trainable params: 15,842,784
Non-trainable params: 17,568
_________________________________________________________________
Encoder
Model: "model_4"
_________________________________________________________________
 Layer (type)                Output Shape              Param #   
=================================================================
 input_5 (InputLayer)        [(None, 1264)]            0         
                                                                 
 input_4 (InputLayer)        multiple                  0         
                                                                 
 dense_5 (Dense)             (None, 2528)              3197920   
                                                                 
 batch_normalization_5 (Batc  (None, 2528)             10112     
 hNormalization)                                                 
                                                                 
 re_lu_5 (ReLU)              (None, 2528)              0         
                                                                 
 dense_6 (Dense)             (None, 1264)              3196656   
                                                                 
 batch_normalization_6 (Batc  (None, 1264)             5056      
 hNormalization)                                                 
                                                                 
 re_lu_6 (ReLU)              (None, 1264)              0         
                                                                 
 bottleneck (Dense)          (None, 1200)              1518000   
                                                                 
=================================================================
Total params: 7,927,744
Trainable params: 7,920,160
Non-trainable params: 7,584
_________________________________________________________________
Decoder
Model: "model_5"
_________________________________________________________________
 Layer (type)                Output Shape              Param #   
=================================================================
 input_6 (InputLayer)        [(None, 1200)]            0         
                                                                 
 batch_normalization_7 (Batc  (None, 1200)             4800      
 hNormalization)                                                 
                                                                 
 re_lu_7 (ReLU)              (None, 1200)              0         
                                                                 
 dense_7 (Dense)             (None, 1264)              1518064   
                                                                 
 batch_normalization_8 (Batc  (None, 1264)             5056      
 hNormalization)                                                 
                                                                 
 re_lu_8 (ReLU)              (None, 1264)              0         
                                                                 
 dense_8 (Dense)             (None, 2528)              3197920   
                                                                 
 batch_normalization_9 (Batc  (None, 2528)             10112     
 hNormalization)                                                 
                                                                 
 re_lu_9 (ReLU)              (None, 2528)              0         
                                                                 
 dense_9 (Dense)             (None, 1264)              3196656   
                                                                 
=================================================================
Total params: 7,932,608
Trainable params: 7,922,624
Non-trainable params: 9,984
_________________________________________________________________
Model: "model_6"
_________________________________________________________________
 Layer (type)                Output Shape              Param #   
=================================================================
 input_7 (InputLayer)        [(None, 1264)]            0         
                                                                 
 dense_10 (Dense)            (None, 2528)              3197920   
                                                                 
 batch_normalization_10 (Bat  (None, 2528)             10112     
 chNormalization)                                                
                                                                 
 re_lu_10 (ReLU)             (None, 2528)              0         
                                                                 
 dense_11 (Dense)            (None, 1264)              3196656   
                                                                 
 batch_normalization_11 (Bat  (None, 1264)             5056      
 chNormalization)                                                
                                                                 
 re_lu_11 (ReLU)             (None, 1264)              0         
                                                                 
 bottleneck (Dense)          (None, 1137)              1438305   
                                                                 
 batch_normalization_12 (Bat  (None, 1137)             4548      
 chNormalization)                                                
                                                                 
 re_lu_12 (ReLU)             (None, 1137)              0         
                                                                 
 dense_12 (Dense)            (None, 1264)              1438432   
                                                                 
 batch_normalization_13 (Bat  (None, 1264)             5056      
 chNormalization)                                                
                                                                 
 re_lu_13 (ReLU)             (None, 1264)              0         
                                                                 
 dense_13 (Dense)            (None, 2528)              3197920   
                                                                 
 batch_normalization_14 (Bat  (None, 2528)             10112     
 chNormalization)                                                
                                                                 
 re_lu_14 (ReLU)             (None, 2528)              0         
                                                                 
 dense_14 (Dense)            (None, 1264)              3196656   
                                                                 
=================================================================
Total params: 15,700,773
Trainable params: 15,683,331
Non-trainable params: 17,442
_________________________________________________________________
Epoch 1/400
5969/5969 - 23s - loss: 0.0086 - val_loss: 0.0037 - 23s/epoch - 4ms/step
Epoch 2/400
5969/5969 - 22s - loss: 0.0073 - val_loss: 0.0052 - 22s/epoch - 4ms/step
…
/332 [==============================] - 2s 1ms/step
correlation 0.03556436273157284
cosine 0.032356399570105186
MAE: 0.021986878
RMSE: 0.29604056
r2: -4.685465320256263
RMSE zero-vector: 0.23411466903540806
Full AutoEncoder
Model: "model_6"
_________________________________________________________________
 Layer (type)                Output Shape              Param #   
=================================================================
 input_7 (InputLayer)        multiple                  0         
                                                                 
 dense_10 (Dense)            (None, 2528)              3197920   
                                                                 
 batch_normalization_10 (Bat  (None, 2528)             10112     
 chNormalization)                                                
                                                                 
 re_lu_10 (ReLU)             (None, 2528)              0         
                                                                 
 dense_11 (Dense)            (None, 1264)              3196656   
                                                                 
 batch_normalization_11 (Bat  (None, 1264)             5056      
 chNormalization)                                                
                                                                 
 re_lu_11 (ReLU)             (None, 1264)              0         
                                                                 
 bottleneck (Dense)          (None, 1137)              1438305   
                                                                 
 batch_normalization_12 (Bat  (None, 1137)             4548      
 chNormalization)                                                
                                                                 
 re_lu_12 (ReLU)             (None, 1137)              0         
                                                                 
 dense_12 (Dense)            (None, 1264)              1438432   
                                                                 
 batch_normalization_13 (Bat  (None, 1264)             5056      
 chNormalization)                                                
                                                                 
 re_lu_13 (ReLU)             (None, 1264)              0         
                                                                 
 dense_13 (Dense)            (None, 2528)              3197920   
                                                                 
 batch_normalization_14 (Bat  (None, 2528)             10112     
 chNormalization)                                                
                                                                 
 re_lu_14 (ReLU)             (None, 2528)              0         
                                                                 
 dense_14 (Dense)            (None, 1264)              3196656   
                                                                 
=================================================================
Total params: 15,700,773
Trainable params: 15,683,331
Non-trainable params: 17,442
_________________________________________________________________
Encoder
Model: "model_7"
_________________________________________________________________
 Layer (type)                Output Shape              Param #   
=================================================================
 input_8 (InputLayer)        [(None, 1264)]            0         
                                                                 
 input_7 (InputLayer)        multiple                  0         
                                                                 
 dense_10 (Dense)            (None, 2528)              3197920   
                                                                 
 batch_normalization_10 (Bat  (None, 2528)             10112     
 chNormalization)                                                
                                                                 
 re_lu_10 (ReLU)             (None, 2528)              0         
                                                                 
 dense_11 (Dense)            (None, 1264)              3196656   
                                                                 
 batch_normalization_11 (Bat  (None, 1264)             5056      
 chNormalization)                                                
                                                                 
 re_lu_11 (ReLU)             (None, 1264)              0         
                                                                 
 bottleneck (Dense)          (None, 1137)              1438305   
                                                                 
=================================================================
Total params: 7,848,049
Trainable params: 7,840,465
Non-trainable params: 7,584
_________________________________________________________________
Decoder
Model: "model_8"
_________________________________________________________________
 Layer (type)                Output Shape              Param #   
=================================================================
 input_9 (InputLayer)        [(None, 1137)]            0         
                                                                 
 batch_normalization_12 (Bat  (None, 1137)             4548      
 chNormalization)                                                
                                                                 
 re_lu_12 (ReLU)             (None, 1137)              0         
                                                                 
 dense_12 (Dense)            (None, 1264)              1438432   
                                                                 
 batch_normalization_13 (Bat  (None, 1264)             5056      
 chNormalization)                                                
                                                                 
 re_lu_13 (ReLU)             (None, 1264)              0         
                                                                 
 dense_13 (Dense)            (None, 2528)              3197920   
                                                                 
 batch_normalization_14 (Bat  (None, 2528)             10112     
 chNormalization)                                                
                                                                 
 re_lu_14 (ReLU)             (None, 2528)              0         
                                                                 
 dense_14 (Dense)            (None, 1264)              3196656   
                                                                 
=================================================================
Total params: 7,852,724
Trainable params: 7,842,866
Non-trainable params: 9,858
_________________________________________________________________
Model: "model_9"
_________________________________________________________________
 Layer (type)                Output Shape              Param #   
=================================================================
 input_10 (InputLayer)       [(None, 1264)]            0         
                                                                 
 dense_15 (Dense)            (None, 2528)              3197920   
                                                                 
 batch_normalization_15 (Bat  (None, 2528)             10112     
 chNormalization)                                                
                                                                 
 re_lu_15 (ReLU)             (None, 2528)              0         
                                                                 
 dense_16 (Dense)            (None, 1264)              3196656   
                                                                 
 batch_normalization_16 (Bat  (None, 1264)             5056      
 chNormalization)                                                
                                                                 
 re_lu_16 (ReLU)             (None, 1264)              0         
                                                                 
 bottleneck (Dense)          (None, 1074)              1358610   
                                                                 
 batch_normalization_17 (Bat  (None, 1074)             4296      
 chNormalization)                                                
                                                                 
 re_lu_17 (ReLU)             (None, 1074)              0         
                                                                 
 dense_17 (Dense)            (None, 1264)              1358800   
                                                                 
 batch_normalization_18 (Bat  (None, 1264)             5056      
 chNormalization)                                                
                                                                 
 re_lu_18 (ReLU)             (None, 1264)              0         
                                                                 
 dense_18 (Dense)            (None, 2528)              3197920   
                                                                 
 batch_normalization_19 (Bat  (None, 2528)             10112     
 chNormalization)                                                
                                                                 
 re_lu_19 (ReLU)             (None, 2528)              0         
                                                                 
 dense_19 (Dense)            (None, 1264)              3196656   
                                                                 
=================================================================
Total params: 15,541,194
Trainable params: 15,523,878
Non-trainable params: 17,316
_________________________________________________________________
Epoch 1/400
5969/5969 - 23s - loss: 0.0084 - val_loss: 0.0034 - 23s/epoch - 4ms/step
Epoch 2/400
5969/5969 - 22s - loss: 0.0035 - val_loss: 0.0027 - 22s/epoch - 4ms/step
…
332/332 [==============================] - 1s 1ms/step
correlation 0.04214208504403431
cosine 0.03679039513097589
MAE: 0.05051137
RMSE: 0.3241467
r2: -5.816267715139475
RMSE zero-vector: 0.23411466903540806
Full AutoEncoder
Model: "model_9"
_________________________________________________________________
 Layer (type)                Output Shape              Param #   
=================================================================
 input_10 (InputLayer)       multiple                  0         
                                                                 
 dense_15 (Dense)            (None, 2528)              3197920   
                                                                 
 batch_normalization_15 (Bat  (None, 2528)             10112     
 chNormalization)                                                
                                                                 
 re_lu_15 (ReLU)             (None, 2528)              0         
                                                                 
 dense_16 (Dense)            (None, 1264)              3196656   
                                                                 
 batch_normalization_16 (Bat  (None, 1264)             5056      
 chNormalization)                                                
                                                                 
 re_lu_16 (ReLU)             (None, 1264)              0         
                                                                 
 bottleneck (Dense)          (None, 1074)              1358610   
                                                                 
 batch_normalization_17 (Bat  (None, 1074)             4296      
 chNormalization)                                                
                                                                 
 re_lu_17 (ReLU)             (None, 1074)              0         
                                                                 
 dense_17 (Dense)            (None, 1264)              1358800   
                                                                 
 batch_normalization_18 (Bat  (None, 1264)             5056      
 chNormalization)                                                
                                                                 
 re_lu_18 (ReLU)             (None, 1264)              0         
                                                                 
 dense_18 (Dense)            (None, 2528)              3197920   
                                                                 
 batch_normalization_19 (Bat  (None, 2528)             10112     
 chNormalization)                                                
                                                                 
 re_lu_19 (ReLU)             (None, 2528)              0         
                                                                 
 dense_19 (Dense)            (None, 1264)              3196656   
                                                                 
=================================================================
Total params: 15,541,194
Trainable params: 15,523,878
Non-trainable params: 17,316
_________________________________________________________________
Encoder
Model: "model_10"
_________________________________________________________________
 Layer (type)                Output Shape              Param #   
=================================================================
 input_11 (InputLayer)       [(None, 1264)]            0         
                                                                 
 input_10 (InputLayer)       multiple                  0         
                                                                 
 dense_15 (Dense)            (None, 2528)              3197920   
                                                                 
 batch_normalization_15 (Bat  (None, 2528)             10112     
 chNormalization)                                                
                                                                 
 re_lu_15 (ReLU)             (None, 2528)              0         
                                                                 
 dense_16 (Dense)            (None, 1264)              3196656   
                                                                 
 batch_normalization_16 (Bat  (None, 1264)             5056      
 chNormalization)                                                
                                                                 
 re_lu_16 (ReLU)             (None, 1264)              0         
                                                                 
 bottleneck (Dense)          (None, 1074)              1358610   
                                                                 
=================================================================
Total params: 7,768,354
Trainable params: 7,760,770
Non-trainable params: 7,584
_________________________________________________________________
Decoder
Model: "model_11"
_________________________________________________________________
 Layer (type)                Output Shape              Param #   
=================================================================
 input_12 (InputLayer)       [(None, 1074)]            0         
                                                                 
 batch_normalization_17 (Bat  (None, 1074)             4296      
 chNormalization)                                                
                                                                 
 re_lu_17 (ReLU)             (None, 1074)              0         
                                                                 
 dense_17 (Dense)            (None, 1264)              1358800   
                                                                 
 batch_normalization_18 (Bat  (None, 1264)             5056      
 chNormalization)                                                
                                                                 
 re_lu_18 (ReLU)             (None, 1264)              0         
                                                                 
 dense_18 (Dense)            (None, 2528)              3197920   
                                                                 
 batch_normalization_19 (Bat  (None, 2528)             10112     
 chNormalization)                                                
                                                                 
 re_lu_19 (ReLU)             (None, 2528)              0         
                                                                 
 dense_19 (Dense)            (None, 1264)              3196656   
                                                                 
=================================================================
Total params: 7,772,840
Trainable params: 7,763,108
Non-trainable params: 9,732
_________________________________________________________________
Model: "model_12"
_________________________________________________________________
 Layer (type)                Output Shape              Param #   
=================================================================
 input_13 (InputLayer)       [(None, 1264)]            0         
                                                                 
 dense_20 (Dense)            (None, 2528)              3197920   
                                                                 
 batch_normalization_20 (Bat  (None, 2528)             10112     
 chNormalization)                                                
                                                                 
 re_lu_20 (ReLU)             (None, 2528)              0         
                                                                 
 dense_21 (Dense)            (None, 1264)              3196656   
                                                                 
 batch_normalization_21 (Bat  (None, 1264)             5056      
 chNormalization)                                                
                                                                 
 re_lu_21 (ReLU)             (None, 1264)              0         
                                                                 
 bottleneck (Dense)          (None, 1011)              1278915   
                                                                 
 batch_normalization_22 (Bat  (None, 1011)             4044      
 chNormalization)                                                
                                                                 
 re_lu_22 (ReLU)             (None, 1011)              0         
                                                                 
 dense_22 (Dense)            (None, 1264)              1279168   
                                                                 
 batch_normalization_23 (Bat  (None, 1264)             5056      
 chNormalization)                                                
                                                                 
 re_lu_23 (ReLU)             (None, 1264)              0         
                                                                 
 dense_23 (Dense)            (None, 2528)              3197920   
                                                                 
 batch_normalization_24 (Bat  (None, 2528)             10112     
 chNormalization)                                                
                                                                 
 re_lu_24 (ReLU)             (None, 2528)              0         
                                                                 
 dense_24 (Dense)            (None, 1264)              3196656   
                                                                 
=================================================================
Total params: 15,381,615
Trainable params: 15,364,425
Non-trainable params: 17,190
_________________________________________________________________
Epoch 1/400
5969/5969 - 23s - loss: 0.0085 - val_loss: 0.0041 - 23s/epoch - 4ms/step
Epoch 2/400
5969/5969 - 22s - loss: 0.0039 - val_loss: 0.0025 - 22s/epoch - 4ms/step
…
332 [==============================] - 6s 1ms/step
correlation 0.040780510499307844
cosine 0.03685389063618345
MAE: 0.025849182
RMSE: 0.25974408
r2: -3.376822530263123
RMSE zero-vector: 0.23411466903540806
Full AutoEncoder
Model: "model_12"
_________________________________________________________________
 Layer (type)                Output Shape              Param #   
=================================================================
 input_13 (InputLayer)       multiple                  0         
                                                                 
 dense_20 (Dense)            (None, 2528)              3197920   
                                                                 
 batch_normalization_20 (Bat  (None, 2528)             10112     
 chNormalization)                                                
                                                                 
 re_lu_20 (ReLU)             (None, 2528)              0         
                                                                 
 dense_21 (Dense)            (None, 1264)              3196656   
                                                                 
 batch_normalization_21 (Bat  (None, 1264)             5056      
 chNormalization)                                                
                                                                 
 re_lu_21 (ReLU)             (None, 1264)              0         
                                                                 
 bottleneck (Dense)          (None, 1011)              1278915   
                                                                 
 batch_normalization_22 (Bat  (None, 1011)             4044      
 chNormalization)                                                
                                                                 
 re_lu_22 (ReLU)             (None, 1011)              0         
                                                                 
 dense_22 (Dense)            (None, 1264)              1279168   
                                                                 
 batch_normalization_23 (Bat  (None, 1264)             5056      
 chNormalization)                                                
                                                                 
 re_lu_23 (ReLU)             (None, 1264)              0         
                                                                 
 dense_23 (Dense)            (None, 2528)              3197920   
                                                                 
 batch_normalization_24 (Bat  (None, 2528)             10112     
 chNormalization)                                                
                                                                 
 re_lu_24 (ReLU)             (None, 2528)              0         
                                                                 
 dense_24 (Dense)            (None, 1264)              3196656   
                                                                 
=================================================================
Total params: 15,381,615
Trainable params: 15,364,425
Non-trainable params: 17,190
_________________________________________________________________
Encoder
Model: "model_13"
_________________________________________________________________
 Layer (type)                Output Shape              Param #   
=================================================================
 input_14 (InputLayer)       [(None, 1264)]            0         
                                                                 
 input_13 (InputLayer)       multiple                  0         
                                                                 
 dense_20 (Dense)            (None, 2528)              3197920   
                                                                 
 batch_normalization_20 (Bat  (None, 2528)             10112     
 chNormalization)                                                
                                                                 
 re_lu_20 (ReLU)             (None, 2528)              0         
                                                                 
 dense_21 (Dense)            (None, 1264)              3196656   
                                                                 
 batch_normalization_21 (Bat  (None, 1264)             5056      
 chNormalization)                                                
                                                                 
 re_lu_21 (ReLU)             (None, 1264)              0         
                                                                 
 bottleneck (Dense)          (None, 1011)              1278915   
                                                                 
=================================================================
Total params: 7,688,659
Trainable params: 7,681,075
Non-trainable params: 7,584
_________________________________________________________________
Decoder
Model: "model_14"
_________________________________________________________________
 Layer (type)                Output Shape              Param #   
=================================================================
 input_15 (InputLayer)       [(None, 1011)]            0         
                                                                 
 batch_normalization_22 (Bat  (None, 1011)             4044      
 chNormalization)                                                
                                                                 
 re_lu_22 (ReLU)             (None, 1011)              0         
                                                                 
 dense_22 (Dense)            (None, 1264)              1279168   
                                                                 
 batch_normalization_23 (Bat  (None, 1264)             5056      
 chNormalization)                                                
                                                                 
 re_lu_23 (ReLU)             (None, 1264)              0         
                                                                 
 dense_23 (Dense)            (None, 2528)              3197920   
                                                                 
 batch_normalization_24 (Bat  (None, 2528)             10112     
 chNormalization)                                                
                                                                 
 re_lu_24 (ReLU)             (None, 2528)              0         
                                                                 
 dense_24 (Dense)            (None, 1264)              3196656   
                                                                 
=================================================================
Total params: 7,692,956
Trainable params: 7,683,350
Non-trainable params: 9,606
_________________________________________________________________
Model: "model_15"
_________________________________________________________________
 Layer (type)                Output Shape              Param #   
=================================================================
 input_16 (InputLayer)       [(None, 1264)]            0         
                                                                 
 dense_25 (Dense)            (None, 2528)              3197920   
                                                                 
 batch_normalization_25 (Bat  (None, 2528)             10112     
 chNormalization)                                                
                                                                 
 re_lu_25 (ReLU)             (None, 2528)              0         
                                                                 
 dense_26 (Dense)            (None, 1264)              3196656   
                                                                 
 batch_normalization_26 (Bat  (None, 1264)             5056      
 chNormalization)                                                
                                                                 
 re_lu_26 (ReLU)             (None, 1264)              0         
                                                                 
 bottleneck (Dense)          (None, 947)               1197955   
                                                                 
 batch_normalization_27 (Bat  (None, 947)              3788      
 chNormalization)                                                
                                                                 
 re_lu_27 (ReLU)             (None, 947)               0         
                                                                 
 dense_27 (Dense)            (None, 1264)              1198272   
                                                                 
 batch_normalization_28 (Bat  (None, 1264)             5056      
 chNormalization)                                                
                                                                 
 re_lu_28 (ReLU)             (None, 1264)              0         
                                                                 
 dense_28 (Dense)            (None, 2528)              3197920   
                                                                 
 batch_normalization_29 (Bat  (None, 2528)             10112     
 chNormalization)                                                
                                                                 
 re_lu_29 (ReLU)             (None, 2528)              0         
                                                                 
 dense_29 (Dense)            (None, 1264)              3196656   
                                                                 
=================================================================
Total params: 15,219,503
Trainable params: 15,202,441
Non-trainable params: 17,062
_________________________________________________________________
Epoch 1/400
5969/5969 - 23s - loss: 0.0082 - val_loss: 0.0091 - 23s/epoch - 4ms/step
Epoch 2/400
5969/5969 - 22s - loss: 0.0037 - val_loss: 0.0038 - 22s/epoch - 4ms/step
…
32 [==============================] - 1s 1ms/step
correlation 0.043181440336268175
cosine 0.040244164174198654
MAE: 0.059011012
RMSE: 0.42970937
r2: -10.97888183997766
RMSE zero-vector: 0.23411466903540806
Full AutoEncoder
Model: "model_15"
_________________________________________________________________
 Layer (type)                Output Shape              Param #   
=================================================================
 input_16 (InputLayer)       multiple                  0         
                                                                 
 dense_25 (Dense)            (None, 2528)              3197920   
                                                                 
 batch_normalization_25 (Bat  (None, 2528)             10112     
 chNormalization)                                                
                                                                 
 re_lu_25 (ReLU)             (None, 2528)              0         
                                                                 
 dense_26 (Dense)            (None, 1264)              3196656   
                                                                 
 batch_normalization_26 (Bat  (None, 1264)             5056      
 chNormalization)                                                
                                                                 
 re_lu_26 (ReLU)             (None, 1264)              0         
                                                                 
 bottleneck (Dense)          (None, 947)               1197955   
                                                                 
 batch_normalization_27 (Bat  (None, 947)              3788      
 chNormalization)                                                
                                                                 
 re_lu_27 (ReLU)             (None, 947)               0         
                                                                 
 dense_27 (Dense)            (None, 1264)              1198272   
                                                                 
 batch_normalization_28 (Bat  (None, 1264)             5056      
 chNormalization)                                                
                                                                 
 re_lu_28 (ReLU)             (None, 1264)              0         
                                                                 
 dense_28 (Dense)            (None, 2528)              3197920   
                                                                 
 batch_normalization_29 (Bat  (None, 2528)             10112     
 chNormalization)                                                
                                                                 
 re_lu_29 (ReLU)             (None, 2528)              0         
                                                                 
 dense_29 (Dense)            (None, 1264)              3196656   
                                                                 
=================================================================
Total params: 15,219,503
Trainable params: 15,202,441
Non-trainable params: 17,062
_________________________________________________________________
Encoder
Model: "model_16"
_________________________________________________________________
 Layer (type)                Output Shape              Param #   
=================================================================
 input_17 (InputLayer)       [(None, 1264)]            0         
                                                                 
 input_16 (InputLayer)       multiple                  0         
                                                                 
 dense_25 (Dense)            (None, 2528)              3197920   
                                                                 
 batch_normalization_25 (Bat  (None, 2528)             10112     
 chNormalization)                                                
                                                                 
 re_lu_25 (ReLU)             (None, 2528)              0         
                                                                 
 dense_26 (Dense)            (None, 1264)              3196656   
                                                                 
 batch_normalization_26 (Bat  (None, 1264)             5056      
 chNormalization)                                                
                                                                 
 re_lu_26 (ReLU)             (None, 1264)              0         
                                                                 
 bottleneck (Dense)          (None, 947)               1197955   
                                                                 
=================================================================
Total params: 7,607,699
Trainable params: 7,600,115
Non-trainable params: 7,584
_________________________________________________________________
Decoder
Model: "model_17"
_________________________________________________________________
 Layer (type)                Output Shape              Param #   
=================================================================
 input_18 (InputLayer)       [(None, 947)]             0         
                                                                 
 batch_normalization_27 (Bat  (None, 947)              3788      
 chNormalization)                                                
                                                                 
 re_lu_27 (ReLU)             (None, 947)               0         
                                                                 
 dense_27 (Dense)            (None, 1264)              1198272   
                                                                 
 batch_normalization_28 (Bat  (None, 1264)             5056      
 chNormalization)                                                
                                                                 
 re_lu_28 (ReLU)             (None, 1264)              0         
                                                                 
 dense_28 (Dense)            (None, 2528)              3197920   
                                                                 
 batch_normalization_29 (Bat  (None, 2528)             10112     
 chNormalization)                                                
                                                                 
 re_lu_29 (ReLU)             (None, 2528)              0         
                                                                 
 dense_29 (Dense)            (None, 1264)              3196656   
                                                                 
=================================================================
Total params: 7,611,804
Trainable params: 7,602,326
Non-trainable params: 9,478
_________________________________________________________________
Model: "model_18"
_________________________________________________________________
 Layer (type)                Output Shape              Param #   
=================================================================
 input_19 (InputLayer)       [(None, 1264)]            0         
                                                                 
 dense_30 (Dense)            (None, 2528)              3197920   
                                                                 
 batch_normalization_30 (Bat  (None, 2528)             10112     
 chNormalization)                                                
                                                                 
 re_lu_30 (ReLU)             (None, 2528)              0         
                                                                 
 dense_31 (Dense)            (None, 1264)              3196656   
                                                                 
 batch_normalization_31 (Bat  (None, 1264)             5056      
 chNormalization)                                                
                                                                 
 re_lu_31 (ReLU)             (None, 1264)              0         
                                                                 
 bottleneck (Dense)          (None, 884)               1118260   
                                                                 
 batch_normalization_32 (Bat  (None, 884)              3536      
 chNormalization)                                                
                                                                 
 re_lu_32 (ReLU)             (None, 884)               0         
                                                                 
 dense_32 (Dense)            (None, 1264)              1118640   
                                                                 
 batch_normalization_33 (Bat  (None, 1264)             5056      
 chNormalization)                                                
                                                                 
 re_lu_33 (ReLU)             (None, 1264)              0         
                                                                 
 dense_33 (Dense)            (None, 2528)              3197920   
                                                                 
 batch_normalization_34 (Bat  (None, 2528)             10112     
 chNormalization)                                                
                                                                 
 re_lu_34 (ReLU)             (None, 2528)              0         
                                                                 
 dense_34 (Dense)            (None, 1264)              3196656   
                                                                 
=================================================================
Total params: 15,059,924
Trainable params: 15,042,988
Non-trainable params: 16,936
_________________________________________________________________
Epoch 1/400
5969/5969 - 23s - loss: 0.0085 - val_loss: 0.0047 - 23s/epoch - 4ms/step
Epoch 2/400
5969/5969 - 22s - loss: 0.0041 - val_loss: 0.0030 - 22s/epoch - 4ms/step
…
332/332 [==============================] - 0s 1ms/step
correlation 0.04906720333461307
cosine 0.04376359465905868
MAE: 0.11199809
RMSE: 0.823947
r2: -43.04181738611815
RMSE zero-vector: 0.23411466903540806
Full AutoEncoder
Model: "model_18"
_________________________________________________________________
 Layer (type)                Output Shape              Param #   
=================================================================
 input_19 (InputLayer)       multiple                  0         
                                                                 
 dense_30 (Dense)            (None, 2528)              3197920   
                                                                 
 batch_normalization_30 (Bat  (None, 2528)             10112     
 chNormalization)                                                
                                                                 
 re_lu_30 (ReLU)             (None, 2528)              0         
                                                                 
 dense_31 (Dense)            (None, 1264)              3196656   
                                                                 
 batch_normalization_31 (Bat  (None, 1264)             5056      
 chNormalization)                                                
                                                                 
 re_lu_31 (ReLU)             (None, 1264)              0         
                                                                 
 bottleneck (Dense)          (None, 884)               1118260   
                                                                 
 batch_normalization_32 (Bat  (None, 884)              3536      
 chNormalization)                                                
                                                                 
 re_lu_32 (ReLU)             (None, 884)               0         
                                                                 
 dense_32 (Dense)            (None, 1264)              1118640   
                                                                 
 batch_normalization_33 (Bat  (None, 1264)             5056      
 chNormalization)                                                
                                                                 
 re_lu_33 (ReLU)             (None, 1264)              0         
                                                                 
 dense_33 (Dense)            (None, 2528)              3197920   
                                                                 
 batch_normalization_34 (Bat  (None, 2528)             10112     
 chNormalization)                                                
                                                                 
 re_lu_34 (ReLU)             (None, 2528)              0         
                                                                 
 dense_34 (Dense)            (None, 1264)              3196656   
                                                                 
=================================================================
Total params: 15,059,924
Trainable params: 15,042,988
Non-trainable params: 16,936
_________________________________________________________________
Encoder
Model: "model_19"
_________________________________________________________________
 Layer (type)                Output Shape              Param #   
=================================================================
 input_20 (InputLayer)       [(None, 1264)]            0         
                                                                 
 input_19 (InputLayer)       multiple                  0         
                                                                 
 dense_30 (Dense)            (None, 2528)              3197920   
                                                                 
 batch_normalization_30 (Bat  (None, 2528)             10112     
 chNormalization)                                                
                                                                 
 re_lu_30 (ReLU)             (None, 2528)              0         
                                                                 
 dense_31 (Dense)            (None, 1264)              3196656   
                                                                 
 batch_normalization_31 (Bat  (None, 1264)             5056      
 chNormalization)                                                
                                                                 
 re_lu_31 (ReLU)             (None, 1264)              0         
                                                                 
 bottleneck (Dense)          (None, 884)               1118260   
                                                                 
=================================================================
Total params: 7,528,004
Trainable params: 7,520,420
Non-trainable params: 7,584
_________________________________________________________________
Decoder
Model: "model_20"
_________________________________________________________________
 Layer (type)                Output Shape              Param #   
=================================================================
 input_21 (InputLayer)       [(None, 884)]             0         
                                                                 
 batch_normalization_32 (Bat  (None, 884)              3536      
 chNormalization)                                                
                                                                 
 re_lu_32 (ReLU)             (None, 884)               0         
                                                                 
 dense_32 (Dense)            (None, 1264)              1118640   
                                                                 
 batch_normalization_33 (Bat  (None, 1264)             5056      
 chNormalization)                                                
                                                                 
 re_lu_33 (ReLU)             (None, 1264)              0         
                                                                 
 dense_33 (Dense)            (None, 2528)              3197920   
                                                                 
 batch_normalization_34 (Bat  (None, 2528)             10112     
 chNormalization)                                                
                                                                 
 re_lu_34 (ReLU)             (None, 2528)              0         
                                                                 
 dense_34 (Dense)            (None, 1264)              3196656   
                                                                 
=================================================================
Total params: 7,531,920
Trainable params: 7,522,568
Non-trainable params: 9,352
_________________________________________________________________
Model: "model_21"
_________________________________________________________________
 Layer (type)                Output Shape              Param #   
=================================================================
 input_22 (InputLayer)       [(None, 1264)]            0         
                                                                 
 dense_35 (Dense)            (None, 2528)              3197920   
                                                                 
 batch_normalization_35 (Bat  (None, 2528)             10112     
 chNormalization)                                                
                                                                 
 re_lu_35 (ReLU)             (None, 2528)              0         
                                                                 
 dense_36 (Dense)            (None, 1264)              3196656   
                                                                 
 batch_normalization_36 (Bat  (None, 1264)             5056      
 chNormalization)                                                
                                                                 
 re_lu_36 (ReLU)             (None, 1264)              0         
                                                                 
 bottleneck (Dense)          (None, 821)               1038565   
                                                                 
 batch_normalization_37 (Bat  (None, 821)              3284      
 chNormalization)                                                
                                                                 
 re_lu_37 (ReLU)             (None, 821)               0         
                                                                 
 dense_37 (Dense)            (None, 1264)              1039008   
                                                                 
 batch_normalization_38 (Bat  (None, 1264)             5056      
 chNormalization)                                                
                                                                 
 re_lu_38 (ReLU)             (None, 1264)              0         
                                                                 
 dense_38 (Dense)            (None, 2528)              3197920   
                                                                 
 batch_normalization_39 (Bat  (None, 2528)             10112     
 chNormalization)                                                
                                                                 
 re_lu_39 (ReLU)             (None, 2528)              0         
                                                                 
 dense_39 (Dense)            (None, 1264)              3196656   
                                                                 
=================================================================
Total params: 14,900,345
Trainable params: 14,883,535
Non-trainable params: 16,810
_________________________________________________________________
Epoch 1/400
5969/5969 - 23s - loss: 0.0084 - val_loss: 0.0039 - 23s/epoch - 4ms/step
Epoch 2/400
5969/5969 - 22s - loss: 0.0037 - val_loss: 0.0028 - 22s/epoch - 4ms/step
…
332/332 [==============================] - 1s 1ms/step
correlation 0.07678193480091643
cosine 0.07539857534930874
MAE: 0.142774
RMSE: 0.9520434
r2: -57.79853085029036
RMSE zero-vector: 0.23411466903540806
Full AutoEncoder
Model: "model_21"
_________________________________________________________________
 Layer (type)                Output Shape              Param #   
=================================================================
 input_22 (InputLayer)       multiple                  0         
                                                                 
 dense_35 (Dense)            (None, 2528)              3197920   
                                                                 
 batch_normalization_35 (Bat  (None, 2528)             10112     
 chNormalization)                                                
                                                                 
 re_lu_35 (ReLU)             (None, 2528)              0         
                                                                 
 dense_36 (Dense)            (None, 1264)              3196656   
                                                                 
 batch_normalization_36 (Bat  (None, 1264)             5056      
 chNormalization)                                                
                                                                 
 re_lu_36 (ReLU)             (None, 1264)              0         
                                                                 
 bottleneck (Dense)          (None, 821)               1038565   
                                                                 
 batch_normalization_37 (Bat  (None, 821)              3284      
 chNormalization)                                                
                                                                 
 re_lu_37 (ReLU)             (None, 821)               0         
                                                                 
 dense_37 (Dense)            (None, 1264)              1039008   
                                                                 
 batch_normalization_38 (Bat  (None, 1264)             5056      
 chNormalization)                                                
                                                                 
 re_lu_38 (ReLU)             (None, 1264)              0         
                                                                 
 dense_38 (Dense)            (None, 2528)              3197920   
                                                                 
 batch_normalization_39 (Bat  (None, 2528)             10112     
 chNormalization)                                                
                                                                 
 re_lu_39 (ReLU)             (None, 2528)              0         
                                                                 
 dense_39 (Dense)            (None, 1264)              3196656   
                                                                 
=================================================================
Total params: 14,900,345
Trainable params: 14,883,535
Non-trainable params: 16,810
_________________________________________________________________
Encoder
Model: "model_22"
_________________________________________________________________
 Layer (type)                Output Shape              Param #   
=================================================================
 input_23 (InputLayer)       [(None, 1264)]            0         
                                                                 
 input_22 (InputLayer)       multiple                  0         
                                                                 
 dense_35 (Dense)            (None, 2528)              3197920   
                                                                 
 batch_normalization_35 (Bat  (None, 2528)             10112     
 chNormalization)                                                
                                                                 
 re_lu_35 (ReLU)             (None, 2528)              0         
                                                                 
 dense_36 (Dense)            (None, 1264)              3196656   
                                                                 
 batch_normalization_36 (Bat  (None, 1264)             5056      
 chNormalization)                                                
                                                                 
 re_lu_36 (ReLU)             (None, 1264)              0         
                                                                 
 bottleneck (Dense)          (None, 821)               1038565   
                                                                 
=================================================================
Total params: 7,448,309
Trainable params: 7,440,725
Non-trainable params: 7,584
_________________________________________________________________
Decoder
Model: "model_23"
_________________________________________________________________
 Layer (type)                Output Shape              Param #   
=================================================================
 input_24 (InputLayer)       [(None, 821)]             0         
                                                                 
 batch_normalization_37 (Bat  (None, 821)              3284      
 chNormalization)                                                
                                                                 
 re_lu_37 (ReLU)             (None, 821)               0         
                                                                 
 dense_37 (Dense)            (None, 1264)              1039008   
                                                                 
 batch_normalization_38 (Bat  (None, 1264)             5056      
 chNormalization)                                                
                                                                 
 re_lu_38 (ReLU)             (None, 1264)              0         
                                                                 
 dense_38 (Dense)            (None, 2528)              3197920   
                                                                 
 batch_normalization_39 (Bat  (None, 2528)             10112     
 chNormalization)                                                
                                                                 
 re_lu_39 (ReLU)             (None, 2528)              0         
                                                                 
 dense_39 (Dense)            (None, 1264)              3196656   
                                                                 
=================================================================
Total params: 7,452,036
Trainable params: 7,442,810
Non-trainable params: 9,226
_________________________________________________________________
Model: "model_24"
_________________________________________________________________
 Layer (type)                Output Shape              Param #   
=================================================================
 input_25 (InputLayer)       [(None, 1264)]            0         
                                                                 
 dense_40 (Dense)            (None, 2528)              3197920   
                                                                 
 batch_normalization_40 (Bat  (None, 2528)             10112     
 chNormalization)                                                
                                                                 
 re_lu_40 (ReLU)             (None, 2528)              0         
                                                                 
 dense_41 (Dense)            (None, 1264)              3196656   
                                                                 
 batch_normalization_41 (Bat  (None, 1264)             5056      
 chNormalization)                                                
                                                                 
 re_lu_41 (ReLU)             (None, 1264)              0         
                                                                 
 bottleneck (Dense)          (None, 758)               958870    
                                                                 
 batch_normalization_42 (Bat  (None, 758)              3032      
 chNormalization)                                                
                                                                 
 re_lu_42 (ReLU)             (None, 758)               0         
                                                                 
 dense_42 (Dense)            (None, 1264)              959376    
                                                                 
 batch_normalization_43 (Bat  (None, 1264)             5056      
 chNormalization)                                                
                                                                 
 re_lu_43 (ReLU)             (None, 1264)              0         
                                                                 
 dense_43 (Dense)            (None, 2528)              3197920   
                                                                 
 batch_normalization_44 (Bat  (None, 2528)             10112     
 chNormalization)                                                
                                                                 
 re_lu_44 (ReLU)             (None, 2528)              0         
                                                                 
 dense_44 (Dense)            (None, 1264)              3196656   
                                                                 
=================================================================
Total params: 14,740,766
Trainable params: 14,724,082
Non-trainable params: 16,684
_________________________________________________________________
Epoch 1/400
5969/5969 - 23s - loss: 0.0084 - val_loss: 0.0051 - 23s/epoch - 4ms/step
Epoch 2/400
5969/5969 - 22s - loss: 0.0039 - val_loss: 0.0028 - 22s/epoch - 4ms/step
…
2/332 [==============================] - 1s 1ms/step
correlation 0.04110174650334094
cosine 0.036480840030163136
MAE: 0.08263142
RMSE: 0.5934789
r2: -21.84959561336266
RMSE zero-vector: 0.23411466903540806
Full AutoEncoder
Model: "model_24"
_________________________________________________________________
 Layer (type)                Output Shape              Param #   
=================================================================
 input_25 (InputLayer)       multiple                  0         
                                                                 
 dense_40 (Dense)            (None, 2528)              3197920   
                                                                 
 batch_normalization_40 (Bat  (None, 2528)             10112     
 chNormalization)                                                
                                                                 
 re_lu_40 (ReLU)             (None, 2528)              0         
                                                                 
 dense_41 (Dense)            (None, 1264)              3196656   
                                                                 
 batch_normalization_41 (Bat  (None, 1264)             5056      
 chNormalization)                                                
                                                                 
 re_lu_41 (ReLU)             (None, 1264)              0         
                                                                 
 bottleneck (Dense)          (None, 758)               958870    
                                                                 
 batch_normalization_42 (Bat  (None, 758)              3032      
 chNormalization)                                                
                                                                 
 re_lu_42 (ReLU)             (None, 758)               0         
                                                                 
 dense_42 (Dense)            (None, 1264)              959376    
                                                                 
 batch_normalization_43 (Bat  (None, 1264)             5056      
 chNormalization)                                                
                                                                 
 re_lu_43 (ReLU)             (None, 1264)              0         
                                                                 
 dense_43 (Dense)            (None, 2528)              3197920   
                                                                 
 batch_normalization_44 (Bat  (None, 2528)             10112     
 chNormalization)                                                
                                                                 
 re_lu_44 (ReLU)             (None, 2528)              0         
                                                                 
 dense_44 (Dense)            (None, 1264)              3196656   
                                                                 
=================================================================
Total params: 14,740,766
Trainable params: 14,724,082
Non-trainable params: 16,684
_________________________________________________________________
Encoder
Model: "model_25"
_________________________________________________________________
 Layer (type)                Output Shape              Param #   
=================================================================
 input_26 (InputLayer)       [(None, 1264)]            0         
                                                                 
 input_25 (InputLayer)       multiple                  0         
                                                                 
 dense_40 (Dense)            (None, 2528)              3197920   
                                                                 
 batch_normalization_40 (Bat  (None, 2528)             10112     
 chNormalization)                                                
                                                                 
 re_lu_40 (ReLU)             (None, 2528)              0         
                                                                 
 dense_41 (Dense)            (None, 1264)              3196656   
                                                                 
 batch_normalization_41 (Bat  (None, 1264)             5056      
 chNormalization)                                                
                                                                 
 re_lu_41 (ReLU)             (None, 1264)              0         
                                                                 
 bottleneck (Dense)          (None, 758)               958870    
                                                                 
=================================================================
Total params: 7,368,614
Trainable params: 7,361,030
Non-trainable params: 7,584
_________________________________________________________________
Decoder
Model: "model_26"
_________________________________________________________________
 Layer (type)                Output Shape              Param #   
=================================================================
 input_27 (InputLayer)       [(None, 758)]             0         
                                                                 
 batch_normalization_42 (Bat  (None, 758)              3032      
 chNormalization)                                                
                                                                 
 re_lu_42 (ReLU)             (None, 758)               0         
                                                                 
 dense_42 (Dense)            (None, 1264)              959376    
                                                                 
 batch_normalization_43 (Bat  (None, 1264)             5056      
 chNormalization)                                                
                                                                 
 re_lu_43 (ReLU)             (None, 1264)              0         
                                                                 
 dense_43 (Dense)            (None, 2528)              3197920   
                                                                 
 batch_normalization_44 (Bat  (None, 2528)             10112     
 chNormalization)                                                
                                                                 
 re_lu_44 (ReLU)             (None, 2528)              0         
                                                                 
 dense_44 (Dense)            (None, 1264)              3196656   
                                                                 
=================================================================
Total params: 7,372,152
Trainable params: 7,363,052
Non-trainable params: 9,100
_________________________________________________________________
Model: "model_27"
_________________________________________________________________
 Layer (type)                Output Shape              Param #   
=================================================================
 input_28 (InputLayer)       [(None, 1264)]            0         
                                                                 
 dense_45 (Dense)            (None, 2528)              3197920   
                                                                 
 batch_normalization_45 (Bat  (None, 2528)             10112     
 chNormalization)                                                
                                                                 
 re_lu_45 (ReLU)             (None, 2528)              0         
                                                                 
 dense_46 (Dense)            (None, 1264)              3196656   
                                                                 
 batch_normalization_46 (Bat  (None, 1264)             5056      
 chNormalization)                                                
                                                                 
 re_lu_46 (ReLU)             (None, 1264)              0         
                                                                 
 bottleneck (Dense)          (None, 695)               879175    
                                                                 
 batch_normalization_47 (Bat  (None, 695)              2780      
 chNormalization)                                                
                                                                 
 re_lu_47 (ReLU)             (None, 695)               0         
                                                                 
 dense_47 (Dense)            (None, 1264)              879744    
                                                                 
 batch_normalization_48 (Bat  (None, 1264)             5056      
 chNormalization)                                                
                                                                 
 re_lu_48 (ReLU)             (None, 1264)              0         
                                                                 
 dense_48 (Dense)            (None, 2528)              3197920   
                                                                 
 batch_normalization_49 (Bat  (None, 2528)             10112     
 chNormalization)                                                
                                                                 
 re_lu_49 (ReLU)             (None, 2528)              0         
                                                                 
 dense_49 (Dense)            (None, 1264)              3196656   
                                                                 
=================================================================
Total params: 14,581,187
Trainable params: 14,564,629
Non-trainable params: 16,558
_________________________________________________________________
Epoch 1/400
5969/5969 - 23s - loss: 0.0099 - val_loss: 0.0082 - 23s/epoch - 4ms/step
Epoch 2/400
5969/5969 - 22s - loss: 0.0059 - val_loss: 0.0035 - 22s/epoch - 4ms/step
…
2 [==============================] - 1s 1ms/step
correlation 0.029869149546105592
cosine 0.028037389701732904
MAE: 0.031482786
RMSE: 0.20052432
r2: -1.6081194248214352
RMSE zero-vector: 0.23411466903540806
Full AutoEncoder
Model: "model_27"
_________________________________________________________________
 Layer (type)                Output Shape              Param #   
=================================================================
 input_28 (InputLayer)       multiple                  0         
                                                                 
 dense_45 (Dense)            (None, 2528)              3197920   
                                                                 
 batch_normalization_45 (Bat  (None, 2528)             10112     
 chNormalization)                                                
                                                                 
 re_lu_45 (ReLU)             (None, 2528)              0         
                                                                 
 dense_46 (Dense)            (None, 1264)              3196656   
                                                                 
 batch_normalization_46 (Bat  (None, 1264)             5056      
 chNormalization)                                                
                                                                 
 re_lu_46 (ReLU)             (None, 1264)              0         
                                                                 
 bottleneck (Dense)          (None, 695)               879175    
                                                                 
 batch_normalization_47 (Bat  (None, 695)              2780      
 chNormalization)                                                
                                                                 
 re_lu_47 (ReLU)             (None, 695)               0         
                                                                 
 dense_47 (Dense)            (None, 1264)              879744    
                                                                 
 batch_normalization_48 (Bat  (None, 1264)             5056      
 chNormalization)                                                
                                                                 
 re_lu_48 (ReLU)             (None, 1264)              0         
                                                                 
 dense_48 (Dense)            (None, 2528)              3197920   
                                                                 
 batch_normalization_49 (Bat  (None, 2528)             10112     
 chNormalization)                                                
                                                                 
 re_lu_49 (ReLU)             (None, 2528)              0         
                                                                 
 dense_49 (Dense)            (None, 1264)              3196656   
                                                                 
=================================================================
Total params: 14,581,187
Trainable params: 14,564,629
Non-trainable params: 16,558
_________________________________________________________________
Encoder
Model: "model_28"
_________________________________________________________________
 Layer (type)                Output Shape              Param #   
=================================================================
 input_29 (InputLayer)       [(None, 1264)]            0         
                                                                 
 input_28 (InputLayer)       multiple                  0         
                                                                 
 dense_45 (Dense)            (None, 2528)              3197920   
                                                                 
 batch_normalization_45 (Bat  (None, 2528)             10112     
 chNormalization)                                                
                                                                 
 re_lu_45 (ReLU)             (None, 2528)              0         
                                                                 
 dense_46 (Dense)            (None, 1264)              3196656   
                                                                 
 batch_normalization_46 (Bat  (None, 1264)             5056      
 chNormalization)                                                
                                                                 
 re_lu_46 (ReLU)             (None, 1264)              0         
                                                                 
 bottleneck (Dense)          (None, 695)               879175    
                                                                 
=================================================================
Total params: 7,288,919
Trainable params: 7,281,335
Non-trainable params: 7,584
_________________________________________________________________
Decoder
Model: "model_29"
_________________________________________________________________
 Layer (type)                Output Shape              Param #   
=================================================================
 input_30 (InputLayer)       [(None, 695)]             0         
                                                                 
 batch_normalization_47 (Bat  (None, 695)              2780      
 chNormalization)                                                
                                                                 
 re_lu_47 (ReLU)             (None, 695)               0         
                                                                 
 dense_47 (Dense)            (None, 1264)              879744    
                                                                 
 batch_normalization_48 (Bat  (None, 1264)             5056      
 chNormalization)                                                
                                                                 
 re_lu_48 (ReLU)             (None, 1264)              0         
                                                                 
 dense_48 (Dense)            (None, 2528)              3197920   
                                                                 
 batch_normalization_49 (Bat  (None, 2528)             10112     
 chNormalization)                                                
                                                                 
 re_lu_49 (ReLU)             (None, 2528)              0         
                                                                 
 dense_49 (Dense)            (None, 1264)              3196656   
                                                                 
=================================================================
Total params: 7,292,268
Trainable params: 7,283,294
Non-trainable params: 8,974
_________________________________________________________________
Model: "model_30"
_________________________________________________________________
 Layer (type)                Output Shape              Param #   
=================================================================
 input_31 (InputLayer)       [(None, 1264)]            0         
                                                                 
 dense_50 (Dense)            (None, 2528)              3197920   
                                                                 
 batch_normalization_50 (Bat  (None, 2528)             10112     
 chNormalization)                                                
                                                                 
 re_lu_50 (ReLU)             (None, 2528)              0         
                                                                 
 dense_51 (Dense)            (None, 1264)              3196656   
                                                                 
 batch_normalization_51 (Bat  (None, 1264)             5056      
 chNormalization)                                                
                                                                 
 re_lu_51 (ReLU)             (None, 1264)              0         
                                                                 
 bottleneck (Dense)          (None, 631)               798215    
                                                                 
 batch_normalization_52 (Bat  (None, 631)              2524      
 chNormalization)                                                
                                                                 
 re_lu_52 (ReLU)             (None, 631)               0         
                                                                 
 dense_52 (Dense)            (None, 1264)              798848    
                                                                 
 batch_normalization_53 (Bat  (None, 1264)             5056      
 chNormalization)                                                
                                                                 
 re_lu_53 (ReLU)             (None, 1264)              0         
                                                                 
 dense_53 (Dense)            (None, 2528)              3197920   
                                                                 
 batch_normalization_54 (Bat  (None, 2528)             10112     
 chNormalization)                                                
                                                                 
 re_lu_54 (ReLU)             (None, 2528)              0         
                                                                 
 dense_54 (Dense)            (None, 1264)              3196656   
                                                                 
=================================================================
Total params: 14,419,075
Trainable params: 14,402,645
Non-trainable params: 16,430
_________________________________________________________________
Epoch 1/400
5969/5969 - 23s - loss: 0.0083 - val_loss: 0.0041 - 23s/epoch - 4ms/step
Epoch 2/400
5969/5969 - 21s - loss: 0.0043 - val_loss: 0.0035 - 21s/epoch - 4ms/step
…
332/332 [==============================] - 1s 1ms/step
correlation 0.05134705815160955
cosine 0.05341697877612324
MAE: 0.1315114
RMSE: 1.1394361
r2: -83.226148469875
RMSE zero-vector: 0.23411466903540806
Full AutoEncoder
Model: "model_30"
_________________________________________________________________
 Layer (type)                Output Shape              Param #   
=================================================================
 input_31 (InputLayer)       multiple                  0         
                                                                 
 dense_50 (Dense)            (None, 2528)              3197920   
                                                                 
 batch_normalization_50 (Bat  (None, 2528)             10112     
 chNormalization)                                                
                                                                 
 re_lu_50 (ReLU)             (None, 2528)              0         
                                                                 
 dense_51 (Dense)            (None, 1264)              3196656   
                                                                 
 batch_normalization_51 (Bat  (None, 1264)             5056      
 chNormalization)                                                
                                                                 
 re_lu_51 (ReLU)             (None, 1264)              0         
                                                                 
 bottleneck (Dense)          (None, 631)               798215    
                                                                 
 batch_normalization_52 (Bat  (None, 631)              2524      
 chNormalization)                                                
                                                                 
 re_lu_52 (ReLU)             (None, 631)               0         
                                                                 
 dense_52 (Dense)            (None, 1264)              798848    
                                                                 
 batch_normalization_53 (Bat  (None, 1264)             5056      
 chNormalization)                                                
                                                                 
 re_lu_53 (ReLU)             (None, 1264)              0         
                                                                 
 dense_53 (Dense)            (None, 2528)              3197920   
                                                                 
 batch_normalization_54 (Bat  (None, 2528)             10112     
 chNormalization)                                                
                                                                 
 re_lu_54 (ReLU)             (None, 2528)              0         
                                                                 
 dense_54 (Dense)            (None, 1264)              3196656   
                                                                 
=================================================================
Total params: 14,419,075
Trainable params: 14,402,645
Non-trainable params: 16,430
_________________________________________________________________
Encoder
Model: "model_31"
_________________________________________________________________
 Layer (type)                Output Shape              Param #   
=================================================================
 input_32 (InputLayer)       [(None, 1264)]            0         
                                                                 
 input_31 (InputLayer)       multiple                  0         
                                                                 
 dense_50 (Dense)            (None, 2528)              3197920   
                                                                 
 batch_normalization_50 (Bat  (None, 2528)             10112     
 chNormalization)                                                
                                                                 
 re_lu_50 (ReLU)             (None, 2528)              0         
                                                                 
 dense_51 (Dense)            (None, 1264)              3196656   
                                                                 
 batch_normalization_51 (Bat  (None, 1264)             5056      
 chNormalization)                                                
                                                                 
 re_lu_51 (ReLU)             (None, 1264)              0         
                                                                 
 bottleneck (Dense)          (None, 631)               798215    
                                                                 
=================================================================
Total params: 7,207,959
Trainable params: 7,200,375
Non-trainable params: 7,584
_________________________________________________________________
Decoder
Model: "model_32"
_________________________________________________________________
 Layer (type)                Output Shape              Param #   
=================================================================
 input_33 (InputLayer)       [(None, 631)]             0         
                                                                 
 batch_normalization_52 (Bat  (None, 631)              2524      
 chNormalization)                                                
                                                                 
 re_lu_52 (ReLU)             (None, 631)               0         
                                                                 
 dense_52 (Dense)            (None, 1264)              798848    
                                                                 
 batch_normalization_53 (Bat  (None, 1264)             5056      
 chNormalization)                                                
                                                                 
 re_lu_53 (ReLU)             (None, 1264)              0         
                                                                 
 dense_53 (Dense)            (None, 2528)              3197920   
                                                                 
 batch_normalization_54 (Bat  (None, 2528)             10112     
 chNormalization)                                                
                                                                 
 re_lu_54 (ReLU)             (None, 2528)              0         
                                                                 
 dense_54 (Dense)            (None, 1264)              3196656   
                                                                 
=================================================================
Total params: 7,211,116
Trainable params: 7,202,270
Non-trainable params: 8,846
_________________________________________________________________
Model: "model_33"
_________________________________________________________________
 Layer (type)                Output Shape              Param #   
=================================================================
 input_34 (InputLayer)       [(None, 1264)]            0         
                                                                 
 dense_55 (Dense)            (None, 2528)              3197920   
                                                                 
 batch_normalization_55 (Bat  (None, 2528)             10112     
 chNormalization)                                                
                                                                 
 re_lu_55 (ReLU)             (None, 2528)              0         
                                                                 
 dense_56 (Dense)            (None, 1264)              3196656   
                                                                 
 batch_normalization_56 (Bat  (None, 1264)             5056      
 chNormalization)                                                
                                                                 
 re_lu_56 (ReLU)             (None, 1264)              0         
                                                                 
 bottleneck (Dense)          (None, 568)               718520    
                                                                 
 batch_normalization_57 (Bat  (None, 568)              2272      
 chNormalization)                                                
                                                                 
 re_lu_57 (ReLU)             (None, 568)               0         
                                                                 
 dense_57 (Dense)            (None, 1264)              719216    
                                                                 
 batch_normalization_58 (Bat  (None, 1264)             5056      
 chNormalization)                                                
                                                                 
 re_lu_58 (ReLU)             (None, 1264)              0         
                                                                 
 dense_58 (Dense)            (None, 2528)              3197920   
                                                                 
 batch_normalization_59 (Bat  (None, 2528)             10112     
 chNormalization)                                                
                                                                 
 re_lu_59 (ReLU)             (None, 2528)              0         
                                                                 
 dense_59 (Dense)            (None, 1264)              3196656   
                                                                 
=================================================================
Total params: 14,259,496
Trainable params: 14,243,192
Non-trainable params: 16,304
_________________________________________________________________
Epoch 1/400
5969/5969 - 23s - loss: 0.0086 - val_loss: 0.0039 - 23s/epoch - 4ms/step
Epoch 2/400
5969/5969 - 21s - loss: 0.0038 - val_loss: 0.0026 - 21s/epoch - 4ms/step
…
332 [==============================] - 3s 1ms/step
correlation 0.049442718247244284
cosine 0.04689360516421242
MAE: 0.031070491
RMSE: 0.48822194
r2: -14.46310649105723
RMSE zero-vector: 0.23411466903540806
Full AutoEncoder
Model: "model_33"
_________________________________________________________________
 Layer (type)                Output Shape              Param #   
=================================================================
 input_34 (InputLayer)       multiple                  0         
                                                                 
 dense_55 (Dense)            (None, 2528)              3197920   
                                                                 
 batch_normalization_55 (Bat  (None, 2528)             10112     
 chNormalization)                                                
                                                                 
 re_lu_55 (ReLU)             (None, 2528)              0         
                                                                 
 dense_56 (Dense)            (None, 1264)              3196656   
                                                                 
 batch_normalization_56 (Bat  (None, 1264)             5056      
 chNormalization)                                                
                                                                 
 re_lu_56 (ReLU)             (None, 1264)              0         
                                                                 
 bottleneck (Dense)          (None, 568)               718520    
                                                                 
 batch_normalization_57 (Bat  (None, 568)              2272      
 chNormalization)                                                
                                                                 
 re_lu_57 (ReLU)             (None, 568)               0         
                                                                 
 dense_57 (Dense)            (None, 1264)              719216    
                                                                 
 batch_normalization_58 (Bat  (None, 1264)             5056      
 chNormalization)                                                
                                                                 
 re_lu_58 (ReLU)             (None, 1264)              0         
                                                                 
 dense_58 (Dense)            (None, 2528)              3197920   
                                                                 
 batch_normalization_59 (Bat  (None, 2528)             10112     
 chNormalization)                                                
                                                                 
 re_lu_59 (ReLU)             (None, 2528)              0         
                                                                 
 dense_59 (Dense)            (None, 1264)              3196656   
                                                                 
=================================================================
Total params: 14,259,496
Trainable params: 14,243,192
Non-trainable params: 16,304
_________________________________________________________________
Encoder
Model: "model_34"
_________________________________________________________________
 Layer (type)                Output Shape              Param #   
=================================================================
 input_35 (InputLayer)       [(None, 1264)]            0         
                                                                 
 input_34 (InputLayer)       multiple                  0         
                                                                 
 dense_55 (Dense)            (None, 2528)              3197920   
                                                                 
 batch_normalization_55 (Bat  (None, 2528)             10112     
 chNormalization)                                                
                                                                 
 re_lu_55 (ReLU)             (None, 2528)              0         
                                                                 
 dense_56 (Dense)            (None, 1264)              3196656   
                                                                 
 batch_normalization_56 (Bat  (None, 1264)             5056      
 chNormalization)                                                
                                                                 
 re_lu_56 (ReLU)             (None, 1264)              0         
                                                                 
 bottleneck (Dense)          (None, 568)               718520    
                                                                 
=================================================================
Total params: 7,128,264
Trainable params: 7,120,680
Non-trainable params: 7,584
_________________________________________________________________
Decoder
Model: "model_35"
_________________________________________________________________
 Layer (type)                Output Shape              Param #   
=================================================================
 input_36 (InputLayer)       [(None, 568)]             0         
                                                                 
 batch_normalization_57 (Bat  (None, 568)              2272      
 chNormalization)                                                
                                                                 
 re_lu_57 (ReLU)             (None, 568)               0         
                                                                 
 dense_57 (Dense)            (None, 1264)              719216    
                                                                 
 batch_normalization_58 (Bat  (None, 1264)             5056      
 chNormalization)                                                
                                                                 
 re_lu_58 (ReLU)             (None, 1264)              0         
                                                                 
 dense_58 (Dense)            (None, 2528)              3197920   
                                                                 
 batch_normalization_59 (Bat  (None, 2528)             10112     
 chNormalization)                                                
                                                                 
 re_lu_59 (ReLU)             (None, 2528)              0         
                                                                 
 dense_59 (Dense)            (None, 1264)              3196656   
                                                                 
=================================================================
Total params: 7,131,232
Trainable params: 7,122,512
Non-trainable params: 8,720
_________________________________________________________________
Model: "model_36"
_________________________________________________________________
 Layer (type)                Output Shape              Param #   
=================================================================
 input_37 (InputLayer)       [(None, 1264)]            0         
                                                                 
 dense_60 (Dense)            (None, 2528)              3197920   
                                                                 
 batch_normalization_60 (Bat  (None, 2528)             10112     
 chNormalization)                                                
                                                                 
 re_lu_60 (ReLU)             (None, 2528)              0         
                                                                 
 dense_61 (Dense)            (None, 1264)              3196656   
                                                                 
 batch_normalization_61 (Bat  (None, 1264)             5056      
 chNormalization)                                                
                                                                 
 re_lu_61 (ReLU)             (None, 1264)              0         
                                                                 
 bottleneck (Dense)          (None, 505)               638825    
                                                                 
 batch_normalization_62 (Bat  (None, 505)              2020      
 chNormalization)                                                
                                                                 
 re_lu_62 (ReLU)             (None, 505)               0         
                                                                 
 dense_62 (Dense)            (None, 1264)              639584    
                                                                 
 batch_normalization_63 (Bat  (None, 1264)             5056      
 chNormalization)                                                
                                                                 
 re_lu_63 (ReLU)             (None, 1264)              0         
                                                                 
 dense_63 (Dense)            (None, 2528)              3197920   
                                                                 
 batch_normalization_64 (Bat  (None, 2528)             10112     
 chNormalization)                                                
                                                                 
 re_lu_64 (ReLU)             (None, 2528)              0         
                                                                 
 dense_64 (Dense)            (None, 1264)              3196656   
                                                                 
=================================================================
Total params: 14,099,917
Trainable params: 14,083,739
Non-trainable params: 16,178
_________________________________________________________________
Epoch 1/400
5969/5969 - 23s - loss: 0.0087 - val_loss: 0.0037 - 23s/epoch - 4ms/step
Epoch 2/400
5969/5969 - 21s - loss: 0.0035 - val_loss: 0.0031 - 21s/epoch - 4ms/step
…
 [==============================] - 2s 1ms/step
correlation 0.02699979354892667
cosine 0.024528194481492373
MAE: 0.022033006
RMSE: 0.12608974
r2: -0.031392482510158935
RMSE zero-vector: 0.23411466903540806
Full AutoEncoder
Model: "model_36"
_________________________________________________________________
 Layer (type)                Output Shape              Param #   
=================================================================
 input_37 (InputLayer)       multiple                  0         
                                                                 
 dense_60 (Dense)            (None, 2528)              3197920   
                                                                 
 batch_normalization_60 (Bat  (None, 2528)             10112     
 chNormalization)                                                
                                                                 
 re_lu_60 (ReLU)             (None, 2528)              0         
                                                                 
 dense_61 (Dense)            (None, 1264)              3196656   
                                                                 
 batch_normalization_61 (Bat  (None, 1264)             5056      
 chNormalization)                                                
                                                                 
 re_lu_61 (ReLU)             (None, 1264)              0         
                                                                 
 bottleneck (Dense)          (None, 505)               638825    
                                                                 
 batch_normalization_62 (Bat  (None, 505)              2020      
 chNormalization)                                                
                                                                 
 re_lu_62 (ReLU)             (None, 505)               0         
                                                                 
 dense_62 (Dense)            (None, 1264)              639584    
                                                                 
 batch_normalization_63 (Bat  (None, 1264)             5056      
 chNormalization)                                                
                                                                 
 re_lu_63 (ReLU)             (None, 1264)              0         
                                                                 
 dense_63 (Dense)            (None, 2528)              3197920   
                                                                 
 batch_normalization_64 (Bat  (None, 2528)             10112     
 chNormalization)                                                
                                                                 
 re_lu_64 (ReLU)             (None, 2528)              0         
                                                                 
 dense_64 (Dense)            (None, 1264)              3196656   
                                                                 
=================================================================
Total params: 14,099,917
Trainable params: 14,083,739
Non-trainable params: 16,178
_________________________________________________________________
Encoder
Model: "model_37"
_________________________________________________________________
 Layer (type)                Output Shape              Param #   
=================================================================
 input_38 (InputLayer)       [(None, 1264)]            0         
                                                                 
 input_37 (InputLayer)       multiple                  0         
                                                                 
 dense_60 (Dense)            (None, 2528)              3197920   
                                                                 
 batch_normalization_60 (Bat  (None, 2528)             10112     
 chNormalization)                                                
                                                                 
 re_lu_60 (ReLU)             (None, 2528)              0         
                                                                 
 dense_61 (Dense)            (None, 1264)              3196656   
                                                                 
 batch_normalization_61 (Bat  (None, 1264)             5056      
 chNormalization)                                                
                                                                 
 re_lu_61 (ReLU)             (None, 1264)              0         
                                                                 
 bottleneck (Dense)          (None, 505)               638825    
                                                                 
=================================================================
Total params: 7,048,569
Trainable params: 7,040,985
Non-trainable params: 7,584
_________________________________________________________________
Decoder
Model: "model_38"
_________________________________________________________________
 Layer (type)                Output Shape              Param #   
=================================================================
 input_39 (InputLayer)       [(None, 505)]             0         
                                                                 
 batch_normalization_62 (Bat  (None, 505)              2020      
 chNormalization)                                                
                                                                 
 re_lu_62 (ReLU)             (None, 505)               0         
                                                                 
 dense_62 (Dense)            (None, 1264)              639584    
                                                                 
 batch_normalization_63 (Bat  (None, 1264)             5056      
 chNormalization)                                                
                                                                 
 re_lu_63 (ReLU)             (None, 1264)              0         
                                                                 
 dense_63 (Dense)            (None, 2528)              3197920   
                                                                 
 batch_normalization_64 (Bat  (None, 2528)             10112     
 chNormalization)                                                
                                                                 
 re_lu_64 (ReLU)             (None, 2528)              0         
                                                                 
 dense_64 (Dense)            (None, 1264)              3196656   
                                                                 
=================================================================
Total params: 7,051,348
Trainable params: 7,042,754
Non-trainable params: 8,594
_________________________________________________________________
Model: "model_39"
_________________________________________________________________
 Layer (type)                Output Shape              Param #   
=================================================================
 input_40 (InputLayer)       [(None, 1264)]            0         
                                                                 
 dense_65 (Dense)            (None, 2528)              3197920   
                                                                 
 batch_normalization_65 (Bat  (None, 2528)             10112     
 chNormalization)                                                
                                                                 
 re_lu_65 (ReLU)             (None, 2528)              0         
                                                                 
 dense_66 (Dense)            (None, 1264)              3196656   
                                                                 
 batch_normalization_66 (Bat  (None, 1264)             5056      
 chNormalization)                                                
                                                                 
 re_lu_66 (ReLU)             (None, 1264)              0         
                                                                 
 bottleneck (Dense)          (None, 442)               559130    
                                                                 
 batch_normalization_67 (Bat  (None, 442)              1768      
 chNormalization)                                                
                                                                 
 re_lu_67 (ReLU)             (None, 442)               0         
                                                                 
 dense_67 (Dense)            (None, 1264)              559952    
                                                                 
 batch_normalization_68 (Bat  (None, 1264)             5056      
 chNormalization)                                                
                                                                 
 re_lu_68 (ReLU)             (None, 1264)              0         
                                                                 
 dense_68 (Dense)            (None, 2528)              3197920   
                                                                 
 batch_normalization_69 (Bat  (None, 2528)             10112     
 chNormalization)                                                
                                                                 
 re_lu_69 (ReLU)             (None, 2528)              0         
                                                                 
 dense_69 (Dense)            (None, 1264)              3196656   
                                                                 
=================================================================
Total params: 13,940,338
Trainable params: 13,924,286
Non-trainable params: 16,052
_________________________________________________________________
Epoch 1/400
5969/5969 - 23s - loss: 0.0089 - val_loss: 0.0040 - 23s/epoch - 4ms/step
Epoch 2/400
5969/5969 - 21s - loss: 0.0038 - val_loss: 0.0029 - 21s/epoch - 4ms/step
…
