…
2022-12-18 04:29:43.234450: I tensorflow/core/common_runtime/gpu/gpu_device.cc:1616] Created device /job:localhost/replica:0/task:0/device:GPU:0 with 20637 MB memory:  -> device: 0, name: NVIDIA A10, pci bus id: 0000:2b:00.0, compute capability: 8.6
Model: "model"
_________________________________________________________________
 Layer (type)                Output Shape              Param #   
=================================================================
 input_1 (InputLayer)        [(None, 1020)]            0         
                                                                 
 dense (Dense)               (None, 3060)              3124260   
                                                                 
 batch_normalization (BatchN  (None, 3060)             12240     
 ormalization)                                                   
                                                                 
 re_lu (ReLU)                (None, 3060)              0         
                                                                 
 bottleneck (Dense)          (None, 918)               2809998   
                                                                 
 batch_normalization_1 (Batc  (None, 918)              3672      
 hNormalization)                                                 
                                                                 
 re_lu_1 (ReLU)              (None, 918)               0         
                                                                 
 dense_1 (Dense)             (None, 3060)              2812140   
                                                                 
 batch_normalization_2 (Batc  (None, 3060)             12240     
 hNormalization)                                                 
                                                                 
 re_lu_2 (ReLU)              (None, 3060)              0         
                                                                 
 dense_2 (Dense)             (None, 1020)              3122220   
                                                                 
=================================================================
Total params: 11,896,770
Trainable params: 11,882,694
Non-trainable params: 14,076
_________________________________________________________________
Epoch 1/400
2022-12-18 04:29:44.904476: I tensorflow/stream_executor/cuda/cuda_blas.cc:1614] TensorFloat-32 will be used for the matrix multiplication. This will only be logged once.
…
 1/60 [..............................] - ETA: 6s52/60 [=========================>....] - ETA: 0s60/60 [==============================] - 0s 998us/step
correlation 0.0019290375953863585
cosine 0.0013135175979354567
MAE: 0.00873331704876782
RMSE: 0.050038683783477714
r2: 0.9281698950652796
RMSE zero-vector: 0.34573518857430263
Full AutoEncoder
Model: "model"
_________________________________________________________________
 Layer (type)                Output Shape              Param #   
=================================================================
 input_1 (InputLayer)        multiple                  0         
                                                                 
 dense (Dense)               (None, 3060)              3124260   
                                                                 
 batch_normalization (BatchN  (None, 3060)             12240     
 ormalization)                                                   
                                                                 
 re_lu (ReLU)                (None, 3060)              0         
                                                                 
 bottleneck (Dense)          (None, 918)               2809998   
                                                                 
 batch_normalization_1 (Batc  (None, 918)              3672      
 hNormalization)                                                 
                                                                 
 re_lu_1 (ReLU)              (None, 918)               0         
                                                                 
 dense_1 (Dense)             (None, 3060)              2812140   
                                                                 
 batch_normalization_2 (Batc  (None, 3060)             12240     
 hNormalization)                                                 
                                                                 
 re_lu_2 (ReLU)              (None, 3060)              0         
                                                                 
 dense_2 (Dense)             (None, 1020)              3122220   
                                                                 
=================================================================
Total params: 11,896,770
Trainable params: 11,882,694
Non-trainable params: 14,076
_________________________________________________________________
Encoder
Model: "model_1"
_________________________________________________________________
 Layer (type)                Output Shape              Param #   
=================================================================
 input_2 (InputLayer)        [(None, 1020)]            0         
                                                                 
 input_1 (InputLayer)        multiple                  0         
                                                                 
 dense (Dense)               (None, 3060)              3124260   
                                                                 
 batch_normalization (BatchN  (None, 3060)             12240     
 ormalization)                                                   
                                                                 
 re_lu (ReLU)                (None, 3060)              0         
                                                                 
 bottleneck (Dense)          (None, 918)               2809998   
                                                                 
=================================================================
Total params: 5,946,498
Trainable params: 5,940,378
Non-trainable params: 6,120
_________________________________________________________________
Decoder
Model: "model_2"
_________________________________________________________________
 Layer (type)                Output Shape              Param #   
=================================================================
 input_3 (InputLayer)        [(None, 918)]             0         
                                                                 
 batch_normalization_1 (Batc  (None, 918)              3672      
 hNormalization)                                                 
                                                                 
 re_lu_1 (ReLU)              (None, 918)               0         
                                                                 
 dense_1 (Dense)             (None, 3060)              2812140   
                                                                 
 batch_normalization_2 (Batc  (None, 3060)             12240     
 hNormalization)                                                 
                                                                 
 re_lu_2 (ReLU)              (None, 3060)              0         
                                                                 
 dense_2 (Dense)             (None, 1020)              3122220   
                                                                 
=================================================================
Total params: 5,950,272
Trainable params: 5,942,316
Non-trainable params: 7,956
_________________________________________________________________
Model: "model_3"
_________________________________________________________________
 Layer (type)                Output Shape              Param #   
=================================================================
 input_4 (InputLayer)        [(None, 1020)]            0         
                                                                 
 dense_3 (Dense)             (None, 3060)              3124260   
                                                                 
 batch_normalization_3 (Batc  (None, 3060)             12240     
 hNormalization)                                                 
                                                                 
 re_lu_3 (ReLU)              (None, 3060)              0         
                                                                 
 bottleneck (Dense)          (None, 867)               2653887   
                                                                 
 batch_normalization_4 (Batc  (None, 867)              3468      
 hNormalization)                                                 
                                                                 
 re_lu_4 (ReLU)              (None, 867)               0         
                                                                 
 dense_4 (Dense)             (None, 3060)              2656080   
                                                                 
 batch_normalization_5 (Batc  (None, 3060)             12240     
 hNormalization)                                                 
                                                                 
 re_lu_5 (ReLU)              (None, 3060)              0         
                                                                 
 dense_5 (Dense)             (None, 1020)              3122220   
                                                                 
=================================================================
Total params: 11,584,395
Trainable params: 11,570,421
Non-trainable params: 13,974
_________________________________________________________________
Epoch 1/400
1065/1065 - 4s - loss: 0.0253 - val_loss: 0.0174 - 4s/epoch - 3ms/step
Epoch 2/400
1065/1065 - 3s - loss: 0.0099 - val_loss: 0.0120 - 3s/epoch - 3ms/step
…
 1/60 [..............................] - ETA: 5s51/60 [========================>.....] - ETA: 0s60/60 [==============================] - 0s 1ms/step
correlation 0.0018836696083764533
cosine 0.0012832836616791755
MAE: 0.008745103540282845
RMSE: 0.047024392876380716
r2: 0.9364526984573788
RMSE zero-vector: 0.34573518857430263
Full AutoEncoder
Model: "model_3"
_________________________________________________________________
 Layer (type)                Output Shape              Param #   
=================================================================
 input_4 (InputLayer)        multiple                  0         
                                                                 
 dense_3 (Dense)             (None, 3060)              3124260   
                                                                 
 batch_normalization_3 (Batc  (None, 3060)             12240     
 hNormalization)                                                 
                                                                 
 re_lu_3 (ReLU)              (None, 3060)              0         
                                                                 
 bottleneck (Dense)          (None, 867)               2653887   
                                                                 
 batch_normalization_4 (Batc  (None, 867)              3468      
 hNormalization)                                                 
                                                                 
 re_lu_4 (ReLU)              (None, 867)               0         
                                                                 
 dense_4 (Dense)             (None, 3060)              2656080   
                                                                 
 batch_normalization_5 (Batc  (None, 3060)             12240     
 hNormalization)                                                 
                                                                 
 re_lu_5 (ReLU)              (None, 3060)              0         
                                                                 
 dense_5 (Dense)             (None, 1020)              3122220   
                                                                 
=================================================================
Total params: 11,584,395
Trainable params: 11,570,421
Non-trainable params: 13,974
_________________________________________________________________
Encoder
Model: "model_4"
_________________________________________________________________
 Layer (type)                Output Shape              Param #   
=================================================================
 input_5 (InputLayer)        [(None, 1020)]            0         
                                                                 
 input_4 (InputLayer)        multiple                  0         
                                                                 
 dense_3 (Dense)             (None, 3060)              3124260   
                                                                 
 batch_normalization_3 (Batc  (None, 3060)             12240     
 hNormalization)                                                 
                                                                 
 re_lu_3 (ReLU)              (None, 3060)              0         
                                                                 
 bottleneck (Dense)          (None, 867)               2653887   
                                                                 
=================================================================
Total params: 5,790,387
Trainable params: 5,784,267
Non-trainable params: 6,120
_________________________________________________________________
Decoder
Model: "model_5"
_________________________________________________________________
 Layer (type)                Output Shape              Param #   
=================================================================
 input_6 (InputLayer)        [(None, 867)]             0         
                                                                 
 batch_normalization_4 (Batc  (None, 867)              3468      
 hNormalization)                                                 
                                                                 
 re_lu_4 (ReLU)              (None, 867)               0         
                                                                 
 dense_4 (Dense)             (None, 3060)              2656080   
                                                                 
 batch_normalization_5 (Batc  (None, 3060)             12240     
 hNormalization)                                                 
                                                                 
 re_lu_5 (ReLU)              (None, 3060)              0         
                                                                 
 dense_5 (Dense)             (None, 1020)              3122220   
                                                                 
=================================================================
Total params: 5,794,008
Trainable params: 5,786,154
Non-trainable params: 7,854
_________________________________________________________________
Model: "model_6"
_________________________________________________________________
 Layer (type)                Output Shape              Param #   
=================================================================
 input_7 (InputLayer)        [(None, 1020)]            0         
                                                                 
 dense_6 (Dense)             (None, 3060)              3124260   
                                                                 
 batch_normalization_6 (Batc  (None, 3060)             12240     
 hNormalization)                                                 
                                                                 
 re_lu_6 (ReLU)              (None, 3060)              0         
                                                                 
 bottleneck (Dense)          (None, 815)               2494715   
                                                                 
 batch_normalization_7 (Batc  (None, 815)              3260      
 hNormalization)                                                 
                                                                 
 re_lu_7 (ReLU)              (None, 815)               0         
                                                                 
 dense_7 (Dense)             (None, 3060)              2496960   
                                                                 
 batch_normalization_8 (Batc  (None, 3060)             12240     
 hNormalization)                                                 
                                                                 
 re_lu_8 (ReLU)              (None, 3060)              0         
                                                                 
 dense_8 (Dense)             (None, 1020)              3122220   
                                                                 
=================================================================
Total params: 11,265,895
Trainable params: 11,252,025
Non-trainable params: 13,870
_________________________________________________________________
Epoch 1/400
1065/1065 - 4s - loss: 0.0251 - val_loss: 0.0220 - 4s/epoch - 3ms/step
Epoch 2/400
1065/1065 - 3s - loss: 0.0097 - val_loss: 0.0140 - 3s/epoch - 3ms/step
…
 1/60 [..............................] - ETA: 5s52/60 [=========================>....] - ETA: 0s60/60 [==============================] - 0s 996us/step
correlation 0.0017943460085892455
cosine 0.00122557727592673
MAE: 0.00877376788910594
RMSE: 0.06135267672612183
r2: 0.8918445440430858
RMSE zero-vector: 0.34573518857430263
Full AutoEncoder
Model: "model_6"
_________________________________________________________________
 Layer (type)                Output Shape              Param #   
=================================================================
 input_7 (InputLayer)        multiple                  0         
                                                                 
 dense_6 (Dense)             (None, 3060)              3124260   
                                                                 
 batch_normalization_6 (Batc  (None, 3060)             12240     
 hNormalization)                                                 
                                                                 
 re_lu_6 (ReLU)              (None, 3060)              0         
                                                                 
 bottleneck (Dense)          (None, 815)               2494715   
                                                                 
 batch_normalization_7 (Batc  (None, 815)              3260      
 hNormalization)                                                 
                                                                 
 re_lu_7 (ReLU)              (None, 815)               0         
                                                                 
 dense_7 (Dense)             (None, 3060)              2496960   
                                                                 
 batch_normalization_8 (Batc  (None, 3060)             12240     
 hNormalization)                                                 
                                                                 
 re_lu_8 (ReLU)              (None, 3060)              0         
                                                                 
 dense_8 (Dense)             (None, 1020)              3122220   
                                                                 
=================================================================
Total params: 11,265,895
Trainable params: 11,252,025
Non-trainable params: 13,870
_________________________________________________________________
Encoder
Model: "model_7"
_________________________________________________________________
 Layer (type)                Output Shape              Param #   
=================================================================
 input_8 (InputLayer)        [(None, 1020)]            0         
                                                                 
 input_7 (InputLayer)        multiple                  0         
                                                                 
 dense_6 (Dense)             (None, 3060)              3124260   
                                                                 
 batch_normalization_6 (Batc  (None, 3060)             12240     
 hNormalization)                                                 
                                                                 
 re_lu_6 (ReLU)              (None, 3060)              0         
                                                                 
 bottleneck (Dense)          (None, 815)               2494715   
                                                                 
=================================================================
Total params: 5,631,215
Trainable params: 5,625,095
Non-trainable params: 6,120
_________________________________________________________________
Decoder
Model: "model_8"
_________________________________________________________________
 Layer (type)                Output Shape              Param #   
=================================================================
 input_9 (InputLayer)        [(None, 815)]             0         
                                                                 
 batch_normalization_7 (Batc  (None, 815)              3260      
 hNormalization)                                                 
                                                                 
 re_lu_7 (ReLU)              (None, 815)               0         
                                                                 
 dense_7 (Dense)             (None, 3060)              2496960   
                                                                 
 batch_normalization_8 (Batc  (None, 3060)             12240     
 hNormalization)                                                 
                                                                 
 re_lu_8 (ReLU)              (None, 3060)              0         
                                                                 
 dense_8 (Dense)             (None, 1020)              3122220   
                                                                 
=================================================================
Total params: 5,634,680
Trainable params: 5,626,930
Non-trainable params: 7,750
_________________________________________________________________
Model: "model_9"
_________________________________________________________________
 Layer (type)                Output Shape              Param #   
=================================================================
 input_10 (InputLayer)       [(None, 1020)]            0         
                                                                 
 dense_9 (Dense)             (None, 3060)              3124260   
                                                                 
 batch_normalization_9 (Batc  (None, 3060)             12240     
 hNormalization)                                                 
                                                                 
 re_lu_9 (ReLU)              (None, 3060)              0         
                                                                 
 bottleneck (Dense)          (None, 764)               2338604   
                                                                 
 batch_normalization_10 (Bat  (None, 764)              3056      
 chNormalization)                                                
                                                                 
 re_lu_10 (ReLU)             (None, 764)               0         
                                                                 
 dense_10 (Dense)            (None, 3060)              2340900   
                                                                 
 batch_normalization_11 (Bat  (None, 3060)             12240     
 chNormalization)                                                
                                                                 
 re_lu_11 (ReLU)             (None, 3060)              0         
                                                                 
 dense_11 (Dense)            (None, 1020)              3122220   
                                                                 
=================================================================
Total params: 10,953,520
Trainable params: 10,939,752
Non-trainable params: 13,768
_________________________________________________________________
Epoch 1/400
1065/1065 - 4s - loss: 0.0257 - val_loss: 0.0177 - 4s/epoch - 3ms/step
Epoch 2/400
1065/1065 - 3s - loss: 0.0097 - val_loss: 0.0123 - 3s/epoch - 3ms/step
…
 1/60 [..............................] - ETA: 5s52/60 [=========================>....] - ETA: 0s60/60 [==============================] - 0s 980us/step
correlation 0.0018655413311395345
cosine 0.001277036672097305
MAE: 0.00878384053639198
RMSE: 0.04918718692162486
r2: 0.9308241104710342
RMSE zero-vector: 0.34573518857430263
Full AutoEncoder
Model: "model_9"
_________________________________________________________________
 Layer (type)                Output Shape              Param #   
=================================================================
 input_10 (InputLayer)       multiple                  0         
                                                                 
 dense_9 (Dense)             (None, 3060)              3124260   
                                                                 
 batch_normalization_9 (Batc  (None, 3060)             12240     
 hNormalization)                                                 
                                                                 
 re_lu_9 (ReLU)              (None, 3060)              0         
                                                                 
 bottleneck (Dense)          (None, 764)               2338604   
                                                                 
 batch_normalization_10 (Bat  (None, 764)              3056      
 chNormalization)                                                
                                                                 
 re_lu_10 (ReLU)             (None, 764)               0         
                                                                 
 dense_10 (Dense)            (None, 3060)              2340900   
                                                                 
 batch_normalization_11 (Bat  (None, 3060)             12240     
 chNormalization)                                                
                                                                 
 re_lu_11 (ReLU)             (None, 3060)              0         
                                                                 
 dense_11 (Dense)            (None, 1020)              3122220   
                                                                 
=================================================================
Total params: 10,953,520
Trainable params: 10,939,752
Non-trainable params: 13,768
_________________________________________________________________
Encoder
Model: "model_10"
_________________________________________________________________
 Layer (type)                Output Shape              Param #   
=================================================================
 input_11 (InputLayer)       [(None, 1020)]            0         
                                                                 
 input_10 (InputLayer)       multiple                  0         
                                                                 
 dense_9 (Dense)             (None, 3060)              3124260   
                                                                 
 batch_normalization_9 (Batc  (None, 3060)             12240     
 hNormalization)                                                 
                                                                 
 re_lu_9 (ReLU)              (None, 3060)              0         
                                                                 
 bottleneck (Dense)          (None, 764)               2338604   
                                                                 
=================================================================
Total params: 5,475,104
Trainable params: 5,468,984
Non-trainable params: 6,120
_________________________________________________________________
Decoder
Model: "model_11"
_________________________________________________________________
 Layer (type)                Output Shape              Param #   
=================================================================
 input_12 (InputLayer)       [(None, 764)]             0         
                                                                 
 batch_normalization_10 (Bat  (None, 764)              3056      
 chNormalization)                                                
                                                                 
 re_lu_10 (ReLU)             (None, 764)               0         
                                                                 
 dense_10 (Dense)            (None, 3060)              2340900   
                                                                 
 batch_normalization_11 (Bat  (None, 3060)             12240     
 chNormalization)                                                
                                                                 
 re_lu_11 (ReLU)             (None, 3060)              0         
                                                                 
 dense_11 (Dense)            (None, 1020)              3122220   
                                                                 
=================================================================
Total params: 5,478,416
Trainable params: 5,470,768
Non-trainable params: 7,648
_________________________________________________________________
Model: "model_12"
_________________________________________________________________
 Layer (type)                Output Shape              Param #   
=================================================================
 input_13 (InputLayer)       [(None, 1020)]            0         
                                                                 
 dense_12 (Dense)            (None, 3060)              3124260   
                                                                 
 batch_normalization_12 (Bat  (None, 3060)             12240     
 chNormalization)                                                
                                                                 
 re_lu_12 (ReLU)             (None, 3060)              0         
                                                                 
 bottleneck (Dense)          (None, 713)               2182493   
                                                                 
 batch_normalization_13 (Bat  (None, 713)              2852      
 chNormalization)                                                
                                                                 
 re_lu_13 (ReLU)             (None, 713)               0         
                                                                 
 dense_13 (Dense)            (None, 3060)              2184840   
                                                                 
 batch_normalization_14 (Bat  (None, 3060)             12240     
 chNormalization)                                                
                                                                 
 re_lu_14 (ReLU)             (None, 3060)              0         
                                                                 
 dense_14 (Dense)            (None, 1020)              3122220   
                                                                 
=================================================================
Total params: 10,641,145
Trainable params: 10,627,479
Non-trainable params: 13,666
_________________________________________________________________
Epoch 1/400
1065/1065 - 4s - loss: 0.0258 - val_loss: 0.0172 - 4s/epoch - 3ms/step
Epoch 2/400
1065/1065 - 3s - loss: 0.0099 - val_loss: 0.0126 - 3s/epoch - 3ms/step
…
 1/60 [..............................] - ETA: 5s52/60 [=========================>....] - ETA: 0s60/60 [==============================] - 0s 981us/step
correlation 0.0019499722970257574
cosine 0.0013337768541915986
MAE: 0.009016966971939681
RMSE: 0.04632428354071702
r2: 0.9389510850416876
RMSE zero-vector: 0.34573518857430263
Full AutoEncoder
Model: "model_12"
_________________________________________________________________
 Layer (type)                Output Shape              Param #   
=================================================================
 input_13 (InputLayer)       multiple                  0         
                                                                 
 dense_12 (Dense)            (None, 3060)              3124260   
                                                                 
 batch_normalization_12 (Bat  (None, 3060)             12240     
 chNormalization)                                                
                                                                 
 re_lu_12 (ReLU)             (None, 3060)              0         
                                                                 
 bottleneck (Dense)          (None, 713)               2182493   
                                                                 
 batch_normalization_13 (Bat  (None, 713)              2852      
 chNormalization)                                                
                                                                 
 re_lu_13 (ReLU)             (None, 713)               0         
                                                                 
 dense_13 (Dense)            (None, 3060)              2184840   
                                                                 
 batch_normalization_14 (Bat  (None, 3060)             12240     
 chNormalization)                                                
                                                                 
 re_lu_14 (ReLU)             (None, 3060)              0         
                                                                 
 dense_14 (Dense)            (None, 1020)              3122220   
                                                                 
=================================================================
Total params: 10,641,145
Trainable params: 10,627,479
Non-trainable params: 13,666
_________________________________________________________________
Encoder
Model: "model_13"
_________________________________________________________________
 Layer (type)                Output Shape              Param #   
=================================================================
 input_14 (InputLayer)       [(None, 1020)]            0         
                                                                 
 input_13 (InputLayer)       multiple                  0         
                                                                 
 dense_12 (Dense)            (None, 3060)              3124260   
                                                                 
 batch_normalization_12 (Bat  (None, 3060)             12240     
 chNormalization)                                                
                                                                 
 re_lu_12 (ReLU)             (None, 3060)              0         
                                                                 
 bottleneck (Dense)          (None, 713)               2182493   
                                                                 
=================================================================
Total params: 5,318,993
Trainable params: 5,312,873
Non-trainable params: 6,120
_________________________________________________________________
Decoder
Model: "model_14"
_________________________________________________________________
 Layer (type)                Output Shape              Param #   
=================================================================
 input_15 (InputLayer)       [(None, 713)]             0         
                                                                 
 batch_normalization_13 (Bat  (None, 713)              2852      
 chNormalization)                                                
                                                                 
 re_lu_13 (ReLU)             (None, 713)               0         
                                                                 
 dense_13 (Dense)            (None, 3060)              2184840   
                                                                 
 batch_normalization_14 (Bat  (None, 3060)             12240     
 chNormalization)                                                
                                                                 
 re_lu_14 (ReLU)             (None, 3060)              0         
                                                                 
 dense_14 (Dense)            (None, 1020)              3122220   
                                                                 
=================================================================
Total params: 5,322,152
Trainable params: 5,314,606
Non-trainable params: 7,546
_________________________________________________________________
Model: "model_15"
_________________________________________________________________
 Layer (type)                Output Shape              Param #   
=================================================================
 input_16 (InputLayer)       [(None, 1020)]            0         
                                                                 
 dense_15 (Dense)            (None, 3060)              3124260   
                                                                 
 batch_normalization_15 (Bat  (None, 3060)             12240     
 chNormalization)                                                
                                                                 
 re_lu_15 (ReLU)             (None, 3060)              0         
                                                                 
 bottleneck (Dense)          (None, 662)               2026382   
                                                                 
 batch_normalization_16 (Bat  (None, 662)              2648      
 chNormalization)                                                
                                                                 
 re_lu_16 (ReLU)             (None, 662)               0         
                                                                 
 dense_16 (Dense)            (None, 3060)              2028780   
                                                                 
 batch_normalization_17 (Bat  (None, 3060)             12240     
 chNormalization)                                                
                                                                 
 re_lu_17 (ReLU)             (None, 3060)              0         
                                                                 
 dense_17 (Dense)            (None, 1020)              3122220   
                                                                 
=================================================================
Total params: 10,328,770
Trainable params: 10,315,206
Non-trainable params: 13,564
_________________________________________________________________
Epoch 1/400
1065/1065 - 4s - loss: 0.0253 - val_loss: 0.0208 - 4s/epoch - 3ms/step
Epoch 2/400
1065/1065 - 3s - loss: 0.0102 - val_loss: 0.0134 - 3s/epoch - 3ms/step
…
 1/60 [..............................] - ETA: 5s53/60 [=========================>....] - ETA: 0s60/60 [==============================] - 0s 976us/step
correlation 0.002753202122454611
cosine 0.0019161250866946953
MAE: 0.010335676081711433
RMSE: 0.05358317825258254
r2: 0.9175620824607428
RMSE zero-vector: 0.34573518857430263
Full AutoEncoder
Model: "model_15"
_________________________________________________________________
 Layer (type)                Output Shape              Param #   
=================================================================
 input_16 (InputLayer)       multiple                  0         
                                                                 
 dense_15 (Dense)            (None, 3060)              3124260   
                                                                 
 batch_normalization_15 (Bat  (None, 3060)             12240     
 chNormalization)                                                
                                                                 
 re_lu_15 (ReLU)             (None, 3060)              0         
                                                                 
 bottleneck (Dense)          (None, 662)               2026382   
                                                                 
 batch_normalization_16 (Bat  (None, 662)              2648      
 chNormalization)                                                
                                                                 
 re_lu_16 (ReLU)             (None, 662)               0         
                                                                 
 dense_16 (Dense)            (None, 3060)              2028780   
                                                                 
 batch_normalization_17 (Bat  (None, 3060)             12240     
 chNormalization)                                                
                                                                 
 re_lu_17 (ReLU)             (None, 3060)              0         
                                                                 
 dense_17 (Dense)            (None, 1020)              3122220   
                                                                 
=================================================================
Total params: 10,328,770
Trainable params: 10,315,206
Non-trainable params: 13,564
_________________________________________________________________
Encoder
Model: "model_16"
_________________________________________________________________
 Layer (type)                Output Shape              Param #   
=================================================================
 input_17 (InputLayer)       [(None, 1020)]            0         
                                                                 
 input_16 (InputLayer)       multiple                  0         
                                                                 
 dense_15 (Dense)            (None, 3060)              3124260   
                                                                 
 batch_normalization_15 (Bat  (None, 3060)             12240     
 chNormalization)                                                
                                                                 
 re_lu_15 (ReLU)             (None, 3060)              0         
                                                                 
 bottleneck (Dense)          (None, 662)               2026382   
                                                                 
=================================================================
Total params: 5,162,882
Trainable params: 5,156,762
Non-trainable params: 6,120
_________________________________________________________________
Decoder
Model: "model_17"
_________________________________________________________________
 Layer (type)                Output Shape              Param #   
=================================================================
 input_18 (InputLayer)       [(None, 662)]             0         
                                                                 
 batch_normalization_16 (Bat  (None, 662)              2648      
 chNormalization)                                                
                                                                 
 re_lu_16 (ReLU)             (None, 662)               0         
                                                                 
 dense_16 (Dense)            (None, 3060)              2028780   
                                                                 
 batch_normalization_17 (Bat  (None, 3060)             12240     
 chNormalization)                                                
                                                                 
 re_lu_17 (ReLU)             (None, 3060)              0         
                                                                 
 dense_17 (Dense)            (None, 1020)              3122220   
                                                                 
=================================================================
Total params: 5,165,888
Trainable params: 5,158,444
Non-trainable params: 7,444
_________________________________________________________________
Model: "model_18"
_________________________________________________________________
 Layer (type)                Output Shape              Param #   
=================================================================
 input_19 (InputLayer)       [(None, 1020)]            0         
                                                                 
 dense_18 (Dense)            (None, 3060)              3124260   
                                                                 
 batch_normalization_18 (Bat  (None, 3060)             12240     
 chNormalization)                                                
                                                                 
 re_lu_18 (ReLU)             (None, 3060)              0         
                                                                 
 bottleneck (Dense)          (None, 611)               1870271   
                                                                 
 batch_normalization_19 (Bat  (None, 611)              2444      
 chNormalization)                                                
                                                                 
 re_lu_19 (ReLU)             (None, 611)               0         
                                                                 
 dense_19 (Dense)            (None, 3060)              1872720   
                                                                 
 batch_normalization_20 (Bat  (None, 3060)             12240     
 chNormalization)                                                
                                                                 
 re_lu_20 (ReLU)             (None, 3060)              0         
                                                                 
 dense_20 (Dense)            (None, 1020)              3122220   
                                                                 
=================================================================
Total params: 10,016,395
Trainable params: 10,002,933
Non-trainable params: 13,462
_________________________________________________________________
Epoch 1/400
1065/1065 - 4s - loss: 0.0257 - val_loss: 0.0182 - 4s/epoch - 3ms/step
Epoch 2/400
1065/1065 - 3s - loss: 0.0106 - val_loss: 0.0130 - 3s/epoch - 3ms/step
…
 1/60 [..............................] - ETA: 5s52/60 [=========================>....] - ETA: 0s60/60 [==============================] - 0s 992us/step
correlation 0.0024898547501903123
cosine 0.0016720610674997138
MAE: 0.009482240260133654
RMSE: 0.03285179425314416
r2: 0.9689965686843383
RMSE zero-vector: 0.34573518857430263
Full AutoEncoder
Model: "model_18"
_________________________________________________________________
 Layer (type)                Output Shape              Param #   
=================================================================
 input_19 (InputLayer)       multiple                  0         
                                                                 
 dense_18 (Dense)            (None, 3060)              3124260   
                                                                 
 batch_normalization_18 (Bat  (None, 3060)             12240     
 chNormalization)                                                
                                                                 
 re_lu_18 (ReLU)             (None, 3060)              0         
                                                                 
 bottleneck (Dense)          (None, 611)               1870271   
                                                                 
 batch_normalization_19 (Bat  (None, 611)              2444      
 chNormalization)                                                
                                                                 
 re_lu_19 (ReLU)             (None, 611)               0         
                                                                 
 dense_19 (Dense)            (None, 3060)              1872720   
                                                                 
 batch_normalization_20 (Bat  (None, 3060)             12240     
 chNormalization)                                                
                                                                 
 re_lu_20 (ReLU)             (None, 3060)              0         
                                                                 
 dense_20 (Dense)            (None, 1020)              3122220   
                                                                 
=================================================================
Total params: 10,016,395
Trainable params: 10,002,933
Non-trainable params: 13,462
_________________________________________________________________
Encoder
Model: "model_19"
_________________________________________________________________
 Layer (type)                Output Shape              Param #   
=================================================================
 input_20 (InputLayer)       [(None, 1020)]            0         
                                                                 
 input_19 (InputLayer)       multiple                  0         
                                                                 
 dense_18 (Dense)            (None, 3060)              3124260   
                                                                 
 batch_normalization_18 (Bat  (None, 3060)             12240     
 chNormalization)                                                
                                                                 
 re_lu_18 (ReLU)             (None, 3060)              0         
                                                                 
 bottleneck (Dense)          (None, 611)               1870271   
                                                                 
=================================================================
Total params: 5,006,771
Trainable params: 5,000,651
Non-trainable params: 6,120
_________________________________________________________________
Decoder
Model: "model_20"
_________________________________________________________________
 Layer (type)                Output Shape              Param #   
=================================================================
 input_21 (InputLayer)       [(None, 611)]             0         
                                                                 
 batch_normalization_19 (Bat  (None, 611)              2444      
 chNormalization)                                                
                                                                 
 re_lu_19 (ReLU)             (None, 611)               0         
                                                                 
 dense_19 (Dense)            (None, 3060)              1872720   
                                                                 
 batch_normalization_20 (Bat  (None, 3060)             12240     
 chNormalization)                                                
                                                                 
 re_lu_20 (ReLU)             (None, 3060)              0         
                                                                 
 dense_20 (Dense)            (None, 1020)              3122220   
                                                                 
=================================================================
Total params: 5,009,624
Trainable params: 5,002,282
Non-trainable params: 7,342
_________________________________________________________________
Model: "model_21"
_________________________________________________________________
 Layer (type)                Output Shape              Param #   
=================================================================
 input_22 (InputLayer)       [(None, 1020)]            0         
                                                                 
 dense_21 (Dense)            (None, 3060)              3124260   
                                                                 
 batch_normalization_21 (Bat  (None, 3060)             12240     
 chNormalization)                                                
                                                                 
 re_lu_21 (ReLU)             (None, 3060)              0         
                                                                 
 bottleneck (Dense)          (None, 560)               1714160   
                                                                 
 batch_normalization_22 (Bat  (None, 560)              2240      
 chNormalization)                                                
                                                                 
 re_lu_22 (ReLU)             (None, 560)               0         
                                                                 
 dense_22 (Dense)            (None, 3060)              1716660   
                                                                 
 batch_normalization_23 (Bat  (None, 3060)             12240     
 chNormalization)                                                
                                                                 
 re_lu_23 (ReLU)             (None, 3060)              0         
                                                                 
 dense_23 (Dense)            (None, 1020)              3122220   
                                                                 
=================================================================
Total params: 9,704,020
Trainable params: 9,690,660
Non-trainable params: 13,360
_________________________________________________________________
Epoch 1/400
1065/1065 - 4s - loss: 0.0257 - val_loss: 0.0172 - 4s/epoch - 3ms/step
Epoch 2/400
1065/1065 - 3s - loss: 0.0102 - val_loss: 0.0130 - 3s/epoch - 3ms/step
…
 1/60 [..............................] - ETA: 5s53/60 [=========================>....] - ETA: 0s60/60 [==============================] - 0s 980us/step
correlation 0.0018940605790245069
cosine 0.001292229099589673
MAE: 0.008910685700609865
RMSE: 0.052577972296666
r2: 0.9205462083717466
RMSE zero-vector: 0.34573518857430263
Full AutoEncoder
Model: "model_21"
_________________________________________________________________
 Layer (type)                Output Shape              Param #   
=================================================================
 input_22 (InputLayer)       multiple                  0         
                                                                 
 dense_21 (Dense)            (None, 3060)              3124260   
                                                                 
 batch_normalization_21 (Bat  (None, 3060)             12240     
 chNormalization)                                                
                                                                 
 re_lu_21 (ReLU)             (None, 3060)              0         
                                                                 
 bottleneck (Dense)          (None, 560)               1714160   
                                                                 
 batch_normalization_22 (Bat  (None, 560)              2240      
 chNormalization)                                                
                                                                 
 re_lu_22 (ReLU)             (None, 560)               0         
                                                                 
 dense_22 (Dense)            (None, 3060)              1716660   
                                                                 
 batch_normalization_23 (Bat  (None, 3060)             12240     
 chNormalization)                                                
                                                                 
 re_lu_23 (ReLU)             (None, 3060)              0         
                                                                 
 dense_23 (Dense)            (None, 1020)              3122220   
                                                                 
=================================================================
Total params: 9,704,020
Trainable params: 9,690,660
Non-trainable params: 13,360
_________________________________________________________________
Encoder
Model: "model_22"
_________________________________________________________________
 Layer (type)                Output Shape              Param #   
=================================================================
 input_23 (InputLayer)       [(None, 1020)]            0         
                                                                 
 input_22 (InputLayer)       multiple                  0         
                                                                 
 dense_21 (Dense)            (None, 3060)              3124260   
                                                                 
 batch_normalization_21 (Bat  (None, 3060)             12240     
 chNormalization)                                                
                                                                 
 re_lu_21 (ReLU)             (None, 3060)              0         
                                                                 
 bottleneck (Dense)          (None, 560)               1714160   
                                                                 
=================================================================
Total params: 4,850,660
Trainable params: 4,844,540
Non-trainable params: 6,120
_________________________________________________________________
Decoder
Model: "model_23"
_________________________________________________________________
 Layer (type)                Output Shape              Param #   
=================================================================
 input_24 (InputLayer)       [(None, 560)]             0         
                                                                 
 batch_normalization_22 (Bat  (None, 560)              2240      
 chNormalization)                                                
                                                                 
 re_lu_22 (ReLU)             (None, 560)               0         
                                                                 
 dense_22 (Dense)            (None, 3060)              1716660   
                                                                 
 batch_normalization_23 (Bat  (None, 3060)             12240     
 chNormalization)                                                
                                                                 
 re_lu_23 (ReLU)             (None, 3060)              0         
                                                                 
 dense_23 (Dense)            (None, 1020)              3122220   
                                                                 
=================================================================
Total params: 4,853,360
Trainable params: 4,846,120
Non-trainable params: 7,240
_________________________________________________________________
Model: "model_24"
_________________________________________________________________
 Layer (type)                Output Shape              Param #   
=================================================================
 input_25 (InputLayer)       [(None, 1020)]            0         
                                                                 
 dense_24 (Dense)            (None, 3060)              3124260   
                                                                 
 batch_normalization_24 (Bat  (None, 3060)             12240     
 chNormalization)                                                
                                                                 
 re_lu_24 (ReLU)             (None, 3060)              0         
                                                                 
 bottleneck (Dense)          (None, 509)               1558049   
                                                                 
 batch_normalization_25 (Bat  (None, 509)              2036      
 chNormalization)                                                
                                                                 
 re_lu_25 (ReLU)             (None, 509)               0         
                                                                 
 dense_25 (Dense)            (None, 3060)              1560600   
                                                                 
 batch_normalization_26 (Bat  (None, 3060)             12240     
 chNormalization)                                                
                                                                 
 re_lu_26 (ReLU)             (None, 3060)              0         
                                                                 
 dense_26 (Dense)            (None, 1020)              3122220   
                                                                 
=================================================================
Total params: 9,391,645
Trainable params: 9,378,387
Non-trainable params: 13,258
_________________________________________________________________
Epoch 1/400
1065/1065 - 4s - loss: 0.0252 - val_loss: 0.0208 - 4s/epoch - 3ms/step
Epoch 2/400
1065/1065 - 3s - loss: 0.0101 - val_loss: 0.0131 - 3s/epoch - 3ms/step
…
 1/60 [..............................] - ETA: 5s52/60 [=========================>....] - ETA: 0s60/60 [==============================] - 0s 994us/step
correlation 0.0024374878626367107
cosine 0.0016586187674864994
MAE: 0.009798105351202312
RMSE: 0.045654765191945605
r2: 0.9401538319884128
RMSE zero-vector: 0.34573518857430263
Full AutoEncoder
Model: "model_24"
_________________________________________________________________
 Layer (type)                Output Shape              Param #   
=================================================================
 input_25 (InputLayer)       multiple                  0         
                                                                 
 dense_24 (Dense)            (None, 3060)              3124260   
                                                                 
 batch_normalization_24 (Bat  (None, 3060)             12240     
 chNormalization)                                                
                                                                 
 re_lu_24 (ReLU)             (None, 3060)              0         
                                                                 
 bottleneck (Dense)          (None, 509)               1558049   
                                                                 
 batch_normalization_25 (Bat  (None, 509)              2036      
 chNormalization)                                                
                                                                 
 re_lu_25 (ReLU)             (None, 509)               0         
                                                                 
 dense_25 (Dense)            (None, 3060)              1560600   
                                                                 
 batch_normalization_26 (Bat  (None, 3060)             12240     
 chNormalization)                                                
                                                                 
 re_lu_26 (ReLU)             (None, 3060)              0         
                                                                 
 dense_26 (Dense)            (None, 1020)              3122220   
                                                                 
=================================================================
Total params: 9,391,645
Trainable params: 9,378,387
Non-trainable params: 13,258
_________________________________________________________________
Encoder
Model: "model_25"
_________________________________________________________________
 Layer (type)                Output Shape              Param #   
=================================================================
 input_26 (InputLayer)       [(None, 1020)]            0         
                                                                 
 input_25 (InputLayer)       multiple                  0         
                                                                 
 dense_24 (Dense)            (None, 3060)              3124260   
                                                                 
 batch_normalization_24 (Bat  (None, 3060)             12240     
 chNormalization)                                                
                                                                 
 re_lu_24 (ReLU)             (None, 3060)              0         
                                                                 
 bottleneck (Dense)          (None, 509)               1558049   
                                                                 
=================================================================
Total params: 4,694,549
Trainable params: 4,688,429
Non-trainable params: 6,120
_________________________________________________________________
Decoder
Model: "model_26"
_________________________________________________________________
 Layer (type)                Output Shape              Param #   
=================================================================
 input_27 (InputLayer)       [(None, 509)]             0         
                                                                 
 batch_normalization_25 (Bat  (None, 509)              2036      
 chNormalization)                                                
                                                                 
 re_lu_25 (ReLU)             (None, 509)               0         
                                                                 
 dense_25 (Dense)            (None, 3060)              1560600   
                                                                 
 batch_normalization_26 (Bat  (None, 3060)             12240     
 chNormalization)                                                
                                                                 
 re_lu_26 (ReLU)             (None, 3060)              0         
                                                                 
 dense_26 (Dense)            (None, 1020)              3122220   
                                                                 
=================================================================
Total params: 4,697,096
Trainable params: 4,689,958
Non-trainable params: 7,138
_________________________________________________________________
Model: "model_27"
_________________________________________________________________
 Layer (type)                Output Shape              Param #   
=================================================================
 input_28 (InputLayer)       [(None, 1020)]            0         
                                                                 
 dense_27 (Dense)            (None, 3060)              3124260   
                                                                 
 batch_normalization_27 (Bat  (None, 3060)             12240     
 chNormalization)                                                
                                                                 
 re_lu_27 (ReLU)             (None, 3060)              0         
                                                                 
 bottleneck (Dense)          (None, 458)               1401938   
                                                                 
 batch_normalization_28 (Bat  (None, 458)              1832      
 chNormalization)                                                
                                                                 
 re_lu_28 (ReLU)             (None, 458)               0         
                                                                 
 dense_28 (Dense)            (None, 3060)              1404540   
                                                                 
 batch_normalization_29 (Bat  (None, 3060)             12240     
 chNormalization)                                                
                                                                 
 re_lu_29 (ReLU)             (None, 3060)              0         
                                                                 
 dense_29 (Dense)            (None, 1020)              3122220   
                                                                 
=================================================================
Total params: 9,079,270
Trainable params: 9,066,114
Non-trainable params: 13,156
_________________________________________________________________
Epoch 1/400
1065/1065 - 4s - loss: 0.0265 - val_loss: 0.0176 - 4s/epoch - 3ms/step
Epoch 2/400
1065/1065 - 3s - loss: 0.0107 - val_loss: 0.0132 - 3s/epoch - 3ms/step
…
 1/60 [..............................] - ETA: 5s52/60 [=========================>....] - ETA: 0s60/60 [==============================] - 0s 989us/step
correlation 0.00247580743203444
cosine 0.0016965493700743562
MAE: 0.009589470984509515
RMSE: 0.05215672197861754
r2: 0.922017961317874
RMSE zero-vector: 0.34573518857430263
Full AutoEncoder
Model: "model_27"
_________________________________________________________________
 Layer (type)                Output Shape              Param #   
=================================================================
 input_28 (InputLayer)       multiple                  0         
                                                                 
 dense_27 (Dense)            (None, 3060)              3124260   
                                                                 
 batch_normalization_27 (Bat  (None, 3060)             12240     
 chNormalization)                                                
                                                                 
 re_lu_27 (ReLU)             (None, 3060)              0         
                                                                 
 bottleneck (Dense)          (None, 458)               1401938   
                                                                 
 batch_normalization_28 (Bat  (None, 458)              1832      
 chNormalization)                                                
                                                                 
 re_lu_28 (ReLU)             (None, 458)               0         
                                                                 
 dense_28 (Dense)            (None, 3060)              1404540   
                                                                 
 batch_normalization_29 (Bat  (None, 3060)             12240     
 chNormalization)                                                
                                                                 
 re_lu_29 (ReLU)             (None, 3060)              0         
                                                                 
 dense_29 (Dense)            (None, 1020)              3122220   
                                                                 
=================================================================
Total params: 9,079,270
Trainable params: 9,066,114
Non-trainable params: 13,156
_________________________________________________________________
Encoder
Model: "model_28"
_________________________________________________________________
 Layer (type)                Output Shape              Param #   
=================================================================
 input_29 (InputLayer)       [(None, 1020)]            0         
                                                                 
 input_28 (InputLayer)       multiple                  0         
                                                                 
 dense_27 (Dense)            (None, 3060)              3124260   
                                                                 
 batch_normalization_27 (Bat  (None, 3060)             12240     
 chNormalization)                                                
                                                                 
 re_lu_27 (ReLU)             (None, 3060)              0         
                                                                 
 bottleneck (Dense)          (None, 458)               1401938   
                                                                 
=================================================================
Total params: 4,538,438
Trainable params: 4,532,318
Non-trainable params: 6,120
_________________________________________________________________
Decoder
Model: "model_29"
_________________________________________________________________
 Layer (type)                Output Shape              Param #   
=================================================================
 input_30 (InputLayer)       [(None, 458)]             0         
                                                                 
 batch_normalization_28 (Bat  (None, 458)              1832      
 chNormalization)                                                
                                                                 
 re_lu_28 (ReLU)             (None, 458)               0         
                                                                 
 dense_28 (Dense)            (None, 3060)              1404540   
                                                                 
 batch_normalization_29 (Bat  (None, 3060)             12240     
 chNormalization)                                                
                                                                 
 re_lu_29 (ReLU)             (None, 3060)              0         
                                                                 
 dense_29 (Dense)            (None, 1020)              3122220   
                                                                 
=================================================================
Total params: 4,540,832
Trainable params: 4,533,796
Non-trainable params: 7,036
_________________________________________________________________
Model: "model_30"
_________________________________________________________________
 Layer (type)                Output Shape              Param #   
=================================================================
 input_31 (InputLayer)       [(None, 1020)]            0         
                                                                 
 dense_30 (Dense)            (None, 3060)              3124260   
                                                                 
 batch_normalization_30 (Bat  (None, 3060)             12240     
 chNormalization)                                                
                                                                 
 re_lu_30 (ReLU)             (None, 3060)              0         
                                                                 
 bottleneck (Dense)          (None, 407)               1245827   
                                                                 
 batch_normalization_31 (Bat  (None, 407)              1628      
 chNormalization)                                                
                                                                 
 re_lu_31 (ReLU)             (None, 407)               0         
                                                                 
 dense_31 (Dense)            (None, 3060)              1248480   
                                                                 
 batch_normalization_32 (Bat  (None, 3060)             12240     
 chNormalization)                                                
                                                                 
 re_lu_32 (ReLU)             (None, 3060)              0         
                                                                 
 dense_32 (Dense)            (None, 1020)              3122220   
                                                                 
=================================================================
Total params: 8,766,895
Trainable params: 8,753,841
Non-trainable params: 13,054
_________________________________________________________________
Epoch 1/400
1065/1065 - 4s - loss: 0.0267 - val_loss: 0.0167 - 4s/epoch - 3ms/step
Epoch 2/400
1065/1065 - 3s - loss: 0.0103 - val_loss: 0.0158 - 3s/epoch - 3ms/step
…
 1/60 [..............................] - ETA: 6s52/60 [=========================>....] - ETA: 0s60/60 [==============================] - 0s 993us/step
correlation 0.0020594971915771313
cosine 0.0014026596178351811
MAE: 0.009525358911684205
RMSE: 0.052990179517238785
r2: 0.9193556572027789
RMSE zero-vector: 0.34573518857430263
Full AutoEncoder
Model: "model_30"
_________________________________________________________________
 Layer (type)                Output Shape              Param #   
=================================================================
 input_31 (InputLayer)       multiple                  0         
                                                                 
 dense_30 (Dense)            (None, 3060)              3124260   
                                                                 
 batch_normalization_30 (Bat  (None, 3060)             12240     
 chNormalization)                                                
                                                                 
 re_lu_30 (ReLU)             (None, 3060)              0         
                                                                 
 bottleneck (Dense)          (None, 407)               1245827   
                                                                 
 batch_normalization_31 (Bat  (None, 407)              1628      
 chNormalization)                                                
                                                                 
 re_lu_31 (ReLU)             (None, 407)               0         
                                                                 
 dense_31 (Dense)            (None, 3060)              1248480   
                                                                 
 batch_normalization_32 (Bat  (None, 3060)             12240     
 chNormalization)                                                
                                                                 
 re_lu_32 (ReLU)             (None, 3060)              0         
                                                                 
 dense_32 (Dense)            (None, 1020)              3122220   
                                                                 
=================================================================
Total params: 8,766,895
Trainable params: 8,753,841
Non-trainable params: 13,054
_________________________________________________________________
Encoder
Model: "model_31"
_________________________________________________________________
 Layer (type)                Output Shape              Param #   
=================================================================
 input_32 (InputLayer)       [(None, 1020)]            0         
                                                                 
 input_31 (InputLayer)       multiple                  0         
                                                                 
 dense_30 (Dense)            (None, 3060)              3124260   
                                                                 
 batch_normalization_30 (Bat  (None, 3060)             12240     
 chNormalization)                                                
                                                                 
 re_lu_30 (ReLU)             (None, 3060)              0         
                                                                 
 bottleneck (Dense)          (None, 407)               1245827   
                                                                 
=================================================================
Total params: 4,382,327
Trainable params: 4,376,207
Non-trainable params: 6,120
_________________________________________________________________
Decoder
Model: "model_32"
_________________________________________________________________
 Layer (type)                Output Shape              Param #   
=================================================================
 input_33 (InputLayer)       [(None, 407)]             0         
                                                                 
 batch_normalization_31 (Bat  (None, 407)              1628      
 chNormalization)                                                
                                                                 
 re_lu_31 (ReLU)             (None, 407)               0         
                                                                 
 dense_31 (Dense)            (None, 3060)              1248480   
                                                                 
 batch_normalization_32 (Bat  (None, 3060)             12240     
 chNormalization)                                                
                                                                 
 re_lu_32 (ReLU)             (None, 3060)              0         
                                                                 
 dense_32 (Dense)            (None, 1020)              3122220   
                                                                 
=================================================================
Total params: 4,384,568
Trainable params: 4,377,634
Non-trainable params: 6,934
_________________________________________________________________
Model: "model_33"
_________________________________________________________________
 Layer (type)                Output Shape              Param #   
=================================================================
 input_34 (InputLayer)       [(None, 1020)]            0         
                                                                 
 dense_33 (Dense)            (None, 3060)              3124260   
                                                                 
 batch_normalization_33 (Bat  (None, 3060)             12240     
 chNormalization)                                                
                                                                 
 re_lu_33 (ReLU)             (None, 3060)              0         
                                                                 
 bottleneck (Dense)          (None, 356)               1089716   
                                                                 
 batch_normalization_34 (Bat  (None, 356)              1424      
 chNormalization)                                                
                                                                 
 re_lu_34 (ReLU)             (None, 356)               0         
                                                                 
 dense_34 (Dense)            (None, 3060)              1092420   
                                                                 
 batch_normalization_35 (Bat  (None, 3060)             12240     
 chNormalization)                                                
                                                                 
 re_lu_35 (ReLU)             (None, 3060)              0         
                                                                 
 dense_35 (Dense)            (None, 1020)              3122220   
                                                                 
=================================================================
Total params: 8,454,520
Trainable params: 8,441,568
Non-trainable params: 12,952
_________________________________________________________________
Epoch 1/400
1065/1065 - 4s - loss: 0.0259 - val_loss: 0.0182 - 4s/epoch - 3ms/step
Epoch 2/400
1065/1065 - 3s - loss: 0.0108 - val_loss: 0.0123 - 3s/epoch - 3ms/step
…
 1/60 [..............................] - ETA: 5s52/60 [=========================>....] - ETA: 0s60/60 [==============================] - 0s 982us/step
correlation 0.0027057581172696566
cosine 0.001861737188540209
MAE: 0.010481641426741637
RMSE: 0.0462490239605545
r2: 0.9394794421939803
RMSE zero-vector: 0.34573518857430263
Full AutoEncoder
Model: "model_33"
_________________________________________________________________
 Layer (type)                Output Shape              Param #   
=================================================================
 input_34 (InputLayer)       multiple                  0         
                                                                 
 dense_33 (Dense)            (None, 3060)              3124260   
                                                                 
 batch_normalization_33 (Bat  (None, 3060)             12240     
 chNormalization)                                                
                                                                 
 re_lu_33 (ReLU)             (None, 3060)              0         
                                                                 
 bottleneck (Dense)          (None, 356)               1089716   
                                                                 
 batch_normalization_34 (Bat  (None, 356)              1424      
 chNormalization)                                                
                                                                 
 re_lu_34 (ReLU)             (None, 356)               0         
                                                                 
 dense_34 (Dense)            (None, 3060)              1092420   
                                                                 
 batch_normalization_35 (Bat  (None, 3060)             12240     
 chNormalization)                                                
                                                                 
 re_lu_35 (ReLU)             (None, 3060)              0         
                                                                 
 dense_35 (Dense)            (None, 1020)              3122220   
                                                                 
=================================================================
Total params: 8,454,520
Trainable params: 8,441,568
Non-trainable params: 12,952
_________________________________________________________________
Encoder
Model: "model_34"
_________________________________________________________________
 Layer (type)                Output Shape              Param #   
=================================================================
 input_35 (InputLayer)       [(None, 1020)]            0         
                                                                 
 input_34 (InputLayer)       multiple                  0         
                                                                 
 dense_33 (Dense)            (None, 3060)              3124260   
                                                                 
 batch_normalization_33 (Bat  (None, 3060)             12240     
 chNormalization)                                                
                                                                 
 re_lu_33 (ReLU)             (None, 3060)              0         
                                                                 
 bottleneck (Dense)          (None, 356)               1089716   
                                                                 
=================================================================
Total params: 4,226,216
Trainable params: 4,220,096
Non-trainable params: 6,120
_________________________________________________________________
Decoder
Model: "model_35"
_________________________________________________________________
 Layer (type)                Output Shape              Param #   
=================================================================
 input_36 (InputLayer)       [(None, 356)]             0         
                                                                 
 batch_normalization_34 (Bat  (None, 356)              1424      
 chNormalization)                                                
                                                                 
 re_lu_34 (ReLU)             (None, 356)               0         
                                                                 
 dense_34 (Dense)            (None, 3060)              1092420   
                                                                 
 batch_normalization_35 (Bat  (None, 3060)             12240     
 chNormalization)                                                
                                                                 
 re_lu_35 (ReLU)             (None, 3060)              0         
                                                                 
 dense_35 (Dense)            (None, 1020)              3122220   
                                                                 
=================================================================
Total params: 4,228,304
Trainable params: 4,221,472
Non-trainable params: 6,832
_________________________________________________________________
Model: "model_36"
_________________________________________________________________
 Layer (type)                Output Shape              Param #   
=================================================================
 input_37 (InputLayer)       [(None, 1020)]            0         
                                                                 
 dense_36 (Dense)            (None, 3060)              3124260   
                                                                 
 batch_normalization_36 (Bat  (None, 3060)             12240     
 chNormalization)                                                
                                                                 
 re_lu_36 (ReLU)             (None, 3060)              0         
                                                                 
 bottleneck (Dense)          (None, 305)               933605    
                                                                 
 batch_normalization_37 (Bat  (None, 305)              1220      
 chNormalization)                                                
                                                                 
 re_lu_37 (ReLU)             (None, 305)               0         
                                                                 
 dense_37 (Dense)            (None, 3060)              936360    
                                                                 
 batch_normalization_38 (Bat  (None, 3060)             12240     
 chNormalization)                                                
                                                                 
 re_lu_38 (ReLU)             (None, 3060)              0         
                                                                 
 dense_38 (Dense)            (None, 1020)              3122220   
                                                                 
=================================================================
Total params: 8,142,145
Trainable params: 8,129,295
Non-trainable params: 12,850
_________________________________________________________________
Epoch 1/400
1065/1065 - 3s - loss: 0.0266 - val_loss: 0.0190 - 3s/epoch - 3ms/step
Epoch 2/400
1065/1065 - 3s - loss: 0.0105 - val_loss: 0.0147 - 3s/epoch - 3ms/step
…
 1/60 [..............................] - ETA: 5s52/60 [=========================>....] - ETA: 0s60/60 [==============================] - 0s 995us/step
correlation 0.002426220674257259
cosine 0.0016496322260743216
MAE: 0.010174398888632244
RMSE: 0.04734154672554853
r2: 0.9355878977534021
RMSE zero-vector: 0.34573518857430263
Full AutoEncoder
Model: "model_36"
_________________________________________________________________
 Layer (type)                Output Shape              Param #   
=================================================================
 input_37 (InputLayer)       multiple                  0         
                                                                 
 dense_36 (Dense)            (None, 3060)              3124260   
                                                                 
 batch_normalization_36 (Bat  (None, 3060)             12240     
 chNormalization)                                                
                                                                 
 re_lu_36 (ReLU)             (None, 3060)              0         
                                                                 
 bottleneck (Dense)          (None, 305)               933605    
                                                                 
 batch_normalization_37 (Bat  (None, 305)              1220      
 chNormalization)                                                
                                                                 
 re_lu_37 (ReLU)             (None, 305)               0         
                                                                 
 dense_37 (Dense)            (None, 3060)              936360    
                                                                 
 batch_normalization_38 (Bat  (None, 3060)             12240     
 chNormalization)                                                
                                                                 
 re_lu_38 (ReLU)             (None, 3060)              0         
                                                                 
 dense_38 (Dense)            (None, 1020)              3122220   
                                                                 
=================================================================
Total params: 8,142,145
Trainable params: 8,129,295
Non-trainable params: 12,850
_________________________________________________________________
Encoder
Model: "model_37"
_________________________________________________________________
 Layer (type)                Output Shape              Param #   
=================================================================
 input_38 (InputLayer)       [(None, 1020)]            0         
                                                                 
 input_37 (InputLayer)       multiple                  0         
                                                                 
 dense_36 (Dense)            (None, 3060)              3124260   
                                                                 
 batch_normalization_36 (Bat  (None, 3060)             12240     
 chNormalization)                                                
                                                                 
 re_lu_36 (ReLU)             (None, 3060)              0         
                                                                 
 bottleneck (Dense)          (None, 305)               933605    
                                                                 
=================================================================
Total params: 4,070,105
Trainable params: 4,063,985
Non-trainable params: 6,120
_________________________________________________________________
Decoder
Model: "model_38"
_________________________________________________________________
 Layer (type)                Output Shape              Param #   
=================================================================
 input_39 (InputLayer)       [(None, 305)]             0         
                                                                 
 batch_normalization_37 (Bat  (None, 305)              1220      
 chNormalization)                                                
                                                                 
 re_lu_37 (ReLU)             (None, 305)               0         
                                                                 
 dense_37 (Dense)            (None, 3060)              936360    
                                                                 
 batch_normalization_38 (Bat  (None, 3060)             12240     
 chNormalization)                                                
                                                                 
 re_lu_38 (ReLU)             (None, 3060)              0         
                                                                 
 dense_38 (Dense)            (None, 1020)              3122220   
                                                                 
=================================================================
Total params: 4,072,040
Trainable params: 4,065,310
Non-trainable params: 6,730
_________________________________________________________________
Model: "model_39"
_________________________________________________________________
 Layer (type)                Output Shape              Param #   
=================================================================
 input_40 (InputLayer)       [(None, 1020)]            0         
                                                                 
 dense_39 (Dense)            (None, 3060)              3124260   
                                                                 
 batch_normalization_39 (Bat  (None, 3060)             12240     
 chNormalization)                                                
                                                                 
 re_lu_39 (ReLU)             (None, 3060)              0         
                                                                 
 bottleneck (Dense)          (None, 254)               777494    
                                                                 
 batch_normalization_40 (Bat  (None, 254)              1016      
 chNormalization)                                                
                                                                 
 re_lu_40 (ReLU)             (None, 254)               0         
                                                                 
 dense_40 (Dense)            (None, 3060)              780300    
                                                                 
 batch_normalization_41 (Bat  (None, 3060)             12240     
 chNormalization)                                                
                                                                 
 re_lu_41 (ReLU)             (None, 3060)              0         
                                                                 
 dense_41 (Dense)            (None, 1020)              3122220   
                                                                 
=================================================================
Total params: 7,829,770
Trainable params: 7,817,022
Non-trainable params: 12,748
_________________________________________________________________
Epoch 1/400
1065/1065 - 3s - loss: 0.0266 - val_loss: 0.0187 - 3s/epoch - 3ms/step
Epoch 2/400
1065/1065 - 3s - loss: 0.0106 - val_loss: 0.0141 - 3s/epoch - 2ms/step
…
 1/60 [..............................] - ETA: 4s52/60 [=========================>....] - ETA: 0s60/60 [==============================] - 0s 989us/step
correlation 0.002639774697743235
cosine 0.0018124948068995387
MAE: 0.010283858120418425
RMSE: 0.06186734472950906
r2: 0.8900750972305032
RMSE zero-vector: 0.34573518857430263
Full AutoEncoder
Model: "model_39"
_________________________________________________________________
 Layer (type)                Output Shape              Param #   
=================================================================
 input_40 (InputLayer)       multiple                  0         
                                                                 
 dense_39 (Dense)            (None, 3060)              3124260   
                                                                 
 batch_normalization_39 (Bat  (None, 3060)             12240     
 chNormalization)                                                
                                                                 
 re_lu_39 (ReLU)             (None, 3060)              0         
                                                                 
 bottleneck (Dense)          (None, 254)               777494    
                                                                 
 batch_normalization_40 (Bat  (None, 254)              1016      
 chNormalization)                                                
                                                                 
 re_lu_40 (ReLU)             (None, 254)               0         
                                                                 
 dense_40 (Dense)            (None, 3060)              780300    
                                                                 
 batch_normalization_41 (Bat  (None, 3060)             12240     
 chNormalization)                                                
                                                                 
 re_lu_41 (ReLU)             (None, 3060)              0         
                                                                 
 dense_41 (Dense)            (None, 1020)              3122220   
                                                                 
=================================================================
Total params: 7,829,770
Trainable params: 7,817,022
Non-trainable params: 12,748
_________________________________________________________________
Encoder
Model: "model_40"
_________________________________________________________________
 Layer (type)                Output Shape              Param #   
=================================================================
 input_41 (InputLayer)       [(None, 1020)]            0         
                                                                 
 input_40 (InputLayer)       multiple                  0         
                                                                 
 dense_39 (Dense)            (None, 3060)              3124260   
                                                                 
 batch_normalization_39 (Bat  (None, 3060)             12240     
 chNormalization)                                                
                                                                 
 re_lu_39 (ReLU)             (None, 3060)              0         
                                                                 
 bottleneck (Dense)          (None, 254)               777494    
                                                                 
=================================================================
Total params: 3,913,994
Trainable params: 3,907,874
Non-trainable params: 6,120
_________________________________________________________________
Decoder
Model: "model_41"
_________________________________________________________________
 Layer (type)                Output Shape              Param #   
=================================================================
 input_42 (InputLayer)       [(None, 254)]             0         
                                                                 
 batch_normalization_40 (Bat  (None, 254)              1016      
 chNormalization)                                                
                                                                 
 re_lu_40 (ReLU)             (None, 254)               0         
                                                                 
 dense_40 (Dense)            (None, 3060)              780300    
                                                                 
 batch_normalization_41 (Bat  (None, 3060)             12240     
 chNormalization)                                                
                                                                 
 re_lu_41 (ReLU)             (None, 3060)              0         
                                                                 
 dense_41 (Dense)            (None, 1020)              3122220   
                                                                 
=================================================================
Total params: 3,915,776
Trainable params: 3,909,148
Non-trainable params: 6,628
_________________________________________________________________
Model: "model_42"
_________________________________________________________________
 Layer (type)                Output Shape              Param #   
=================================================================
 input_43 (InputLayer)       [(None, 1020)]            0         
                                                                 
 dense_42 (Dense)            (None, 3060)              3124260   
                                                                 
 batch_normalization_42 (Bat  (None, 3060)             12240     
 chNormalization)                                                
                                                                 
 re_lu_42 (ReLU)             (None, 3060)              0         
                                                                 
 bottleneck (Dense)          (None, 203)               621383    
                                                                 
 batch_normalization_43 (Bat  (None, 203)              812       
 chNormalization)                                                
                                                                 
 re_lu_43 (ReLU)             (None, 203)               0         
                                                                 
 dense_43 (Dense)            (None, 3060)              624240    
                                                                 
 batch_normalization_44 (Bat  (None, 3060)             12240     
 chNormalization)                                                
                                                                 
 re_lu_44 (ReLU)             (None, 3060)              0         
                                                                 
 dense_44 (Dense)            (None, 1020)              3122220   
                                                                 
=================================================================
Total params: 7,517,395
Trainable params: 7,504,749
Non-trainable params: 12,646
_________________________________________________________________
Epoch 1/400
1065/1065 - 3s - loss: 0.0274 - val_loss: 0.0222 - 3s/epoch - 3ms/step
Epoch 2/400
1065/1065 - 3s - loss: 0.0108 - val_loss: 0.0130 - 3s/epoch - 2ms/step
…
 1/60 [..............................] - ETA: 4s53/60 [=========================>....] - ETA: 0s60/60 [==============================] - 0s 977us/step
correlation 0.002748073172194585
cosine 0.0018626320195382266
MAE: 0.010886694255745935
RMSE: 0.08203188036879198
r2: 0.8151381228094747
RMSE zero-vector: 0.34573518857430263
Full AutoEncoder
Model: "model_42"
_________________________________________________________________
 Layer (type)                Output Shape              Param #   
=================================================================
 input_43 (InputLayer)       multiple                  0         
                                                                 
 dense_42 (Dense)            (None, 3060)              3124260   
                                                                 
 batch_normalization_42 (Bat  (None, 3060)             12240     
 chNormalization)                                                
                                                                 
 re_lu_42 (ReLU)             (None, 3060)              0         
                                                                 
 bottleneck (Dense)          (None, 203)               621383    
                                                                 
 batch_normalization_43 (Bat  (None, 203)              812       
 chNormalization)                                                
                                                                 
 re_lu_43 (ReLU)             (None, 203)               0         
                                                                 
 dense_43 (Dense)            (None, 3060)              624240    
                                                                 
 batch_normalization_44 (Bat  (None, 3060)             12240     
 chNormalization)                                                
                                                                 
 re_lu_44 (ReLU)             (None, 3060)              0         
                                                                 
 dense_44 (Dense)            (None, 1020)              3122220   
                                                                 
=================================================================
Total params: 7,517,395
Trainable params: 7,504,749
Non-trainable params: 12,646
_________________________________________________________________
Encoder
Model: "model_43"
_________________________________________________________________
 Layer (type)                Output Shape              Param #   
=================================================================
 input_44 (InputLayer)       [(None, 1020)]            0         
                                                                 
 input_43 (InputLayer)       multiple                  0         
                                                                 
 dense_42 (Dense)            (None, 3060)              3124260   
                                                                 
 batch_normalization_42 (Bat  (None, 3060)             12240     
 chNormalization)                                                
                                                                 
 re_lu_42 (ReLU)             (None, 3060)              0         
                                                                 
 bottleneck (Dense)          (None, 203)               621383    
                                                                 
=================================================================
Total params: 3,757,883
Trainable params: 3,751,763
Non-trainable params: 6,120
_________________________________________________________________
Decoder
Model: "model_44"
_________________________________________________________________
 Layer (type)                Output Shape              Param #   
=================================================================
 input_45 (InputLayer)       [(None, 203)]             0         
                                                                 
 batch_normalization_43 (Bat  (None, 203)              812       
 chNormalization)                                                
                                                                 
 re_lu_43 (ReLU)             (None, 203)               0         
                                                                 
 dense_43 (Dense)            (None, 3060)              624240    
                                                                 
 batch_normalization_44 (Bat  (None, 3060)             12240     
 chNormalization)                                                
                                                                 
 re_lu_44 (ReLU)             (None, 3060)              0         
                                                                 
 dense_44 (Dense)            (None, 1020)              3122220   
                                                                 
=================================================================
Total params: 3,759,512
Trainable params: 3,752,986
Non-trainable params: 6,526
_________________________________________________________________
Model: "model_45"
_________________________________________________________________
 Layer (type)                Output Shape              Param #   
=================================================================
 input_46 (InputLayer)       [(None, 1020)]            0         
                                                                 
 dense_45 (Dense)            (None, 3060)              3124260   
                                                                 
 batch_normalization_45 (Bat  (None, 3060)             12240     
 chNormalization)                                                
                                                                 
 re_lu_45 (ReLU)             (None, 3060)              0         
                                                                 
 bottleneck (Dense)          (None, 152)               465272    
                                                                 
 batch_normalization_46 (Bat  (None, 152)              608       
 chNormalization)                                                
                                                                 
 re_lu_46 (ReLU)             (None, 152)               0         
                                                                 
 dense_46 (Dense)            (None, 3060)              468180    
                                                                 
 batch_normalization_47 (Bat  (None, 3060)             12240     
 chNormalization)                                                
                                                                 
 re_lu_47 (ReLU)             (None, 3060)              0         
                                                                 
 dense_47 (Dense)            (None, 1020)              3122220   
                                                                 
=================================================================
Total params: 7,205,020
Trainable params: 7,192,476
Non-trainable params: 12,544
_________________________________________________________________
Epoch 1/400
1065/1065 - 3s - loss: 0.0265 - val_loss: 0.0199 - 3s/epoch - 3ms/step
Epoch 2/400
1065/1065 - 3s - loss: 0.0113 - val_loss: 0.0148 - 3s/epoch - 2ms/step
…
 1/60 [..............................] - ETA: 4s52/60 [=========================>....] - ETA: 0s60/60 [==============================] - 0s 985us/step
correlation 0.0036330687581454897
cosine 0.00249405915765214
MAE: 0.013025488534279449
RMSE: 0.10834732606544863
r2: 0.6642069505585626
RMSE zero-vector: 0.34573518857430263
Full AutoEncoder
Model: "model_45"
_________________________________________________________________
 Layer (type)                Output Shape              Param #   
=================================================================
 input_46 (InputLayer)       multiple                  0         
                                                                 
 dense_45 (Dense)            (None, 3060)              3124260   
                                                                 
 batch_normalization_45 (Bat  (None, 3060)             12240     
 chNormalization)                                                
                                                                 
 re_lu_45 (ReLU)             (None, 3060)              0         
                                                                 
 bottleneck (Dense)          (None, 152)               465272    
                                                                 
 batch_normalization_46 (Bat  (None, 152)              608       
 chNormalization)                                                
                                                                 
 re_lu_46 (ReLU)             (None, 152)               0         
                                                                 
 dense_46 (Dense)            (None, 3060)              468180    
                                                                 
 batch_normalization_47 (Bat  (None, 3060)             12240     
 chNormalization)                                                
                                                                 
 re_lu_47 (ReLU)             (None, 3060)              0         
                                                                 
 dense_47 (Dense)            (None, 1020)              3122220   
                                                                 
=================================================================
Total params: 7,205,020
Trainable params: 7,192,476
Non-trainable params: 12,544
_________________________________________________________________
Encoder
Model: "model_46"
_________________________________________________________________
 Layer (type)                Output Shape              Param #   
=================================================================
 input_47 (InputLayer)       [(None, 1020)]            0         
                                                                 
 input_46 (InputLayer)       multiple                  0         
                                                                 
 dense_45 (Dense)            (None, 3060)              3124260   
                                                                 
 batch_normalization_45 (Bat  (None, 3060)             12240     
 chNormalization)                                                
                                                                 
 re_lu_45 (ReLU)             (None, 3060)              0         
                                                                 
 bottleneck (Dense)          (None, 152)               465272    
                                                                 
=================================================================
Total params: 3,601,772
Trainable params: 3,595,652
Non-trainable params: 6,120
_________________________________________________________________
Decoder
Model: "model_47"
_________________________________________________________________
 Layer (type)                Output Shape              Param #   
=================================================================
 input_48 (InputLayer)       [(None, 152)]             0         
                                                                 
 batch_normalization_46 (Bat  (None, 152)              608       
 chNormalization)                                                
                                                                 
 re_lu_46 (ReLU)             (None, 152)               0         
                                                                 
 dense_46 (Dense)            (None, 3060)              468180    
                                                                 
 batch_normalization_47 (Bat  (None, 3060)             12240     
 chNormalization)                                                
                                                                 
 re_lu_47 (ReLU)             (None, 3060)              0         
                                                                 
 dense_47 (Dense)            (None, 1020)              3122220   
                                                                 
=================================================================
Total params: 3,603,248
Trainable params: 3,596,824
Non-trainable params: 6,424
_________________________________________________________________
Model: "model_48"
_________________________________________________________________
 Layer (type)                Output Shape              Param #   
=================================================================
 input_49 (InputLayer)       [(None, 1020)]            0         
                                                                 
 dense_48 (Dense)            (None, 3060)              3124260   
                                                                 
 batch_normalization_48 (Bat  (None, 3060)             12240     
 chNormalization)                                                
                                                                 
 re_lu_48 (ReLU)             (None, 3060)              0         
                                                                 
 bottleneck (Dense)          (None, 101)               309161    
                                                                 
 batch_normalization_49 (Bat  (None, 101)              404       
 chNormalization)                                                
                                                                 
 re_lu_49 (ReLU)             (None, 101)               0         
                                                                 
 dense_49 (Dense)            (None, 3060)              312120    
                                                                 
 batch_normalization_50 (Bat  (None, 3060)             12240     
 chNormalization)                                                
                                                                 
 re_lu_50 (ReLU)             (None, 3060)              0         
                                                                 
 dense_50 (Dense)            (None, 1020)              3122220   
                                                                 
=================================================================
Total params: 6,892,645
Trainable params: 6,880,203
Non-trainable params: 12,442
_________________________________________________________________
Epoch 1/400
1065/1065 - 3s - loss: 0.0271 - val_loss: 0.0186 - 3s/epoch - 3ms/step
Epoch 2/400
1065/1065 - 3s - loss: 0.0114 - val_loss: 0.0154 - 3s/epoch - 2ms/step
…
 1/60 [..............................] - ETA: 5s53/60 [=========================>....] - ETA: 0s60/60 [==============================] - 0s 975us/step
correlation 0.00543186849501576
cosine 0.003704820982544063
MAE: 0.014089395590377762
RMSE: 0.07336058404609679
r2: 0.8453182558024585
RMSE zero-vector: 0.34573518857430263
Full AutoEncoder
Model: "model_48"
_________________________________________________________________
 Layer (type)                Output Shape              Param #   
=================================================================
 input_49 (InputLayer)       multiple                  0         
                                                                 
 dense_48 (Dense)            (None, 3060)              3124260   
                                                                 
 batch_normalization_48 (Bat  (None, 3060)             12240     
 chNormalization)                                                
                                                                 
 re_lu_48 (ReLU)             (None, 3060)              0         
                                                                 
 bottleneck (Dense)          (None, 101)               309161    
                                                                 
 batch_normalization_49 (Bat  (None, 101)              404       
 chNormalization)                                                
                                                                 
 re_lu_49 (ReLU)             (None, 101)               0         
                                                                 
 dense_49 (Dense)            (None, 3060)              312120    
                                                                 
 batch_normalization_50 (Bat  (None, 3060)             12240     
 chNormalization)                                                
                                                                 
 re_lu_50 (ReLU)             (None, 3060)              0         
                                                                 
 dense_50 (Dense)            (None, 1020)              3122220   
                                                                 
=================================================================
Total params: 6,892,645
Trainable params: 6,880,203
Non-trainable params: 12,442
_________________________________________________________________
Encoder
Model: "model_49"
_________________________________________________________________
 Layer (type)                Output Shape              Param #   
=================================================================
 input_50 (InputLayer)       [(None, 1020)]            0         
                                                                 
 input_49 (InputLayer)       multiple                  0         
                                                                 
 dense_48 (Dense)            (None, 3060)              3124260   
                                                                 
 batch_normalization_48 (Bat  (None, 3060)             12240     
 chNormalization)                                                
                                                                 
 re_lu_48 (ReLU)             (None, 3060)              0         
                                                                 
 bottleneck (Dense)          (None, 101)               309161    
                                                                 
=================================================================
Total params: 3,445,661
Trainable params: 3,439,541
Non-trainable params: 6,120
_________________________________________________________________
Decoder
Model: "model_50"
_________________________________________________________________
 Layer (type)                Output Shape              Param #   
=================================================================
 input_51 (InputLayer)       [(None, 101)]             0         
                                                                 
 batch_normalization_49 (Bat  (None, 101)              404       
 chNormalization)                                                
                                                                 
 re_lu_49 (ReLU)             (None, 101)               0         
                                                                 
 dense_49 (Dense)            (None, 3060)              312120    
                                                                 
 batch_normalization_50 (Bat  (None, 3060)             12240     
 chNormalization)                                                
                                                                 
 re_lu_50 (ReLU)             (None, 3060)              0         
                                                                 
 dense_50 (Dense)            (None, 1020)              3122220   
                                                                 
=================================================================
Total params: 3,446,984
Trainable params: 3,440,662
Non-trainable params: 6,322
_________________________________________________________________
Model: "model_51"
_________________________________________________________________
 Layer (type)                Output Shape              Param #   
=================================================================
 input_52 (InputLayer)       [(None, 1020)]            0         
                                                                 
 dense_51 (Dense)            (None, 3060)              3124260   
                                                                 
 batch_normalization_51 (Bat  (None, 3060)             12240     
 chNormalization)                                                
                                                                 
 re_lu_51 (ReLU)             (None, 3060)              0         
                                                                 
 bottleneck (Dense)          (None, 50)                153050    
                                                                 
 batch_normalization_52 (Bat  (None, 50)               200       
 chNormalization)                                                
                                                                 
 re_lu_52 (ReLU)             (None, 50)                0         
                                                                 
 dense_52 (Dense)            (None, 3060)              156060    
                                                                 
 batch_normalization_53 (Bat  (None, 3060)             12240     
 chNormalization)                                                
                                                                 
 re_lu_53 (ReLU)             (None, 3060)              0         
                                                                 
 dense_53 (Dense)            (None, 1020)              3122220   
                                                                 
=================================================================
Total params: 6,580,270
Trainable params: 6,567,930
Non-trainable params: 12,340
_________________________________________________________________
Epoch 1/400
1065/1065 - 3s - loss: 0.0280 - val_loss: 0.0222 - 3s/epoch - 3ms/step
Epoch 2/400
1065/1065 - 3s - loss: 0.0129 - val_loss: 0.0163 - 3s/epoch - 2ms/step
…
 1/60 [..............................] - ETA: 5s53/60 [=========================>....] - ETA: 0s60/60 [==============================] - 0s 978us/step
correlation 0.007212982899629103
cosine 0.005003692123055038
MAE: 0.01656093378982825
RMSE: 0.0904579618439671
r2: 0.7648101078526669
RMSE zero-vector: 0.34573518857430263
Full AutoEncoder
Model: "model_51"
_________________________________________________________________
 Layer (type)                Output Shape              Param #   
=================================================================
 input_52 (InputLayer)       multiple                  0         
                                                                 
 dense_51 (Dense)            (None, 3060)              3124260   
                                                                 
 batch_normalization_51 (Bat  (None, 3060)             12240     
 chNormalization)                                                
                                                                 
 re_lu_51 (ReLU)             (None, 3060)              0         
                                                                 
 bottleneck (Dense)          (None, 50)                153050    
                                                                 
 batch_normalization_52 (Bat  (None, 50)               200       
 chNormalization)                                                
                                                                 
 re_lu_52 (ReLU)             (None, 50)                0         
                                                                 
 dense_52 (Dense)            (None, 3060)              156060    
                                                                 
 batch_normalization_53 (Bat  (None, 3060)             12240     
 chNormalization)                                                
                                                                 
 re_lu_53 (ReLU)             (None, 3060)              0         
                                                                 
 dense_53 (Dense)            (None, 1020)              3122220   
                                                                 
=================================================================
Total params: 6,580,270
Trainable params: 6,567,930
Non-trainable params: 12,340
_________________________________________________________________
Encoder
Model: "model_52"
_________________________________________________________________
 Layer (type)                Output Shape              Param #   
=================================================================
 input_53 (InputLayer)       [(None, 1020)]            0         
                                                                 
 input_52 (InputLayer)       multiple                  0         
                                                                 
 dense_51 (Dense)            (None, 3060)              3124260   
                                                                 
 batch_normalization_51 (Bat  (None, 3060)             12240     
 chNormalization)                                                
                                                                 
 re_lu_51 (ReLU)             (None, 3060)              0         
                                                                 
 bottleneck (Dense)          (None, 50)                153050    
                                                                 
=================================================================
Total params: 3,289,550
Trainable params: 3,283,430
Non-trainable params: 6,120
_________________________________________________________________
Decoder
Model: "model_53"
_________________________________________________________________
 Layer (type)                Output Shape              Param #   
=================================================================
 input_54 (InputLayer)       [(None, 50)]              0         
                                                                 
 batch_normalization_52 (Bat  (None, 50)               200       
 chNormalization)                                                
                                                                 
 re_lu_52 (ReLU)             (None, 50)                0         
                                                                 
 dense_52 (Dense)            (None, 3060)              156060    
                                                                 
 batch_normalization_53 (Bat  (None, 3060)             12240     
 chNormalization)                                                
                                                                 
 re_lu_53 (ReLU)             (None, 3060)              0         
                                                                 
 dense_53 (Dense)            (None, 1020)              3122220   
                                                                 
=================================================================
Total params: 3,290,720
Trainable params: 3,284,500
Non-trainable params: 6,220
_________________________________________________________________
Shape of dataset to encode: (18928, 1020)
Model: "model_54"
_________________________________________________________________
 Layer (type)                Output Shape              Param #   
=================================================================
 input_55 (InputLayer)       [(None, 1020)]            0         
                                                                 
 dense_54 (Dense)            (None, 1020)              1041420   
                                                                 
 batch_normalization_54 (Bat  (None, 1020)             4080      
 chNormalization)                                                
                                                                 
 re_lu_54 (ReLU)             (None, 1020)              0         
                                                                 
 bottleneck (Dense)          (None, 918)               937278    
                                                                 
 batch_normalization_55 (Bat  (None, 918)              3672      
 chNormalization)                                                
                                                                 
 re_lu_55 (ReLU)             (None, 918)               0         
                                                                 
 dense_55 (Dense)            (None, 1020)              937380    
                                                                 
 batch_normalization_56 (Bat  (None, 1020)             4080      
 chNormalization)                                                
                                                                 
 re_lu_56 (ReLU)             (None, 1020)              0         
                                                                 
 dense_56 (Dense)            (None, 1020)              1041420   
                                                                 
=================================================================
Total params: 3,969,330
Trainable params: 3,963,414
Non-trainable params: 5,916
_________________________________________________________________
Epoch 1/400
1065/1065 - 3s - loss: 0.0191 - val_loss: 0.0149 - 3s/epoch - 3ms/step
Epoch 2/400
1065/1065 - 2s - loss: 0.0084 - val_loss: 0.0123 - 2s/epoch - 2ms/step
…
 1/60 [..............................] - ETA: 4s53/60 [=========================>....] - ETA: 0s60/60 [==============================] - 0s 977us/step
correlation 0.0025148482859041845
cosine 0.0018209527991857306
MAE: 0.009881195347584719
RMSE: 0.08543259225985073
r2: 0.7902153138744651
RMSE zero-vector: 0.34573518857430263
Full AutoEncoder
Model: "model_54"
_________________________________________________________________
 Layer (type)                Output Shape              Param #   
=================================================================
 input_55 (InputLayer)       multiple                  0         
                                                                 
 dense_54 (Dense)            (None, 1020)              1041420   
                                                                 
 batch_normalization_54 (Bat  (None, 1020)             4080      
 chNormalization)                                                
                                                                 
 re_lu_54 (ReLU)             (None, 1020)              0         
                                                                 
 bottleneck (Dense)          (None, 918)               937278    
                                                                 
 batch_normalization_55 (Bat  (None, 918)              3672      
 chNormalization)                                                
                                                                 
 re_lu_55 (ReLU)             (None, 918)               0         
                                                                 
 dense_55 (Dense)            (None, 1020)              937380    
                                                                 
 batch_normalization_56 (Bat  (None, 1020)             4080      
 chNormalization)                                                
                                                                 
 re_lu_56 (ReLU)             (None, 1020)              0         
                                                                 
 dense_56 (Dense)            (None, 1020)              1041420   
                                                                 
=================================================================
Total params: 3,969,330
Trainable params: 3,963,414
Non-trainable params: 5,916
_________________________________________________________________
Encoder
Model: "model_55"
_________________________________________________________________
 Layer (type)                Output Shape              Param #   
=================================================================
 input_56 (InputLayer)       [(None, 1020)]            0         
                                                                 
 input_55 (InputLayer)       multiple                  0         
                                                                 
 dense_54 (Dense)            (None, 1020)              1041420   
                                                                 
 batch_normalization_54 (Bat  (None, 1020)             4080      
 chNormalization)                                                
                                                                 
 re_lu_54 (ReLU)             (None, 1020)              0         
                                                                 
 bottleneck (Dense)          (None, 918)               937278    
                                                                 
=================================================================
Total params: 1,982,778
Trainable params: 1,980,738
Non-trainable params: 2,040
_________________________________________________________________
Decoder
Model: "model_56"
_________________________________________________________________
 Layer (type)                Output Shape              Param #   
=================================================================
 input_57 (InputLayer)       [(None, 918)]             0         
                                                                 
 batch_normalization_55 (Bat  (None, 918)              3672      
 chNormalization)                                                
                                                                 
 re_lu_55 (ReLU)             (None, 918)               0         
                                                                 
 dense_55 (Dense)            (None, 1020)              937380    
                                                                 
 batch_normalization_56 (Bat  (None, 1020)             4080      
 chNormalization)                                                
                                                                 
 re_lu_56 (ReLU)             (None, 1020)              0         
                                                                 
 dense_56 (Dense)            (None, 1020)              1041420   
                                                                 
=================================================================
Total params: 1,986,552
Trainable params: 1,982,676
Non-trainable params: 3,876
_________________________________________________________________
Model: "model_57"
_________________________________________________________________
 Layer (type)                Output Shape              Param #   
=================================================================
 input_58 (InputLayer)       [(None, 1020)]            0         
                                                                 
 dense_57 (Dense)            (None, 1020)              1041420   
                                                                 
 batch_normalization_57 (Bat  (None, 1020)             4080      
 chNormalization)                                                
                                                                 
 re_lu_57 (ReLU)             (None, 1020)              0         
                                                                 
 bottleneck (Dense)          (None, 867)               885207    
                                                                 
 batch_normalization_58 (Bat  (None, 867)              3468      
 chNormalization)                                                
                                                                 
 re_lu_58 (ReLU)             (None, 867)               0         
                                                                 
 dense_58 (Dense)            (None, 1020)              885360    
                                                                 
 batch_normalization_59 (Bat  (None, 1020)             4080      
 chNormalization)                                                
                                                                 
 re_lu_59 (ReLU)             (None, 1020)              0         
                                                                 
 dense_59 (Dense)            (None, 1020)              1041420   
                                                                 
=================================================================
Total params: 3,865,035
Trainable params: 3,859,221
Non-trainable params: 5,814
_________________________________________________________________
Epoch 1/400
1065/1065 - 3s - loss: 0.0187 - val_loss: 0.0149 - 3s/epoch - 3ms/step
Epoch 2/400
1065/1065 - 2s - loss: 0.0083 - val_loss: 0.0118 - 2s/epoch - 2ms/step
…
 1/60 [..............................] - ETA: 4s52/60 [=========================>....] - ETA: 0s60/60 [==============================] - 0s 984us/step
correlation 0.0028754569831852266
cosine 0.002072325999931771
MAE: 0.010004004665380579
RMSE: 0.08581640336230795
r2: 0.7883300773843193
RMSE zero-vector: 0.34573518857430263
Full AutoEncoder
Model: "model_57"
_________________________________________________________________
 Layer (type)                Output Shape              Param #   
=================================================================
 input_58 (InputLayer)       multiple                  0         
                                                                 
 dense_57 (Dense)            (None, 1020)              1041420   
                                                                 
 batch_normalization_57 (Bat  (None, 1020)             4080      
 chNormalization)                                                
                                                                 
 re_lu_57 (ReLU)             (None, 1020)              0         
                                                                 
 bottleneck (Dense)          (None, 867)               885207    
                                                                 
 batch_normalization_58 (Bat  (None, 867)              3468      
 chNormalization)                                                
                                                                 
 re_lu_58 (ReLU)             (None, 867)               0         
                                                                 
 dense_58 (Dense)            (None, 1020)              885360    
                                                                 
 batch_normalization_59 (Bat  (None, 1020)             4080      
 chNormalization)                                                
                                                                 
 re_lu_59 (ReLU)             (None, 1020)              0         
                                                                 
 dense_59 (Dense)            (None, 1020)              1041420   
                                                                 
=================================================================
Total params: 3,865,035
Trainable params: 3,859,221
Non-trainable params: 5,814
_________________________________________________________________
Encoder
Model: "model_58"
_________________________________________________________________
 Layer (type)                Output Shape              Param #   
=================================================================
 input_59 (InputLayer)       [(None, 1020)]            0         
                                                                 
 input_58 (InputLayer)       multiple                  0         
                                                                 
 dense_57 (Dense)            (None, 1020)              1041420   
                                                                 
 batch_normalization_57 (Bat  (None, 1020)             4080      
 chNormalization)                                                
                                                                 
 re_lu_57 (ReLU)             (None, 1020)              0         
                                                                 
 bottleneck (Dense)          (None, 867)               885207    
                                                                 
=================================================================
Total params: 1,930,707
Trainable params: 1,928,667
Non-trainable params: 2,040
_________________________________________________________________
Decoder
Model: "model_59"
_________________________________________________________________
…
 input_88 (InputLayer)       multiple                  0         
                                                                 
 dense_87 (Dense)            (None, 1020)              1041420   
                                                                 
 batch_normalization_87 (Bat  (None, 1020)             4080      
 chNormalization)                                                
                                                                 
 re_lu_87 (ReLU)             (None, 1020)              0         
                                                                 
 bottleneck (Dense)          (None, 356)               363476    
                                                                 
 batch_normalization_88 (Bat  (None, 356)              1424      
 chNormalization)                                                
                                                                 
 re_lu_88 (ReLU)             (None, 356)               0         
                                                                 
 dense_88 (Dense)            (None, 1020)              364140    
                                                                 
 batch_normalization_89 (Bat  (None, 1020)             4080      
 chNormalization)                                                
                                                                 
 re_lu_89 (ReLU)             (None, 1020)              0         
                                                                 
 dense_89 (Dense)            (None, 1020)              1041420   
                                                                 
=================================================================
Total params: 2,820,040
Trainable params: 2,815,248
Non-trainable params: 4,792
_________________________________________________________________
Encoder
Model: "model_88"
_________________________________________________________________
 Layer (type)                Output Shape              Param #   
=================================================================
 input_89 (InputLayer)       [(None, 1020)]            0         
                                                                 
 input_88 (InputLayer)       multiple                  0         
                                                                 
 dense_87 (Dense)            (None, 1020)              1041420   
                                                                 
 batch_normalization_87 (Bat  (None, 1020)             4080      
 chNormalization)                                                
                                                                 
 re_lu_87 (ReLU)             (None, 1020)              0         
                                                                 
 bottleneck (Dense)          (None, 356)               363476    
                                                                 
=================================================================
Total params: 1,408,976
Trainable params: 1,406,936
Non-trainable params: 2,040
_________________________________________________________________
Decoder
Model: "model_89"
_________________________________________________________________
 Layer (type)                Output Shape              Param #   
=================================================================
 input_90 (InputLayer)       [(None, 356)]             0         
                                                                 
 batch_normalization_88 (Bat  (None, 356)              1424      
 chNormalization)                                                
                                                                 
 re_lu_88 (ReLU)             (None, 356)               0         
                                                                 
 dense_88 (Dense)            (None, 1020)              364140    
                                                                 
 batch_normalization_89 (Bat  (None, 1020)             4080      
 chNormalization)                                                
                                                                 
 re_lu_89 (ReLU)             (None, 1020)              0         
                                                                 
 dense_89 (Dense)            (None, 1020)              1041420   
                                                                 
=================================================================
Total params: 1,411,064
Trainable params: 1,408,312
Non-trainable params: 2,752
_________________________________________________________________
Model: "model_90"
_________________________________________________________________
 Layer (type)                Output Shape              Param #   
=================================================================
 input_91 (InputLayer)       [(None, 1020)]            0         
                                                                 
 dense_90 (Dense)            (None, 1020)              1041420   
                                                                 
 batch_normalization_90 (Bat  (None, 1020)             4080      
 chNormalization)                                                
                                                                 
 re_lu_90 (ReLU)             (None, 1020)              0         
                                                                 
 bottleneck (Dense)          (None, 305)               311405    
                                                                 
 batch_normalization_91 (Bat  (None, 305)              1220      
 chNormalization)                                                
                                                                 
 re_lu_91 (ReLU)             (None, 305)               0         
                                                                 
 dense_91 (Dense)            (None, 1020)              312120    
                                                                 
 batch_normalization_92 (Bat  (None, 1020)             4080      
 chNormalization)                                                
                                                                 
 re_lu_92 (ReLU)             (None, 1020)              0         
                                                                 
 dense_92 (Dense)            (None, 1020)              1041420   
                                                                 
=================================================================
Total params: 2,715,745
Trainable params: 2,711,055
Non-trainable params: 4,690
_________________________________________________________________
Epoch 1/400
1065/1065 - 3s - loss: 0.0202 - val_loss: 0.0159 - 3s/epoch - 3ms/step
Epoch 2/400
1065/1065 - 2s - loss: 0.0089 - val_loss: 0.0138 - 2s/epoch - 2ms/step
…
 1/60 [..............................] - ETA: 6s52/60 [=========================>....] - ETA: 0s60/60 [==============================] - 0s 992us/step
correlation 0.002877143266630741
cosine 0.0019605587909544138
MAE: 0.010901641920290984
RMSE: 0.05418906119144466
r2: 0.9156111874983299
RMSE zero-vector: 0.34573518857430263
Full AutoEncoder
Model: "model_90"
_________________________________________________________________
 Layer (type)                Output Shape              Param #   
=================================================================
 input_91 (InputLayer)       multiple                  0         
                                                                 
 dense_90 (Dense)            (None, 1020)              1041420   
                                                                 
 batch_normalization_90 (Bat  (None, 1020)             4080      
 chNormalization)                                                
                                                                 
 re_lu_90 (ReLU)             (None, 1020)              0         
                                                                 
 bottleneck (Dense)          (None, 305)               311405    
                                                                 
 batch_normalization_91 (Bat  (None, 305)              1220      
 chNormalization)                                                
                                                                 
 re_lu_91 (ReLU)             (None, 305)               0         
                                                                 
 dense_91 (Dense)            (None, 1020)              312120    
                                                                 
 batch_normalization_92 (Bat  (None, 1020)             4080      
 chNormalization)                                                
                                                                 
 re_lu_92 (ReLU)             (None, 1020)              0         
                                                                 
 dense_92 (Dense)            (None, 1020)              1041420   
                                                                 
=================================================================
Total params: 2,715,745
Trainable params: 2,711,055
Non-trainable params: 4,690
_________________________________________________________________
Encoder
Model: "model_91"
_________________________________________________________________
 Layer (type)                Output Shape              Param #   
=================================================================
 input_92 (InputLayer)       [(None, 1020)]            0         
                                                                 
 input_91 (InputLayer)       multiple                  0         
                                                                 
 dense_90 (Dense)            (None, 1020)              1041420   
                                                                 
 batch_normalization_90 (Bat  (None, 1020)             4080      
 chNormalization)                                                
                                                                 
 re_lu_90 (ReLU)             (None, 1020)              0         
                                                                 
 bottleneck (Dense)          (None, 305)               311405    
                                                                 
=================================================================
Total params: 1,356,905
Trainable params: 1,354,865
Non-trainable params: 2,040
_________________________________________________________________
Decoder
Model: "model_92"
_________________________________________________________________
 Layer (type)                Output Shape              Param #   
=================================================================
 input_93 (InputLayer)       [(None, 305)]             0         
                                                                 
 batch_normalization_91 (Bat  (None, 305)              1220      
 chNormalization)                                                
                                                                 
 re_lu_91 (ReLU)             (None, 305)               0         
                                                                 
 dense_91 (Dense)            (None, 1020)              312120    
                                                                 
 batch_normalization_92 (Bat  (None, 1020)             4080      
 chNormalization)                                                
                                                                 
 re_lu_92 (ReLU)             (None, 1020)              0         
                                                                 
 dense_92 (Dense)            (None, 1020)              1041420   
                                                                 
=================================================================
Total params: 1,358,840
Trainable params: 1,356,190
Non-trainable params: 2,650
_________________________________________________________________
Model: "model_93"
_________________________________________________________________
 Layer (type)                Output Shape              Param #   
=================================================================
 input_94 (InputLayer)       [(None, 1020)]            0         
                                                                 
 dense_93 (Dense)            (None, 1020)              1041420   
                                                                 
 batch_normalization_93 (Bat  (None, 1020)             4080      
 chNormalization)                                                
                                                                 
 re_lu_93 (ReLU)             (None, 1020)              0         
                                                                 
 bottleneck (Dense)          (None, 254)               259334    
                                                                 
 batch_normalization_94 (Bat  (None, 254)              1016      
 chNormalization)                                                
                                                                 
 re_lu_94 (ReLU)             (None, 254)               0         
                                                                 
 dense_94 (Dense)            (None, 1020)              260100    
                                                                 
 batch_normalization_95 (Bat  (None, 1020)             4080      
 chNormalization)                                                
                                                                 
 re_lu_95 (ReLU)             (None, 1020)              0         
                                                                 
 dense_95 (Dense)            (None, 1020)              1041420   
                                                                 
=================================================================
Total params: 2,611,450
Trainable params: 2,606,862
Non-trainable params: 4,588
_________________________________________________________________
Epoch 1/400
1065/1065 - 3s - loss: 0.0205 - val_loss: 0.0152 - 3s/epoch - 3ms/step
Epoch 2/400
1065/1065 - 2s - loss: 0.0091 - val_loss: 0.0129 - 2s/epoch - 2ms/step
…
 1/60 [..............................] - ETA: 5s51/60 [========================>.....] - ETA: 0s60/60 [==============================] - 0s 997us/step
correlation 0.0031304385102227735
cosine 0.002246985625479996
MAE: 0.01069472735630837
RMSE: 0.08628420260270718
r2: 0.7860167347526817
RMSE zero-vector: 0.34573518857430263
Full AutoEncoder
Model: "model_93"
_________________________________________________________________
 Layer (type)                Output Shape              Param #   
=================================================================
 input_94 (InputLayer)       multiple                  0         
                                                                 
 dense_93 (Dense)            (None, 1020)              1041420   
                                                                 
 batch_normalization_93 (Bat  (None, 1020)             4080      
 chNormalization)                                                
                                                                 
 re_lu_93 (ReLU)             (None, 1020)              0         
                                                                 
 bottleneck (Dense)          (None, 254)               259334    
                                                                 
 batch_normalization_94 (Bat  (None, 254)              1016      
 chNormalization)                                                
                                                                 
 re_lu_94 (ReLU)             (None, 254)               0         
                                                                 
 dense_94 (Dense)            (None, 1020)              260100    
                                                                 
 batch_normalization_95 (Bat  (None, 1020)             4080      
 chNormalization)                                                
                                                                 
 re_lu_95 (ReLU)             (None, 1020)              0         
                                                                 
 dense_95 (Dense)            (None, 1020)              1041420   
                                                                 
=================================================================
Total params: 2,611,450
Trainable params: 2,606,862
Non-trainable params: 4,588
_________________________________________________________________
Encoder
Model: "model_94"
_________________________________________________________________
 Layer (type)                Output Shape              Param #   
=================================================================
 input_95 (InputLayer)       [(None, 1020)]            0         
                                                                 
 input_94 (InputLayer)       multiple                  0         
                                                                 
 dense_93 (Dense)            (None, 1020)              1041420   
                                                                 
 batch_normalization_93 (Bat  (None, 1020)             4080      
 chNormalization)                                                
                                                                 
 re_lu_93 (ReLU)             (None, 1020)              0         
                                                                 
 bottleneck (Dense)          (None, 254)               259334    
                                                                 
=================================================================
Total params: 1,304,834
Trainable params: 1,302,794
Non-trainable params: 2,040
_________________________________________________________________
Decoder
Model: "model_95"
_________________________________________________________________
 Layer (type)                Output Shape              Param #   
=================================================================
 input_96 (InputLayer)       [(None, 254)]             0         
                                                                 
 batch_normalization_94 (Bat  (None, 254)              1016      
 chNormalization)                                                
                                                                 
 re_lu_94 (ReLU)             (None, 254)               0         
                                                                 
 dense_94 (Dense)            (None, 1020)              260100    
                                                                 
 batch_normalization_95 (Bat  (None, 1020)             4080      
 chNormalization)                                                
                                                                 
 re_lu_95 (ReLU)             (None, 1020)              0         
                                                                 
 dense_95 (Dense)            (None, 1020)              1041420   
                                                                 
=================================================================
Total params: 1,306,616
Trainable params: 1,304,068
Non-trainable params: 2,548
_________________________________________________________________
Model: "model_96"
_________________________________________________________________
 Layer (type)                Output Shape              Param #   
=================================================================
 input_97 (InputLayer)       [(None, 1020)]            0         
                                                                 
 dense_96 (Dense)            (None, 1020)              1041420   
                                                                 
 batch_normalization_96 (Bat  (None, 1020)             4080      
 chNormalization)                                                
                                                                 
 re_lu_96 (ReLU)             (None, 1020)              0         
                                                                 
 bottleneck (Dense)          (None, 203)               207263    
                                                                 
 batch_normalization_97 (Bat  (None, 203)              812       
 chNormalization)                                                
                                                                 
 re_lu_97 (ReLU)             (None, 203)               0         
                                                                 
 dense_97 (Dense)            (None, 1020)              208080    
                                                                 
 batch_normalization_98 (Bat  (None, 1020)             4080      
 chNormalization)                                                
                                                                 
 re_lu_98 (ReLU)             (None, 1020)              0         
                                                                 
 dense_98 (Dense)            (None, 1020)              1041420   
                                                                 
=================================================================
Total params: 2,507,155
Trainable params: 2,502,669
Non-trainable params: 4,486
_________________________________________________________________
Epoch 1/400
1065/1065 - 3s - loss: 0.0202 - val_loss: 0.0161 - 3s/epoch - 3ms/step
Epoch 2/400
1065/1065 - 2s - loss: 0.0092 - val_loss: 0.0131 - 2s/epoch - 2ms/step
…
 1/60 [..............................] - ETA: 5s52/60 [=========================>....] - ETA: 0s60/60 [==============================] - 0s 990us/step
correlation 0.004095433266087536
cosine 0.0028801839686221358
MAE: 0.012231565953339983
RMSE: 0.08703401194912269
r2: 0.7822817776949075
RMSE zero-vector: 0.34573518857430263
Full AutoEncoder
Model: "model_96"
_________________________________________________________________
 Layer (type)                Output Shape              Param #   
=================================================================
 input_97 (InputLayer)       multiple                  0         
                                                                 
 dense_96 (Dense)            (None, 1020)              1041420   
                                                                 
 batch_normalization_96 (Bat  (None, 1020)             4080      
 chNormalization)                                                
                                                                 
 re_lu_96 (ReLU)             (None, 1020)              0         
                                                                 
 bottleneck (Dense)          (None, 203)               207263    
                                                                 
 batch_normalization_97 (Bat  (None, 203)              812       
 chNormalization)                                                
                                                                 
 re_lu_97 (ReLU)             (None, 203)               0         
                                                                 
 dense_97 (Dense)            (None, 1020)              208080    
                                                                 
 batch_normalization_98 (Bat  (None, 1020)             4080      
 chNormalization)                                                
                                                                 
 re_lu_98 (ReLU)             (None, 1020)              0         
                                                                 
 dense_98 (Dense)            (None, 1020)              1041420   
                                                                 
=================================================================
Total params: 2,507,155
Trainable params: 2,502,669
Non-trainable params: 4,486
_________________________________________________________________
Encoder
Model: "model_97"
_________________________________________________________________
 Layer (type)                Output Shape              Param #   
=================================================================
 input_98 (InputLayer)       [(None, 1020)]            0         
                                                                 
 input_97 (InputLayer)       multiple                  0         
                                                                 
 dense_96 (Dense)            (None, 1020)              1041420   
                                                                 
 batch_normalization_96 (Bat  (None, 1020)             4080      
 chNormalization)                                                
                                                                 
 re_lu_96 (ReLU)             (None, 1020)              0         
                                                                 
 bottleneck (Dense)          (None, 203)               207263    
                                                                 
=================================================================
Total params: 1,252,763
Trainable params: 1,250,723
Non-trainable params: 2,040
_________________________________________________________________
Decoder
Model: "model_98"
_________________________________________________________________
 Layer (type)                Output Shape              Param #   
=================================================================
 input_99 (InputLayer)       [(None, 203)]             0         
                                                                 
 batch_normalization_97 (Bat  (None, 203)              812       
 chNormalization)                                                
                                                                 
 re_lu_97 (ReLU)             (None, 203)               0         
                                                                 
 dense_97 (Dense)            (None, 1020)              208080    
                                                                 
 batch_normalization_98 (Bat  (None, 1020)             4080      
 chNormalization)                                                
                                                                 
 re_lu_98 (ReLU)             (None, 1020)              0         
                                                                 
 dense_98 (Dense)            (None, 1020)              1041420   
                                                                 
=================================================================
Total params: 1,254,392
Trainable params: 1,251,946
Non-trainable params: 2,446
_________________________________________________________________
Model: "model_99"
_________________________________________________________________
 Layer (type)                Output Shape              Param #   
=================================================================
 input_100 (InputLayer)      [(None, 1020)]            0         
                                                                 
 dense_99 (Dense)            (None, 1020)              1041420   
                                                                 
 batch_normalization_99 (Bat  (None, 1020)             4080      
 chNormalization)                                                
                                                                 
 re_lu_99 (ReLU)             (None, 1020)              0         
                                                                 
 bottleneck (Dense)          (None, 152)               155192    
                                                                 
 batch_normalization_100 (Ba  (None, 152)              608       
 tchNormalization)                                               
                                                                 
 re_lu_100 (ReLU)            (None, 152)               0         
                                                                 
 dense_100 (Dense)           (None, 1020)              156060    
                                                                 
 batch_normalization_101 (Ba  (None, 1020)             4080      
 tchNormalization)                                               
                                                                 
 re_lu_101 (ReLU)            (None, 1020)              0         
                                                                 
 dense_101 (Dense)           (None, 1020)              1041420   
                                                                 
=================================================================
Total params: 2,402,860
Trainable params: 2,398,476
Non-trainable params: 4,384
_________________________________________________________________
Epoch 1/400
1065/1065 - 3s - loss: 0.0208 - val_loss: 0.0165 - 3s/epoch - 3ms/step
Epoch 2/400
1065/1065 - 2s - loss: 0.0096 - val_loss: 0.0132 - 2s/epoch - 2ms/step
…
 1/60 [..............................] - ETA: 5s52/60 [=========================>....] - ETA: 0s60/60 [==============================] - 0s 986us/step
correlation 0.0038720297722316162
cosine 0.0027230723010558773
MAE: 0.011940687606234613
RMSE: 0.08682495742548352
r2: 0.7833259787768413
RMSE zero-vector: 0.34573518857430263
Full AutoEncoder
Model: "model_99"
_________________________________________________________________
 Layer (type)                Output Shape              Param #   
=================================================================
 input_100 (InputLayer)      multiple                  0         
                                                                 
 dense_99 (Dense)            (None, 1020)              1041420   
                                                                 
 batch_normalization_99 (Bat  (None, 1020)             4080      
 chNormalization)                                                
                                                                 
 re_lu_99 (ReLU)             (None, 1020)              0         
                                                                 
 bottleneck (Dense)          (None, 152)               155192    
                                                                 
 batch_normalization_100 (Ba  (None, 152)              608       
 tchNormalization)                                               
                                                                 
 re_lu_100 (ReLU)            (None, 152)               0         
                                                                 
 dense_100 (Dense)           (None, 1020)              156060    
                                                                 
 batch_normalization_101 (Ba  (None, 1020)             4080      
 tchNormalization)                                               
                                                                 
 re_lu_101 (ReLU)            (None, 1020)              0         
                                                                 
 dense_101 (Dense)           (None, 1020)              1041420   
                                                                 
=================================================================
Total params: 2,402,860
Trainable params: 2,398,476
Non-trainable params: 4,384
_________________________________________________________________
Encoder
Model: "model_100"
_________________________________________________________________
 Layer (type)                Output Shape              Param #   
=================================================================
 input_101 (InputLayer)      [(None, 1020)]            0         
                                                                 
 input_100 (InputLayer)      multiple                  0         
                                                                 
 dense_99 (Dense)            (None, 1020)              1041420   
                                                                 
 batch_normalization_99 (Bat  (None, 1020)             4080      
 chNormalization)                                                
                                                                 
 re_lu_99 (ReLU)             (None, 1020)              0         
                                                                 
 bottleneck (Dense)          (None, 152)               155192    
                                                                 
=================================================================
Total params: 1,200,692
Trainable params: 1,198,652
Non-trainable params: 2,040
_________________________________________________________________
Decoder
Model: "model_101"
_________________________________________________________________
 Layer (type)                Output Shape              Param #   
=================================================================
 input_102 (InputLayer)      [(None, 152)]             0         
                                                                 
 batch_normalization_100 (Ba  (None, 152)              608       
 tchNormalization)                                               
                                                                 
 re_lu_100 (ReLU)            (None, 152)               0         
                                                                 
 dense_100 (Dense)           (None, 1020)              156060    
                                                                 
 batch_normalization_101 (Ba  (None, 1020)             4080      
 tchNormalization)                                               
                                                                 
 re_lu_101 (ReLU)            (None, 1020)              0         
                                                                 
 dense_101 (Dense)           (None, 1020)              1041420   
                                                                 
=================================================================
Total params: 1,202,168
Trainable params: 1,199,824
Non-trainable params: 2,344
_________________________________________________________________
Model: "model_102"
_________________________________________________________________
 Layer (type)                Output Shape              Param #   
=================================================================
 input_103 (InputLayer)      [(None, 1020)]            0         
                                                                 
 dense_102 (Dense)           (None, 1020)              1041420   
                                                                 
 batch_normalization_102 (Ba  (None, 1020)             4080      
 tchNormalization)                                               
                                                                 
 re_lu_102 (ReLU)            (None, 1020)              0         
                                                                 
 bottleneck (Dense)          (None, 101)               103121    
                                                                 
 batch_normalization_103 (Ba  (None, 101)              404       
 tchNormalization)                                               
                                                                 
 re_lu_103 (ReLU)            (None, 101)               0         
                                                                 
 dense_103 (Dense)           (None, 1020)              104040    
                                                                 
 batch_normalization_104 (Ba  (None, 1020)             4080      
 tchNormalization)                                               
                                                                 
 re_lu_104 (ReLU)            (None, 1020)              0         
                                                                 
 dense_104 (Dense)           (None, 1020)              1041420   
                                                                 
=================================================================
Total params: 2,298,565
Trainable params: 2,294,283
Non-trainable params: 4,282
_________________________________________________________________
Epoch 1/400
1065/1065 - 3s - loss: 0.0206 - val_loss: 0.0160 - 3s/epoch - 3ms/step
Epoch 2/400
1065/1065 - 2s - loss: 0.0097 - val_loss: 0.0132 - 2s/epoch - 2ms/step
…
 1/60 [..............................] - ETA: 4s52/60 [=========================>....] - ETA: 0s60/60 [==============================] - 0s 976us/step
correlation 0.004606598250827839
cosine 0.003224187573084562
MAE: 0.013237528921533135
RMSE: 0.0874720854532821
r2: 0.7800832471881466
RMSE zero-vector: 0.34573518857430263
Full AutoEncoder
Model: "model_102"
_________________________________________________________________
 Layer (type)                Output Shape              Param #   
=================================================================
 input_103 (InputLayer)      multiple                  0         
                                                                 
 dense_102 (Dense)           (None, 1020)              1041420   
                                                                 
 batch_normalization_102 (Ba  (None, 1020)             4080      
 tchNormalization)                                               
                                                                 
 re_lu_102 (ReLU)            (None, 1020)              0         
                                                                 
 bottleneck (Dense)          (None, 101)               103121    
                                                                 
 batch_normalization_103 (Ba  (None, 101)              404       
 tchNormalization)                                               
                                                                 
 re_lu_103 (ReLU)            (None, 101)               0         
                                                                 
 dense_103 (Dense)           (None, 1020)              104040    
                                                                 
 batch_normalization_104 (Ba  (None, 1020)             4080      
 tchNormalization)                                               
                                                                 
 re_lu_104 (ReLU)            (None, 1020)              0         
                                                                 
 dense_104 (Dense)           (None, 1020)              1041420   
                                                                 
=================================================================
Total params: 2,298,565
Trainable params: 2,294,283
Non-trainable params: 4,282
_________________________________________________________________
Encoder
Model: "model_103"
_________________________________________________________________
 Layer (type)                Output Shape              Param #   
=================================================================
 input_104 (InputLayer)      [(None, 1020)]            0         
                                                                 
 input_103 (InputLayer)      multiple                  0         
                                                                 
 dense_102 (Dense)           (None, 1020)              1041420   
                                                                 
 batch_normalization_102 (Ba  (None, 1020)             4080      
 tchNormalization)                                               
                                                                 
 re_lu_102 (ReLU)            (None, 1020)              0         
                                                                 
 bottleneck (Dense)          (None, 101)               103121    
                                                                 
=================================================================
Total params: 1,148,621
Trainable params: 1,146,581
Non-trainable params: 2,040
_________________________________________________________________
Decoder
Model: "model_104"
_________________________________________________________________
 Layer (type)                Output Shape              Param #   
=================================================================
 input_105 (InputLayer)      [(None, 101)]             0         
                                                                 
 batch_normalization_103 (Ba  (None, 101)              404       
 tchNormalization)                                               
                                                                 
 re_lu_103 (ReLU)            (None, 101)               0         
                                                                 
 dense_103 (Dense)           (None, 1020)              104040    
                                                                 
 batch_normalization_104 (Ba  (None, 1020)             4080      
 tchNormalization)                                               
                                                                 
 re_lu_104 (ReLU)            (None, 1020)              0         
                                                                 
 dense_104 (Dense)           (None, 1020)              1041420   
                                                                 
=================================================================
Total params: 1,149,944
Trainable params: 1,147,702
Non-trainable params: 2,242
_________________________________________________________________
Model: "model_105"
_________________________________________________________________
 Layer (type)                Output Shape              Param #   
=================================================================
 input_106 (InputLayer)      [(None, 1020)]            0         
                                                                 
 dense_105 (Dense)           (None, 1020)              1041420   
                                                                 
 batch_normalization_105 (Ba  (None, 1020)             4080      
 tchNormalization)                                               
                                                                 
 re_lu_105 (ReLU)            (None, 1020)              0         
                                                                 
 bottleneck (Dense)          (None, 50)                51050     
                                                                 
 batch_normalization_106 (Ba  (None, 50)               200       
 tchNormalization)                                               
                                                                 
 re_lu_106 (ReLU)            (None, 50)                0         
                                                                 
 dense_106 (Dense)           (None, 1020)              52020     
                                                                 
 batch_normalization_107 (Ba  (None, 1020)             4080      
 tchNormalization)                                               
                                                                 
 re_lu_107 (ReLU)            (None, 1020)              0         
                                                                 
 dense_107 (Dense)           (None, 1020)              1041420   
                                                                 
=================================================================
Total params: 2,194,270
Trainable params: 2,190,090
Non-trainable params: 4,180
_________________________________________________________________
Epoch 1/400
1065/1065 - 3s - loss: 0.0210 - val_loss: 0.0198 - 3s/epoch - 3ms/step
Epoch 2/400
1065/1065 - 2s - loss: 0.0108 - val_loss: 0.0146 - 2s/epoch - 2ms/step
…
 1/60 [..............................] - ETA: 4s54/60 [==========================>...] - ETA: 0s60/60 [==============================] - 0s 957us/step
correlation 0.008519921091074583
cosine 0.00580367350001619
MAE: 0.017067199082662382
RMSE: 0.09067442683213076
r2: 0.7636834230159454
RMSE zero-vector: 0.34573518857430263
Full AutoEncoder
Model: "model_105"
_________________________________________________________________
 Layer (type)                Output Shape              Param #   
=================================================================
 input_106 (InputLayer)      multiple                  0         
                                                                 
 dense_105 (Dense)           (None, 1020)              1041420   
                                                                 
 batch_normalization_105 (Ba  (None, 1020)             4080      
 tchNormalization)                                               
                                                                 
 re_lu_105 (ReLU)            (None, 1020)              0         
                                                                 
 bottleneck (Dense)          (None, 50)                51050     
                                                                 
 batch_normalization_106 (Ba  (None, 50)               200       
 tchNormalization)                                               
                                                                 
 re_lu_106 (ReLU)            (None, 50)                0         
                                                                 
 dense_106 (Dense)           (None, 1020)              52020     
                                                                 
 batch_normalization_107 (Ba  (None, 1020)             4080      
 tchNormalization)                                               
                                                                 
 re_lu_107 (ReLU)            (None, 1020)              0         
                                                                 
 dense_107 (Dense)           (None, 1020)              1041420   
                                                                 
=================================================================
Total params: 2,194,270
Trainable params: 2,190,090
Non-trainable params: 4,180
_________________________________________________________________
Encoder
Model: "model_106"
_________________________________________________________________
 Layer (type)                Output Shape              Param #   
=================================================================
 input_107 (InputLayer)      [(None, 1020)]            0         
                                                                 
 input_106 (InputLayer)      multiple                  0         
                                                                 
 dense_105 (Dense)           (None, 1020)              1041420   
                                                                 
 batch_normalization_105 (Ba  (None, 1020)             4080      
 tchNormalization)                                               
                                                                 
 re_lu_105 (ReLU)            (None, 1020)              0         
                                                                 
 bottleneck (Dense)          (None, 50)                51050     
                                                                 
=================================================================
Total params: 1,096,550
Trainable params: 1,094,510
Non-trainable params: 2,040
_________________________________________________________________
Decoder
Model: "model_107"
_________________________________________________________________
 Layer (type)                Output Shape              Param #   
=================================================================
 input_108 (InputLayer)      [(None, 50)]              0         
                                                                 
 batch_normalization_106 (Ba  (None, 50)               200       
 tchNormalization)                                               
                                                                 
 re_lu_106 (ReLU)            (None, 50)                0         
                                                                 
 dense_106 (Dense)           (None, 1020)              52020     
                                                                 
 batch_normalization_107 (Ba  (None, 1020)             4080      
 tchNormalization)                                               
                                                                 
 re_lu_107 (ReLU)            (None, 1020)              0         
                                                                 
 dense_107 (Dense)           (None, 1020)              1041420   
                                                                 
=================================================================
Total params: 1,097,720
Trainable params: 1,095,580
Non-trainable params: 2,140
_________________________________________________________________
Sun Dec 18 15:01:30 CET 2022
done
