…
2023-01-02 00:00:46.764904: I tensorflow/core/platform/cpu_feature_guard.cc:193] This TensorFlow binary is optimized with oneAPI Deep Neural Network Library (oneDNN) to use the following CPU instructions in performance-critical operations:  SSE4.1 SSE4.2 AVX AVX2 AVX512F AVX512_VNNI FMA
To enable them in other operations, rebuild TensorFlow with the appropriate compiler flags.
Model: "model"
_________________________________________________________________
 Layer (type)                Output Shape              Param #   
=================================================================
 input_1 (InputLayer)        [(None, 1264)]            0         
                                                                 
 dense (Dense)               (None, 3792)              4796880   
                                                                 
 batch_normalization (BatchN  (None, 3792)             15168     
 ormalization)                                                   
                                                                 
 re_lu (ReLU)                (None, 3792)              0         
                                                                 
 bottleneck (Dense)          (None, 632)               2397176   
                                                                 
 batch_normalization_1 (Batc  (None, 632)              2528      
 hNormalization)                                                 
                                                                 
 re_lu_1 (ReLU)              (None, 632)               0         
                                                                 
 dense_1 (Dense)             (None, 3792)              2400336   
                                                                 
 batch_normalization_2 (Batc  (None, 3792)             15168     
 hNormalization)                                                 
                                                                 
 re_lu_2 (ReLU)              (None, 3792)              0         
                                                                 
 dense_2 (Dense)             (None, 1264)              4794352   
                                                                 
=================================================================
Total params: 14,421,608
Trainable params: 14,405,176
Non-trainable params: 16,432
_________________________________________________________________
Epoch 1/300
5969/5969 - 296s - loss: 0.0103 - val_loss: 0.0026 - 296s/epoch - 50ms/step
Epoch 2/300
5969/5969 - 294s - loss: 0.0027 - val_loss: 0.0021 - 294s/epoch - 49ms/step
…
/332 [==============================] - 3s 8ms/step
correlation 0.009827901507789937
cosine 0.008097297853561693
MAE: 0.012980965
RMSE: 0.041064594
r2: 0.8906064254444094
RMSE zero-vector: 0.23411466903540806
Full AutoEncoder
Model: "model"
_________________________________________________________________
 Layer (type)                Output Shape              Param #   
=================================================================
 input_1 (InputLayer)        multiple                  0         
                                                                 
 dense (Dense)               (None, 3792)              4796880   
                                                                 
 batch_normalization (BatchN  (None, 3792)             15168     
 ormalization)                                                   
                                                                 
 re_lu (ReLU)                (None, 3792)              0         
                                                                 
 bottleneck (Dense)          (None, 632)               2397176   
                                                                 
 batch_normalization_1 (Batc  (None, 632)              2528      
 hNormalization)                                                 
                                                                 
 re_lu_1 (ReLU)              (None, 632)               0         
                                                                 
 dense_1 (Dense)             (None, 3792)              2400336   
                                                                 
 batch_normalization_2 (Batc  (None, 3792)             15168     
 hNormalization)                                                 
                                                                 
 re_lu_2 (ReLU)              (None, 3792)              0         
                                                                 
 dense_2 (Dense)             (None, 1264)              4794352   
                                                                 
=================================================================
Total params: 14,421,608
Trainable params: 14,405,176
Non-trainable params: 16,432
_________________________________________________________________
Encoder
Model: "model_1"
_________________________________________________________________
 Layer (type)                Output Shape              Param #   
=================================================================
 input_2 (InputLayer)        [(None, 1264)]            0         
                                                                 
 input_1 (InputLayer)        multiple                  0         
                                                                 
 dense (Dense)               (None, 3792)              4796880   
                                                                 
 batch_normalization (BatchN  (None, 3792)             15168     
 ormalization)                                                   
                                                                 
 re_lu (ReLU)                (None, 3792)              0         
                                                                 
 bottleneck (Dense)          (None, 632)               2397176   
                                                                 
=================================================================
Total params: 7,209,224
Trainable params: 7,201,640
Non-trainable params: 7,584
_________________________________________________________________
Decoder
Model: "model_2"
_________________________________________________________________
 Layer (type)                Output Shape              Param #   
=================================================================
 input_3 (InputLayer)        [(None, 632)]             0         
                                                                 
 batch_normalization_1 (Batc  (None, 632)              2528      
 hNormalization)                                                 
                                                                 
 re_lu_1 (ReLU)              (None, 632)               0         
                                                                 
 dense_1 (Dense)             (None, 3792)              2400336   
                                                                 
 batch_normalization_2 (Batc  (None, 3792)             15168     
 hNormalization)                                                 
                                                                 
 re_lu_2 (ReLU)              (None, 3792)              0         
                                                                 
 dense_2 (Dense)             (None, 1264)              4794352   
                                                                 
=================================================================
Total params: 7,212,384
Trainable params: 7,203,536
Non-trainable params: 8,848
_________________________________________________________________
['3n_b', 'mse', 16, 300, 0.002, 0.5, 632, 0.0005185416084714234, 0.0016863084165379405, 0.009827901507789937, 0.008097
…
