…
2022-12-20 01:06:13.842833: I tensorflow/core/common_runtime/gpu/gpu_device.cc:1616] Created device /job:localhost/replica:0/task:0/device:GPU:0 with 9636 MB memory:  -> device: 0, name: GeForce RTX 2080 Ti, pci bus id: 0000:1b:00.0, compute capability: 7.5
Model: "model"
_________________________________________________________________
 Layer (type)                Output Shape              Param #   
=================================================================
 input_1 (InputLayer)        [(None, 1264)]            0         
                                                                 
 dense (Dense)               (None, 3792)              4796880   
                                                                 
 batch_normalization (BatchN  (None, 3792)             15168     
 ormalization)                                                   
                                                                 
 re_lu (ReLU)                (None, 3792)              0         
                                                                 
 bottleneck (Dense)          (None, 1264)              4794352   
                                                                 
 batch_normalization_1 (Batc  (None, 1264)             5056      
 hNormalization)                                                 
                                                                 
 re_lu_1 (ReLU)              (None, 1264)              0         
                                                                 
 dense_1 (Dense)             (None, 3792)              4796880   
                                                                 
 batch_normalization_2 (Batc  (None, 3792)             15168     
 hNormalization)                                                 
                                                                 
 re_lu_2 (ReLU)              (None, 3792)              0         
                                                                 
 dense_2 (Dense)             (None, 1264)              4794352   
                                                                 
=================================================================
Total params: 19,217,856
Trainable params: 19,200,160
Non-trainable params: 17,696
_________________________________________________________________
Epoch 1/400
5969/5969 - 51s - loss: 0.0080 - val_loss: 0.0024 - 51s/epoch - 8ms/step
Epoch 2/400
5969/5969 - 20s - loss: 0.0026 - val_loss: 0.0017 - 20s/epoch - 3ms/step
…
32/332 [==============================] - 1s 1ms/step
correlation 0.010420421283738459
cosine 0.009250466885586481
MAE: 0.01003342
RMSE: 0.04088219
r2: 0.8915762459448067
RMSE zero-vector: 0.23411466903540806
Full AutoEncoder
Model: "model"
_________________________________________________________________
 Layer (type)                Output Shape              Param #   
=================================================================
 input_1 (InputLayer)        multiple                  0         
                                                                 
 dense (Dense)               (None, 3792)              4796880   
                                                                 
 batch_normalization (BatchN  (None, 3792)             15168     
 ormalization)                                                   
                                                                 
 re_lu (ReLU)                (None, 3792)              0         
                                                                 
 bottleneck (Dense)          (None, 1264)              4794352   
                                                                 
 batch_normalization_1 (Batc  (None, 1264)             5056      
 hNormalization)                                                 
                                                                 
 re_lu_1 (ReLU)              (None, 1264)              0         
                                                                 
 dense_1 (Dense)             (None, 3792)              4796880   
                                                                 
 batch_normalization_2 (Batc  (None, 3792)             15168     
 hNormalization)                                                 
                                                                 
 re_lu_2 (ReLU)              (None, 3792)              0         
                                                                 
 dense_2 (Dense)             (None, 1264)              4794352   
                                                                 
=================================================================
Total params: 19,217,856
Trainable params: 19,200,160
Non-trainable params: 17,696
_________________________________________________________________
Encoder
Model: "model_1"
_________________________________________________________________
 Layer (type)                Output Shape              Param #   
=================================================================
 input_2 (InputLayer)        [(None, 1264)]            0         
                                                                 
 input_1 (InputLayer)        multiple                  0         
                                                                 
 dense (Dense)               (None, 3792)              4796880   
                                                                 
 batch_normalization (BatchN  (None, 3792)             15168     
 ormalization)                                                   
                                                                 
 re_lu (ReLU)                (None, 3792)              0         
                                                                 
 bottleneck (Dense)          (None, 1264)              4794352   
                                                                 
=================================================================
Total params: 9,606,400
Trainable params: 9,598,816
Non-trainable params: 7,584
_________________________________________________________________
Decoder
Model: "model_2"
_________________________________________________________________
 Layer (type)                Output Shape              Param #   
=================================================================
 input_3 (InputLayer)        [(None, 1264)]            0         
                                                                 
 batch_normalization_1 (Batc  (None, 1264)             5056      
 hNormalization)                                                 
                                                                 
 re_lu_1 (ReLU)              (None, 1264)              0         
                                                                 
 dense_1 (Dense)             (None, 3792)              4796880   
                                                                 
 batch_normalization_2 (Batc  (None, 3792)             15168     
 hNormalization)                                                 
                                                                 
 re_lu_2 (ReLU)              (None, 3792)              0         
                                                                 
 dense_2 (Dense)             (None, 1264)              4794352   
                                                                 
=================================================================
Total params: 9,611,456
Trainable params: 9,601,344
Non-trainable params: 10,112
_________________________________________________________________
Model: "model_3"
_________________________________________________________________
 Layer (type)                Output Shape              Param #   
=================================================================
 input_4 (InputLayer)        [(None, 1264)]            0         
                                                                 
 dense_3 (Dense)             (None, 3792)              4796880   
                                                                 
 batch_normalization_3 (Batc  (None, 3792)             15168     
 hNormalization)                                                 
                                                                 
 re_lu_3 (ReLU)              (None, 3792)              0         
                                                                 
 bottleneck (Dense)          (None, 1200)              4551600   
                                                                 
 batch_normalization_4 (Batc  (None, 1200)             4800      
 hNormalization)                                                 
                                                                 
 re_lu_4 (ReLU)              (None, 1200)              0         
                                                                 
 dense_4 (Dense)             (None, 3792)              4554192   
                                                                 
 batch_normalization_5 (Batc  (None, 3792)             15168     
 hNormalization)                                                 
                                                                 
 re_lu_5 (ReLU)              (None, 3792)              0         
                                                                 
 dense_5 (Dense)             (None, 1264)              4794352   
                                                                 
=================================================================
Total params: 18,732,160
Trainable params: 18,714,592
Non-trainable params: 17,568
_________________________________________________________________
Epoch 1/400
5969/5969 - 21s - loss: 0.0083 - val_loss: 0.0024 - 21s/epoch - 3ms/step
Epoch 2/400
5969/5969 - 20s - loss: 0.0026 - val_loss: 0.0018 - 20s/epoch - 3ms/step
…
332 [==============================] - 1s 1ms/step
correlation 0.009988506018126906
cosine 0.00858426320689874
MAE: 0.009756791
RMSE: 0.045364242
r2: 0.8664984313292855
RMSE zero-vector: 0.23411466903540806
Full AutoEncoder
Model: "model_3"
_________________________________________________________________
 Layer (type)                Output Shape              Param #   
=================================================================
 input_4 (InputLayer)        multiple                  0         
                                                                 
 dense_3 (Dense)             (None, 3792)              4796880   
                                                                 
 batch_normalization_3 (Batc  (None, 3792)             15168     
 hNormalization)                                                 
                                                                 
 re_lu_3 (ReLU)              (None, 3792)              0         
                                                                 
 bottleneck (Dense)          (None, 1200)              4551600   
                                                                 
 batch_normalization_4 (Batc  (None, 1200)             4800      
 hNormalization)                                                 
                                                                 
 re_lu_4 (ReLU)              (None, 1200)              0         
                                                                 
 dense_4 (Dense)             (None, 3792)              4554192   
                                                                 
 batch_normalization_5 (Batc  (None, 3792)             15168     
 hNormalization)                                                 
                                                                 
 re_lu_5 (ReLU)              (None, 3792)              0         
                                                                 
 dense_5 (Dense)             (None, 1264)              4794352   
                                                                 
=================================================================
Total params: 18,732,160
Trainable params: 18,714,592
Non-trainable params: 17,568
_________________________________________________________________
Encoder
Model: "model_4"
_________________________________________________________________
 Layer (type)                Output Shape              Param #   
=================================================================
 input_5 (InputLayer)        [(None, 1264)]            0         
                                                                 
 input_4 (InputLayer)        multiple                  0         
                                                                 
 dense_3 (Dense)             (None, 3792)              4796880   
                                                                 
 batch_normalization_3 (Batc  (None, 3792)             15168     
 hNormalization)                                                 
                                                                 
 re_lu_3 (ReLU)              (None, 3792)              0         
                                                                 
 bottleneck (Dense)          (None, 1200)              4551600   
                                                                 
=================================================================
Total params: 9,363,648
Trainable params: 9,356,064
Non-trainable params: 7,584
_________________________________________________________________
Decoder
Model: "model_5"
_________________________________________________________________
 Layer (type)                Output Shape              Param #   
=================================================================
 input_6 (InputLayer)        [(None, 1200)]            0         
                                                                 
 batch_normalization_4 (Batc  (None, 1200)             4800      
 hNormalization)                                                 
                                                                 
 re_lu_4 (ReLU)              (None, 1200)              0         
                                                                 
 dense_4 (Dense)             (None, 3792)              4554192   
                                                                 
 batch_normalization_5 (Batc  (None, 3792)             15168     
 hNormalization)                                                 
                                                                 
 re_lu_5 (ReLU)              (None, 3792)              0         
                                                                 
 dense_5 (Dense)             (None, 1264)              4794352   
                                                                 
=================================================================
Total params: 9,368,512
Trainable params: 9,358,528
Non-trainable params: 9,984
_________________________________________________________________
Model: "model_6"
_________________________________________________________________
 Layer (type)                Output Shape              Param #   
=================================================================
 input_7 (InputLayer)        [(None, 1264)]            0         
                                                                 
 dense_6 (Dense)             (None, 3792)              4796880   
                                                                 
 batch_normalization_6 (Batc  (None, 3792)             15168     
 hNormalization)                                                 
                                                                 
 re_lu_6 (ReLU)              (None, 3792)              0         
                                                                 
 bottleneck (Dense)          (None, 1137)              4312641   
                                                                 
 batch_normalization_7 (Batc  (None, 1137)             4548      
 hNormalization)                                                 
                                                                 
 re_lu_7 (ReLU)              (None, 1137)              0         
                                                                 
 dense_7 (Dense)             (None, 3792)              4315296   
                                                                 
 batch_normalization_8 (Batc  (None, 3792)             15168     
 hNormalization)                                                 
                                                                 
 re_lu_8 (ReLU)              (None, 3792)              0         
                                                                 
 dense_8 (Dense)             (None, 1264)              4794352   
                                                                 
=================================================================
Total params: 18,254,053
Trainable params: 18,236,611
Non-trainable params: 17,442
_________________________________________________________________
Epoch 1/400
5969/5969 - 21s - loss: 0.0082 - val_loss: 0.0026 - 21s/epoch - 4ms/step
Epoch 2/400
5969/5969 - 20s - loss: 0.0028 - val_loss: 0.0019 - 20s/epoch - 3ms/step
…
32 [==============================] - 2s 1ms/step
correlation 0.014780166616843773
cosine 0.012984687290436989
MAE: 0.011300751
RMSE: 0.047370717
r2: 0.8544267103927844
RMSE zero-vector: 0.23411466903540806
Full AutoEncoder
Model: "model_6"
_________________________________________________________________
 Layer (type)                Output Shape              Param #   
=================================================================
 input_7 (InputLayer)        multiple                  0         
                                                                 
 dense_6 (Dense)             (None, 3792)              4796880   
                                                                 
 batch_normalization_6 (Batc  (None, 3792)             15168     
 hNormalization)                                                 
                                                                 
 re_lu_6 (ReLU)              (None, 3792)              0         
                                                                 
 bottleneck (Dense)          (None, 1137)              4312641   
                                                                 
 batch_normalization_7 (Batc  (None, 1137)             4548      
 hNormalization)                                                 
                                                                 
 re_lu_7 (ReLU)              (None, 1137)              0         
                                                                 
 dense_7 (Dense)             (None, 3792)              4315296   
                                                                 
 batch_normalization_8 (Batc  (None, 3792)             15168     
 hNormalization)                                                 
                                                                 
 re_lu_8 (ReLU)              (None, 3792)              0         
                                                                 
 dense_8 (Dense)             (None, 1264)              4794352   
                                                                 
=================================================================
Total params: 18,254,053
Trainable params: 18,236,611
Non-trainable params: 17,442
_________________________________________________________________
Encoder
Model: "model_7"
_________________________________________________________________
 Layer (type)                Output Shape              Param #   
=================================================================
 input_8 (InputLayer)        [(None, 1264)]            0         
                                                                 
 input_7 (InputLayer)        multiple                  0         
                                                                 
 dense_6 (Dense)             (None, 3792)              4796880   
                                                                 
 batch_normalization_6 (Batc  (None, 3792)             15168     
 hNormalization)                                                 
                                                                 
 re_lu_6 (ReLU)              (None, 3792)              0         
                                                                 
 bottleneck (Dense)          (None, 1137)              4312641   
                                                                 
=================================================================
Total params: 9,124,689
Trainable params: 9,117,105
Non-trainable params: 7,584
_________________________________________________________________
Decoder
Model: "model_8"
_________________________________________________________________
 Layer (type)                Output Shape              Param #   
=================================================================
 input_9 (InputLayer)        [(None, 1137)]            0         
                                                                 
 batch_normalization_7 (Batc  (None, 1137)             4548      
 hNormalization)                                                 
                                                                 
 re_lu_7 (ReLU)              (None, 1137)              0         
                                                                 
 dense_7 (Dense)             (None, 3792)              4315296   
                                                                 
 batch_normalization_8 (Batc  (None, 3792)             15168     
 hNormalization)                                                 
                                                                 
 re_lu_8 (ReLU)              (None, 3792)              0         
                                                                 
 dense_8 (Dense)             (None, 1264)              4794352   
                                                                 
=================================================================
Total params: 9,129,364
Trainable params: 9,119,506
Non-trainable params: 9,858
_________________________________________________________________
Model: "model_9"
_________________________________________________________________
 Layer (type)                Output Shape              Param #   
=================================================================
 input_10 (InputLayer)       [(None, 1264)]            0         
                                                                 
 dense_9 (Dense)             (None, 3792)              4796880   
                                                                 
 batch_normalization_9 (Batc  (None, 3792)             15168     
 hNormalization)                                                 
                                                                 
 re_lu_9 (ReLU)              (None, 3792)              0         
                                                                 
 bottleneck (Dense)          (None, 1074)              4073682   
                                                                 
 batch_normalization_10 (Bat  (None, 1074)             4296      
 chNormalization)                                                
                                                                 
 re_lu_10 (ReLU)             (None, 1074)              0         
                                                                 
 dense_10 (Dense)            (None, 3792)              4076400   
                                                                 
 batch_normalization_11 (Bat  (None, 3792)             15168     
 chNormalization)                                                
                                                                 
 re_lu_11 (ReLU)             (None, 3792)              0         
                                                                 
 dense_11 (Dense)            (None, 1264)              4794352   
                                                                 
=================================================================
Total params: 17,775,946
Trainable params: 17,758,630
Non-trainable params: 17,316
_________________________________________________________________
Epoch 1/400
5969/5969 - 21s - loss: 0.0082 - val_loss: 0.0027 - 21s/epoch - 4ms/step
Epoch 2/400
5969/5969 - 20s - loss: 0.0026 - val_loss: 0.0017 - 20s/epoch - 3ms/step
…
32 [==============================] - 3s 1ms/step
correlation 0.008252239793460413
cosine 0.007539636075294472
MAE: 0.009669311
RMSE: 0.043840595
r2: 0.8753154695823908
RMSE zero-vector: 0.23411466903540806
Full AutoEncoder
Model: "model_9"
_________________________________________________________________
 Layer (type)                Output Shape              Param #   
=================================================================
 input_10 (InputLayer)       multiple                  0         
                                                                 
 dense_9 (Dense)             (None, 3792)              4796880   
                                                                 
 batch_normalization_9 (Batc  (None, 3792)             15168     
 hNormalization)                                                 
                                                                 
 re_lu_9 (ReLU)              (None, 3792)              0         
                                                                 
 bottleneck (Dense)          (None, 1074)              4073682   
                                                                 
 batch_normalization_10 (Bat  (None, 1074)             4296      
 chNormalization)                                                
                                                                 
 re_lu_10 (ReLU)             (None, 1074)              0         
                                                                 
 dense_10 (Dense)            (None, 3792)              4076400   
                                                                 
 batch_normalization_11 (Bat  (None, 3792)             15168     
 chNormalization)                                                
                                                                 
 re_lu_11 (ReLU)             (None, 3792)              0         
                                                                 
 dense_11 (Dense)            (None, 1264)              4794352   
                                                                 
=================================================================
Total params: 17,775,946
Trainable params: 17,758,630
Non-trainable params: 17,316
_________________________________________________________________
Encoder
Model: "model_10"
_________________________________________________________________
 Layer (type)                Output Shape              Param #   
=================================================================
 input_11 (InputLayer)       [(None, 1264)]            0         
                                                                 
 input_10 (InputLayer)       multiple                  0         
                                                                 
 dense_9 (Dense)             (None, 3792)              4796880   
                                                                 
 batch_normalization_9 (Batc  (None, 3792)             15168     
 hNormalization)                                                 
                                                                 
 re_lu_9 (ReLU)              (None, 3792)              0         
                                                                 
 bottleneck (Dense)          (None, 1074)              4073682   
                                                                 
=================================================================
Total params: 8,885,730
Trainable params: 8,878,146
Non-trainable params: 7,584
_________________________________________________________________
Decoder
Model: "model_11"
_________________________________________________________________
 Layer (type)                Output Shape              Param #   
=================================================================
 input_12 (InputLayer)       [(None, 1074)]            0         
                                                                 
 batch_normalization_10 (Bat  (None, 1074)             4296      
 chNormalization)                                                
                                                                 
 re_lu_10 (ReLU)             (None, 1074)              0         
                                                                 
 dense_10 (Dense)            (None, 3792)              4076400   
                                                                 
 batch_normalization_11 (Bat  (None, 3792)             15168     
 chNormalization)                                                
                                                                 
 re_lu_11 (ReLU)             (None, 3792)              0         
                                                                 
 dense_11 (Dense)            (None, 1264)              4794352   
                                                                 
=================================================================
Total params: 8,890,216
Trainable params: 8,880,484
Non-trainable params: 9,732
_________________________________________________________________
Model: "model_12"
_________________________________________________________________
 Layer (type)                Output Shape              Param #   
=================================================================
 input_13 (InputLayer)       [(None, 1264)]            0         
                                                                 
 dense_12 (Dense)            (None, 3792)              4796880   
                                                                 
 batch_normalization_12 (Bat  (None, 3792)             15168     
 chNormalization)                                                
                                                                 
 re_lu_12 (ReLU)             (None, 3792)              0         
                                                                 
 bottleneck (Dense)          (None, 1011)              3834723   
                                                                 
 batch_normalization_13 (Bat  (None, 1011)             4044      
 chNormalization)                                                
                                                                 
 re_lu_13 (ReLU)             (None, 1011)              0         
                                                                 
 dense_13 (Dense)            (None, 3792)              3837504   
                                                                 
 batch_normalization_14 (Bat  (None, 3792)             15168     
 chNormalization)                                                
                                                                 
 re_lu_14 (ReLU)             (None, 3792)              0         
                                                                 
 dense_14 (Dense)            (None, 1264)              4794352   
                                                                 
=================================================================
Total params: 17,297,839
Trainable params: 17,280,649
Non-trainable params: 17,190
_________________________________________________________________
Epoch 1/400
5969/5969 - 21s - loss: 0.0083 - val_loss: 0.0025 - 21s/epoch - 4ms/step
Epoch 2/400
5969/5969 - 20s - loss: 0.0026 - val_loss: 0.0016 - 20s/epoch - 3ms/step
…
2 [==============================] - 2s 1ms/step
correlation 0.011199231853844128
cosine 0.009965243859197614
MAE: 0.011618605
RMSE: 0.053708006
r2: 0.8128722277616854
RMSE zero-vector: 0.23411466903540806
Full AutoEncoder
Model: "model_12"
_________________________________________________________________
 Layer (type)                Output Shape              Param #   
=================================================================
 input_13 (InputLayer)       multiple                  0         
                                                                 
 dense_12 (Dense)            (None, 3792)              4796880   
                                                                 
 batch_normalization_12 (Bat  (None, 3792)             15168     
 chNormalization)                                                
                                                                 
 re_lu_12 (ReLU)             (None, 3792)              0         
                                                                 
 bottleneck (Dense)          (None, 1011)              3834723   
                                                                 
 batch_normalization_13 (Bat  (None, 1011)             4044      
 chNormalization)                                                
                                                                 
 re_lu_13 (ReLU)             (None, 1011)              0         
                                                                 
 dense_13 (Dense)            (None, 3792)              3837504   
                                                                 
 batch_normalization_14 (Bat  (None, 3792)             15168     
 chNormalization)                                                
                                                                 
 re_lu_14 (ReLU)             (None, 3792)              0         
                                                                 
 dense_14 (Dense)            (None, 1264)              4794352   
                                                                 
=================================================================
Total params: 17,297,839
Trainable params: 17,280,649
Non-trainable params: 17,190
_________________________________________________________________
Encoder
Model: "model_13"
_________________________________________________________________
 Layer (type)                Output Shape              Param #   
=================================================================
 input_14 (InputLayer)       [(None, 1264)]            0         
                                                                 
 input_13 (InputLayer)       multiple                  0         
                                                                 
 dense_12 (Dense)            (None, 3792)              4796880   
                                                                 
 batch_normalization_12 (Bat  (None, 3792)             15168     
 chNormalization)                                                
                                                                 
 re_lu_12 (ReLU)             (None, 3792)              0         
                                                                 
 bottleneck (Dense)          (None, 1011)              3834723   
                                                                 
=================================================================
Total params: 8,646,771
Trainable params: 8,639,187
Non-trainable params: 7,584
_________________________________________________________________
Decoder
Model: "model_14"
_________________________________________________________________
 Layer (type)                Output Shape              Param #   
=================================================================
 input_15 (InputLayer)       [(None, 1011)]            0         
                                                                 
 batch_normalization_13 (Bat  (None, 1011)             4044      
 chNormalization)                                                
                                                                 
 re_lu_13 (ReLU)             (None, 1011)              0         
                                                                 
 dense_13 (Dense)            (None, 3792)              3837504   
                                                                 
 batch_normalization_14 (Bat  (None, 3792)             15168     
 chNormalization)                                                
                                                                 
 re_lu_14 (ReLU)             (None, 3792)              0         
                                                                 
 dense_14 (Dense)            (None, 1264)              4794352   
                                                                 
=================================================================
Total params: 8,651,068
Trainable params: 8,641,462
Non-trainable params: 9,606
_________________________________________________________________
Model: "model_15"
_________________________________________________________________
 Layer (type)                Output Shape              Param #   
=================================================================
 input_16 (InputLayer)       [(None, 1264)]            0         
                                                                 
 dense_15 (Dense)            (None, 3792)              4796880   
                                                                 
 batch_normalization_15 (Bat  (None, 3792)             15168     
 chNormalization)                                                
                                                                 
 re_lu_15 (ReLU)             (None, 3792)              0         
                                                                 
 bottleneck (Dense)          (None, 947)               3591971   
                                                                 
 batch_normalization_16 (Bat  (None, 947)              3788      
 chNormalization)                                                
                                                                 
 re_lu_16 (ReLU)             (None, 947)               0         
                                                                 
 dense_16 (Dense)            (None, 3792)              3594816   
                                                                 
 batch_normalization_17 (Bat  (None, 3792)             15168     
 chNormalization)                                                
                                                                 
 re_lu_17 (ReLU)             (None, 3792)              0         
                                                                 
 dense_17 (Dense)            (None, 1264)              4794352   
                                                                 
=================================================================
Total params: 16,812,143
Trainable params: 16,795,081
Non-trainable params: 17,062
_________________________________________________________________
Epoch 1/400
5969/5969 - 21s - loss: 0.0083 - val_loss: 0.0028 - 21s/epoch - 4ms/step
Epoch 2/400
5969/5969 - 20s - loss: 0.0026 - val_loss: 0.0016 - 20s/epoch - 3ms/step
…
2 [==============================] - 1s 1ms/step
correlation 0.015585286627726154
cosine 0.014351648587103031
MAE: 0.013132495
RMSE: 0.085853994
r2: 0.5218401079624164
RMSE zero-vector: 0.23411466903540806
Full AutoEncoder
Model: "model_15"
_________________________________________________________________
 Layer (type)                Output Shape              Param #   
=================================================================
 input_16 (InputLayer)       multiple                  0         
                                                                 
 dense_15 (Dense)            (None, 3792)              4796880   
                                                                 
 batch_normalization_15 (Bat  (None, 3792)             15168     
 chNormalization)                                                
                                                                 
 re_lu_15 (ReLU)             (None, 3792)              0         
                                                                 
 bottleneck (Dense)          (None, 947)               3591971   
                                                                 
 batch_normalization_16 (Bat  (None, 947)              3788      
 chNormalization)                                                
                                                                 
 re_lu_16 (ReLU)             (None, 947)               0         
                                                                 
 dense_16 (Dense)            (None, 3792)              3594816   
                                                                 
 batch_normalization_17 (Bat  (None, 3792)             15168     
 chNormalization)                                                
                                                                 
 re_lu_17 (ReLU)             (None, 3792)              0         
                                                                 
 dense_17 (Dense)            (None, 1264)              4794352   
                                                                 
=================================================================
Total params: 16,812,143
Trainable params: 16,795,081
Non-trainable params: 17,062
_________________________________________________________________
Encoder
Model: "model_16"
_________________________________________________________________
 Layer (type)                Output Shape              Param #   
=================================================================
 input_17 (InputLayer)       [(None, 1264)]            0         
                                                                 
 input_16 (InputLayer)       multiple                  0         
                                                                 
 dense_15 (Dense)            (None, 3792)              4796880   
                                                                 
 batch_normalization_15 (Bat  (None, 3792)             15168     
 chNormalization)                                                
                                                                 
 re_lu_15 (ReLU)             (None, 3792)              0         
                                                                 
 bottleneck (Dense)          (None, 947)               3591971   
                                                                 
=================================================================
Total params: 8,404,019
Trainable params: 8,396,435
Non-trainable params: 7,584
_________________________________________________________________
Decoder
Model: "model_17"
_________________________________________________________________
 Layer (type)                Output Shape              Param #   
=================================================================
 input_18 (InputLayer)       [(None, 947)]             0         
                                                                 
 batch_normalization_16 (Bat  (None, 947)              3788      
 chNormalization)                                                
                                                                 
 re_lu_16 (ReLU)             (None, 947)               0         
                                                                 
 dense_16 (Dense)            (None, 3792)              3594816   
                                                                 
 batch_normalization_17 (Bat  (None, 3792)             15168     
 chNormalization)                                                
                                                                 
 re_lu_17 (ReLU)             (None, 3792)              0         
                                                                 
 dense_17 (Dense)            (None, 1264)              4794352   
                                                                 
=================================================================
Total params: 8,408,124
Trainable params: 8,398,646
Non-trainable params: 9,478
_________________________________________________________________
Model: "model_18"
_________________________________________________________________
 Layer (type)                Output Shape              Param #   
=================================================================
 input_19 (InputLayer)       [(None, 1264)]            0         
                                                                 
 dense_18 (Dense)            (None, 3792)              4796880   
                                                                 
 batch_normalization_18 (Bat  (None, 3792)             15168     
 chNormalization)                                                
                                                                 
 re_lu_18 (ReLU)             (None, 3792)              0         
                                                                 
 bottleneck (Dense)          (None, 884)               3353012   
                                                                 
 batch_normalization_19 (Bat  (None, 884)              3536      
 chNormalization)                                                
                                                                 
 re_lu_19 (ReLU)             (None, 884)               0         
                                                                 
 dense_19 (Dense)            (None, 3792)              3355920   
                                                                 
 batch_normalization_20 (Bat  (None, 3792)             15168     
 chNormalization)                                                
                                                                 
 re_lu_20 (ReLU)             (None, 3792)              0         
                                                                 
 dense_20 (Dense)            (None, 1264)              4794352   
                                                                 
=================================================================
Total params: 16,334,036
Trainable params: 16,317,100
Non-trainable params: 16,936
_________________________________________________________________
Epoch 1/400
5969/5969 - 21s - loss: 0.0083 - val_loss: 0.0025 - 21s/epoch - 4ms/step
Epoch 2/400
5969/5969 - 19s - loss: 0.0026 - val_loss: 0.0016 - 19s/epoch - 3ms/step
…
2 [==============================] - 1s 1ms/step
correlation 0.009526844454112702
cosine 0.008431454351655591
MAE: 0.011243286
RMSE: 0.057863705
r2: 0.7827936035553261
RMSE zero-vector: 0.23411466903540806
Full AutoEncoder
Model: "model_18"
_________________________________________________________________
 Layer (type)                Output Shape              Param #   
=================================================================
 input_19 (InputLayer)       multiple                  0         
                                                                 
 dense_18 (Dense)            (None, 3792)              4796880   
                                                                 
 batch_normalization_18 (Bat  (None, 3792)             15168     
 chNormalization)                                                
                                                                 
 re_lu_18 (ReLU)             (None, 3792)              0         
                                                                 
 bottleneck (Dense)          (None, 884)               3353012   
                                                                 
 batch_normalization_19 (Bat  (None, 884)              3536      
 chNormalization)                                                
                                                                 
 re_lu_19 (ReLU)             (None, 884)               0         
                                                                 
 dense_19 (Dense)            (None, 3792)              3355920   
                                                                 
 batch_normalization_20 (Bat  (None, 3792)             15168     
 chNormalization)                                                
                                                                 
 re_lu_20 (ReLU)             (None, 3792)              0         
                                                                 
 dense_20 (Dense)            (None, 1264)              4794352   
                                                                 
=================================================================
Total params: 16,334,036
Trainable params: 16,317,100
Non-trainable params: 16,936
_________________________________________________________________
Encoder
Model: "model_19"
_________________________________________________________________
 Layer (type)                Output Shape              Param #   
=================================================================
 input_20 (InputLayer)       [(None, 1264)]            0         
                                                                 
 input_19 (InputLayer)       multiple                  0         
                                                                 
 dense_18 (Dense)            (None, 3792)              4796880   
                                                                 
 batch_normalization_18 (Bat  (None, 3792)             15168     
 chNormalization)                                                
                                                                 
 re_lu_18 (ReLU)             (None, 3792)              0         
                                                                 
 bottleneck (Dense)          (None, 884)               3353012   
                                                                 
=================================================================
Total params: 8,165,060
Trainable params: 8,157,476
Non-trainable params: 7,584
_________________________________________________________________
Decoder
Model: "model_20"
_________________________________________________________________
 Layer (type)                Output Shape              Param #   
=================================================================
 input_21 (InputLayer)       [(None, 884)]             0         
                                                                 
 batch_normalization_19 (Bat  (None, 884)              3536      
 chNormalization)                                                
                                                                 
 re_lu_19 (ReLU)             (None, 884)               0         
                                                                 
 dense_19 (Dense)            (None, 3792)              3355920   
                                                                 
 batch_normalization_20 (Bat  (None, 3792)             15168     
 chNormalization)                                                
                                                                 
 re_lu_20 (ReLU)             (None, 3792)              0         
                                                                 
 dense_20 (Dense)            (None, 1264)              4794352   
                                                                 
=================================================================
Total params: 8,168,976
Trainable params: 8,159,624
Non-trainable params: 9,352
_________________________________________________________________
Model: "model_21"
_________________________________________________________________
 Layer (type)                Output Shape              Param #   
=================================================================
 input_22 (InputLayer)       [(None, 1264)]            0         
                                                                 
 dense_21 (Dense)            (None, 3792)              4796880   
                                                                 
 batch_normalization_21 (Bat  (None, 3792)             15168     
 chNormalization)                                                
                                                                 
 re_lu_21 (ReLU)             (None, 3792)              0         
                                                                 
 bottleneck (Dense)          (None, 821)               3114053   
                                                                 
 batch_normalization_22 (Bat  (None, 821)              3284      
 chNormalization)                                                
                                                                 
 re_lu_22 (ReLU)             (None, 821)               0         
                                                                 
 dense_22 (Dense)            (None, 3792)              3117024   
                                                                 
 batch_normalization_23 (Bat  (None, 3792)             15168     
 chNormalization)                                                
                                                                 
 re_lu_23 (ReLU)             (None, 3792)              0         
                                                                 
 dense_23 (Dense)            (None, 1264)              4794352   
                                                                 
=================================================================
Total params: 15,855,929
Trainable params: 15,839,119
Non-trainable params: 16,810
_________________________________________________________________
Epoch 1/400
5969/5969 - 21s - loss: 0.0083 - val_loss: 0.0025 - 21s/epoch - 4ms/step
Epoch 2/400
5969/5969 - 19s - loss: 0.0026 - val_loss: 0.0017 - 19s/epoch - 3ms/step
…
