…
2022-12-18 04:32:26.400371: I tensorflow/core/common_runtime/gpu/gpu_device.cc:1616] Created device /job:localhost/replica:0/task:0/device:GPU:0 with 20637 MB memory:  -> device: 0, name: NVIDIA A10, pci bus id: 0000:84:00.0, compute capability: 8.6
Model: "model"
_________________________________________________________________
 Layer (type)                Output Shape              Param #   
=================================================================
 input_1 (InputLayer)        [(None, 1020)]            0         
                                                                 
 dense (Dense)               (None, 3060)              3124260   
                                                                 
 batch_normalization (BatchN  (None, 3060)             12240     
 ormalization)                                                   
                                                                 
 re_lu (ReLU)                (None, 3060)              0         
                                                                 
 dense_1 (Dense)             (None, 2040)              6244440   
                                                                 
 batch_normalization_1 (Batc  (None, 2040)             8160      
 hNormalization)                                                 
                                                                 
 re_lu_1 (ReLU)              (None, 2040)              0         
                                                                 
 bottleneck (Dense)          (None, 918)               1873638   
                                                                 
 batch_normalization_2 (Batc  (None, 918)              3672      
 hNormalization)                                                 
                                                                 
 re_lu_2 (ReLU)              (None, 918)               0         
                                                                 
 dense_2 (Dense)             (None, 2040)              1874760   
                                                                 
 batch_normalization_3 (Batc  (None, 2040)             8160      
 hNormalization)                                                 
                                                                 
 re_lu_3 (ReLU)              (None, 2040)              0         
                                                                 
 dense_3 (Dense)             (None, 3060)              6245460   
                                                                 
 batch_normalization_4 (Batc  (None, 3060)             12240     
 hNormalization)                                                 
                                                                 
 re_lu_4 (ReLU)              (None, 3060)              0         
                                                                 
 dense_4 (Dense)             (None, 1020)              3122220   
                                                                 
=================================================================
Total params: 22,529,250
Trainable params: 22,507,014
Non-trainable params: 22,236
_________________________________________________________________
Epoch 1/400
2022-12-18 04:32:28.325774: I tensorflow/stream_executor/cuda/cuda_blas.cc:1614] TensorFloat-32 will be used for the matrix multiplication. This will only be logged once.
…
 1/60 [..............................] - ETA: 8s45/60 [=====================>........] - ETA: 0s60/60 [==============================] - 0s 1ms/step
correlation 0.014300606297243631
cosine 0.01136712511123168
MAE: 0.014892291597663747
RMSE: 0.10846758379474127
r2: 0.6618365535494678
RMSE zero-vector: 0.34573518857430263
Full AutoEncoder
Model: "model"
_________________________________________________________________
 Layer (type)                Output Shape              Param #   
=================================================================
 input_1 (InputLayer)        multiple                  0         
                                                                 
 dense (Dense)               (None, 3060)              3124260   
                                                                 
 batch_normalization (BatchN  (None, 3060)             12240     
 ormalization)                                                   
                                                                 
 re_lu (ReLU)                (None, 3060)              0         
                                                                 
 dense_1 (Dense)             (None, 2040)              6244440   
                                                                 
 batch_normalization_1 (Batc  (None, 2040)             8160      
 hNormalization)                                                 
                                                                 
 re_lu_1 (ReLU)              (None, 2040)              0         
                                                                 
 bottleneck (Dense)          (None, 918)               1873638   
                                                                 
 batch_normalization_2 (Batc  (None, 918)              3672      
 hNormalization)                                                 
                                                                 
 re_lu_2 (ReLU)              (None, 918)               0         
                                                                 
 dense_2 (Dense)             (None, 2040)              1874760   
                                                                 
 batch_normalization_3 (Batc  (None, 2040)             8160      
 hNormalization)                                                 
                                                                 
 re_lu_3 (ReLU)              (None, 2040)              0         
                                                                 
 dense_3 (Dense)             (None, 3060)              6245460   
                                                                 
 batch_normalization_4 (Batc  (None, 3060)             12240     
 hNormalization)                                                 
                                                                 
 re_lu_4 (ReLU)              (None, 3060)              0         
                                                                 
 dense_4 (Dense)             (None, 1020)              3122220   
                                                                 
=================================================================
Total params: 22,529,250
Trainable params: 22,507,014
Non-trainable params: 22,236
_________________________________________________________________
Encoder
Model: "model_1"
_________________________________________________________________
 Layer (type)                Output Shape              Param #   
=================================================================
 input_2 (InputLayer)        [(None, 1020)]            0         
                                                                 
 input_1 (InputLayer)        multiple                  0         
                                                                 
 dense (Dense)               (None, 3060)              3124260   
                                                                 
 batch_normalization (BatchN  (None, 3060)             12240     
 ormalization)                                                   
                                                                 
 re_lu (ReLU)                (None, 3060)              0         
                                                                 
 dense_1 (Dense)             (None, 2040)              6244440   
                                                                 
 batch_normalization_1 (Batc  (None, 2040)             8160      
 hNormalization)                                                 
                                                                 
 re_lu_1 (ReLU)              (None, 2040)              0         
                                                                 
 bottleneck (Dense)          (None, 918)               1873638   
                                                                 
=================================================================
Total params: 11,262,738
Trainable params: 11,252,538
Non-trainable params: 10,200
_________________________________________________________________
Decoder
Model: "model_2"
_________________________________________________________________
 Layer (type)                Output Shape              Param #   
=================================================================
 input_3 (InputLayer)        [(None, 918)]             0         
                                                                 
 batch_normalization_2 (Batc  (None, 918)              3672      
 hNormalization)                                                 
                                                                 
 re_lu_2 (ReLU)              (None, 918)               0         
                                                                 
 dense_2 (Dense)             (None, 2040)              1874760   
                                                                 
 batch_normalization_3 (Batc  (None, 2040)             8160      
 hNormalization)                                                 
                                                                 
 re_lu_3 (ReLU)              (None, 2040)              0         
                                                                 
 dense_3 (Dense)             (None, 3060)              6245460   
                                                                 
 batch_normalization_4 (Batc  (None, 3060)             12240     
 hNormalization)                                                 
                                                                 
 re_lu_4 (ReLU)              (None, 3060)              0         
                                                                 
 dense_4 (Dense)             (None, 1020)              3122220   
                                                                 
=================================================================
Total params: 11,266,512
Trainable params: 11,254,476
Non-trainable params: 12,036
_________________________________________________________________
Model: "model_3"
_________________________________________________________________
 Layer (type)                Output Shape              Param #   
=================================================================
 input_4 (InputLayer)        [(None, 1020)]            0         
                                                                 
 dense_5 (Dense)             (None, 3060)              3124260   
                                                                 
 batch_normalization_5 (Batc  (None, 3060)             12240     
 hNormalization)                                                 
                                                                 
 re_lu_5 (ReLU)              (None, 3060)              0         
                                                                 
 dense_6 (Dense)             (None, 2040)              6244440   
                                                                 
 batch_normalization_6 (Batc  (None, 2040)             8160      
 hNormalization)                                                 
                                                                 
 re_lu_6 (ReLU)              (None, 2040)              0         
                                                                 
 bottleneck (Dense)          (None, 867)               1769547   
                                                                 
 batch_normalization_7 (Batc  (None, 867)              3468      
 hNormalization)                                                 
                                                                 
 re_lu_7 (ReLU)              (None, 867)               0         
                                                                 
 dense_7 (Dense)             (None, 2040)              1770720   
                                                                 
 batch_normalization_8 (Batc  (None, 2040)             8160      
 hNormalization)                                                 
                                                                 
 re_lu_8 (ReLU)              (None, 2040)              0         
                                                                 
 dense_8 (Dense)             (None, 3060)              6245460   
                                                                 
 batch_normalization_9 (Batc  (None, 3060)             12240     
 hNormalization)                                                 
                                                                 
 re_lu_9 (ReLU)              (None, 3060)              0         
                                                                 
 dense_9 (Dense)             (None, 1020)              3122220   
                                                                 
=================================================================
Total params: 22,320,915
Trainable params: 22,298,781
Non-trainable params: 22,134
_________________________________________________________________
Epoch 1/400
1065/1065 - 5s - loss: 0.0260 - val_loss: 0.0186 - 5s/epoch - 5ms/step
Epoch 2/400
1065/1065 - 5s - loss: 0.0119 - val_loss: 0.0164 - 5s/epoch - 4ms/step
…
 1/60 [..............................] - ETA: 7s45/60 [=====================>........] - ETA: 0s60/60 [==============================] - 0s 1ms/step
correlation 0.010510051606027854
cosine 0.007499466367185473
MAE: 0.015629998504635628
RMSE: 0.09427432500522773
r2: 0.744547630955049
RMSE zero-vector: 0.34573518857430263
Full AutoEncoder
Model: "model_3"
_________________________________________________________________
 Layer (type)                Output Shape              Param #   
=================================================================
 input_4 (InputLayer)        multiple                  0         
                                                                 
 dense_5 (Dense)             (None, 3060)              3124260   
                                                                 
 batch_normalization_5 (Batc  (None, 3060)             12240     
 hNormalization)                                                 
                                                                 
 re_lu_5 (ReLU)              (None, 3060)              0         
                                                                 
 dense_6 (Dense)             (None, 2040)              6244440   
                                                                 
 batch_normalization_6 (Batc  (None, 2040)             8160      
 hNormalization)                                                 
                                                                 
 re_lu_6 (ReLU)              (None, 2040)              0         
                                                                 
 bottleneck (Dense)          (None, 867)               1769547   
                                                                 
 batch_normalization_7 (Batc  (None, 867)              3468      
 hNormalization)                                                 
                                                                 
 re_lu_7 (ReLU)              (None, 867)               0         
                                                                 
 dense_7 (Dense)             (None, 2040)              1770720   
                                                                 
 batch_normalization_8 (Batc  (None, 2040)             8160      
 hNormalization)                                                 
                                                                 
 re_lu_8 (ReLU)              (None, 2040)              0         
                                                                 
 dense_8 (Dense)             (None, 3060)              6245460   
                                                                 
 batch_normalization_9 (Batc  (None, 3060)             12240     
 hNormalization)                                                 
                                                                 
 re_lu_9 (ReLU)              (None, 3060)              0         
                                                                 
 dense_9 (Dense)             (None, 1020)              3122220   
                                                                 
=================================================================
Total params: 22,320,915
Trainable params: 22,298,781
Non-trainable params: 22,134
_________________________________________________________________
Encoder
Model: "model_4"
_________________________________________________________________
 Layer (type)                Output Shape              Param #   
=================================================================
 input_5 (InputLayer)        [(None, 1020)]            0         
                                                                 
 input_4 (InputLayer)        multiple                  0         
                                                                 
 dense_5 (Dense)             (None, 3060)              3124260   
                                                                 
 batch_normalization_5 (Batc  (None, 3060)             12240     
 hNormalization)                                                 
                                                                 
 re_lu_5 (ReLU)              (None, 3060)              0         
                                                                 
 dense_6 (Dense)             (None, 2040)              6244440   
                                                                 
 batch_normalization_6 (Batc  (None, 2040)             8160      
 hNormalization)                                                 
                                                                 
 re_lu_6 (ReLU)              (None, 2040)              0         
                                                                 
 bottleneck (Dense)          (None, 867)               1769547   
                                                                 
=================================================================
Total params: 11,158,647
Trainable params: 11,148,447
Non-trainable params: 10,200
_________________________________________________________________
Decoder
Model: "model_5"
_________________________________________________________________
 Layer (type)                Output Shape              Param #   
=================================================================
 input_6 (InputLayer)        [(None, 867)]             0         
                                                                 
 batch_normalization_7 (Batc  (None, 867)              3468      
 hNormalization)                                                 
                                                                 
 re_lu_7 (ReLU)              (None, 867)               0         
                                                                 
 dense_7 (Dense)             (None, 2040)              1770720   
                                                                 
 batch_normalization_8 (Batc  (None, 2040)             8160      
 hNormalization)                                                 
                                                                 
 re_lu_8 (ReLU)              (None, 2040)              0         
                                                                 
 dense_8 (Dense)             (None, 3060)              6245460   
                                                                 
 batch_normalization_9 (Batc  (None, 3060)             12240     
 hNormalization)                                                 
                                                                 
 re_lu_9 (ReLU)              (None, 3060)              0         
                                                                 
 dense_9 (Dense)             (None, 1020)              3122220   
                                                                 
=================================================================
Total params: 11,162,268
Trainable params: 11,150,334
Non-trainable params: 11,934
_________________________________________________________________
Model: "model_6"
_________________________________________________________________
 Layer (type)                Output Shape              Param #   
=================================================================
 input_7 (InputLayer)        [(None, 1020)]            0         
                                                                 
 dense_10 (Dense)            (None, 3060)              3124260   
                                                                 
 batch_normalization_10 (Bat  (None, 3060)             12240     
 chNormalization)                                                
                                                                 
 re_lu_10 (ReLU)             (None, 3060)              0         
                                                                 
 dense_11 (Dense)            (None, 2040)              6244440   
                                                                 
 batch_normalization_11 (Bat  (None, 2040)             8160      
 chNormalization)                                                
                                                                 
 re_lu_11 (ReLU)             (None, 2040)              0         
                                                                 
 bottleneck (Dense)          (None, 815)               1663415   
                                                                 
 batch_normalization_12 (Bat  (None, 815)              3260      
 chNormalization)                                                
                                                                 
 re_lu_12 (ReLU)             (None, 815)               0         
                                                                 
 dense_12 (Dense)            (None, 2040)              1664640   
                                                                 
 batch_normalization_13 (Bat  (None, 2040)             8160      
 chNormalization)                                                
                                                                 
 re_lu_13 (ReLU)             (None, 2040)              0         
                                                                 
 dense_13 (Dense)            (None, 3060)              6245460   
                                                                 
 batch_normalization_14 (Bat  (None, 3060)             12240     
 chNormalization)                                                
                                                                 
 re_lu_14 (ReLU)             (None, 3060)              0         
                                                                 
 dense_14 (Dense)            (None, 1020)              3122220   
                                                                 
=================================================================
Total params: 22,108,495
Trainable params: 22,086,465
Non-trainable params: 22,030
_________________________________________________________________
Epoch 1/400
1065/1065 - 6s - loss: 0.0263 - val_loss: 0.0219 - 6s/epoch - 5ms/step
Epoch 2/400
1065/1065 - 5s - loss: 0.0117 - val_loss: 0.0141 - 5s/epoch - 4ms/step
…
 1/60 [..............................] - ETA: 7s45/60 [=====================>........] - ETA: 0s60/60 [==============================] - 0s 1ms/step
correlation 0.011348031280885398
cosine 0.008536120011531421
MAE: 0.01732674288846462
RMSE: 0.07733210849516675
r2: 0.8281621547872204
RMSE zero-vector: 0.34573518857430263
Full AutoEncoder
Model: "model_6"
_________________________________________________________________
 Layer (type)                Output Shape              Param #   
=================================================================
 input_7 (InputLayer)        multiple                  0         
                                                                 
 dense_10 (Dense)            (None, 3060)              3124260   
                                                                 
 batch_normalization_10 (Bat  (None, 3060)             12240     
 chNormalization)                                                
                                                                 
 re_lu_10 (ReLU)             (None, 3060)              0         
                                                                 
 dense_11 (Dense)            (None, 2040)              6244440   
                                                                 
 batch_normalization_11 (Bat  (None, 2040)             8160      
 chNormalization)                                                
                                                                 
 re_lu_11 (ReLU)             (None, 2040)              0         
                                                                 
 bottleneck (Dense)          (None, 815)               1663415   
                                                                 
 batch_normalization_12 (Bat  (None, 815)              3260      
 chNormalization)                                                
                                                                 
 re_lu_12 (ReLU)             (None, 815)               0         
                                                                 
 dense_12 (Dense)            (None, 2040)              1664640   
                                                                 
 batch_normalization_13 (Bat  (None, 2040)             8160      
 chNormalization)                                                
                                                                 
 re_lu_13 (ReLU)             (None, 2040)              0         
                                                                 
 dense_13 (Dense)            (None, 3060)              6245460   
                                                                 
 batch_normalization_14 (Bat  (None, 3060)             12240     
 chNormalization)                                                
                                                                 
 re_lu_14 (ReLU)             (None, 3060)              0         
                                                                 
 dense_14 (Dense)            (None, 1020)              3122220   
                                                                 
=================================================================
Total params: 22,108,495
Trainable params: 22,086,465
Non-trainable params: 22,030
_________________________________________________________________
Encoder
Model: "model_7"
_________________________________________________________________
 Layer (type)                Output Shape              Param #   
=================================================================
 input_8 (InputLayer)        [(None, 1020)]            0         
                                                                 
 input_7 (InputLayer)        multiple                  0         
                                                                 
 dense_10 (Dense)            (None, 3060)              3124260   
                                                                 
 batch_normalization_10 (Bat  (None, 3060)             12240     
 chNormalization)                                                
                                                                 
 re_lu_10 (ReLU)             (None, 3060)              0         
                                                                 
 dense_11 (Dense)            (None, 2040)              6244440   
                                                                 
 batch_normalization_11 (Bat  (None, 2040)             8160      
 chNormalization)                                                
                                                                 
 re_lu_11 (ReLU)             (None, 2040)              0         
                                                                 
 bottleneck (Dense)          (None, 815)               1663415   
                                                                 
=================================================================
Total params: 11,052,515
Trainable params: 11,042,315
Non-trainable params: 10,200
_________________________________________________________________
Decoder
Model: "model_8"
_________________________________________________________________
 Layer (type)                Output Shape              Param #   
=================================================================
 input_9 (InputLayer)        [(None, 815)]             0         
                                                                 
 batch_normalization_12 (Bat  (None, 815)              3260      
 chNormalization)                                                
                                                                 
 re_lu_12 (ReLU)             (None, 815)               0         
                                                                 
 dense_12 (Dense)            (None, 2040)              1664640   
                                                                 
 batch_normalization_13 (Bat  (None, 2040)             8160      
 chNormalization)                                                
                                                                 
 re_lu_13 (ReLU)             (None, 2040)              0         
                                                                 
 dense_13 (Dense)            (None, 3060)              6245460   
                                                                 
 batch_normalization_14 (Bat  (None, 3060)             12240     
 chNormalization)                                                
                                                                 
 re_lu_14 (ReLU)             (None, 3060)              0         
                                                                 
 dense_14 (Dense)            (None, 1020)              3122220   
                                                                 
=================================================================
Total params: 11,055,980
Trainable params: 11,044,150
Non-trainable params: 11,830
_________________________________________________________________
Model: "model_9"
_________________________________________________________________
 Layer (type)                Output Shape              Param #   
=================================================================
 input_10 (InputLayer)       [(None, 1020)]            0         
                                                                 
 dense_15 (Dense)            (None, 3060)              3124260   
                                                                 
 batch_normalization_15 (Bat  (None, 3060)             12240     
 chNormalization)                                                
                                                                 
 re_lu_15 (ReLU)             (None, 3060)              0         
                                                                 
 dense_16 (Dense)            (None, 2040)              6244440   
                                                                 
 batch_normalization_16 (Bat  (None, 2040)             8160      
 chNormalization)                                                
                                                                 
 re_lu_16 (ReLU)             (None, 2040)              0         
                                                                 
 bottleneck (Dense)          (None, 764)               1559324   
                                                                 
 batch_normalization_17 (Bat  (None, 764)              3056      
 chNormalization)                                                
                                                                 
 re_lu_17 (ReLU)             (None, 764)               0         
                                                                 
 dense_17 (Dense)            (None, 2040)              1560600   
                                                                 
 batch_normalization_18 (Bat  (None, 2040)             8160      
 chNormalization)                                                
                                                                 
 re_lu_18 (ReLU)             (None, 2040)              0         
                                                                 
 dense_18 (Dense)            (None, 3060)              6245460   
                                                                 
 batch_normalization_19 (Bat  (None, 3060)             12240     
 chNormalization)                                                
                                                                 
 re_lu_19 (ReLU)             (None, 3060)              0         
                                                                 
 dense_19 (Dense)            (None, 1020)              3122220   
                                                                 
=================================================================
Total params: 21,900,160
Trainable params: 21,878,232
Non-trainable params: 21,928
_________________________________________________________________
Epoch 1/400
1065/1065 - 6s - loss: 0.0260 - val_loss: 0.0261 - 6s/epoch - 5ms/step
Epoch 2/400
1065/1065 - 4s - loss: 0.0111 - val_loss: 0.0151 - 4s/epoch - 4ms/step
…
 1/60 [..............................] - ETA: 7s44/60 [=====================>........] - ETA: 0s60/60 [==============================] - 0s 1ms/step
correlation 0.014968148202192166
cosine 0.011324996875530768
MAE: 0.018031495881637234
RMSE: 0.08051028249077842
r2: 0.8139766433999867
RMSE zero-vector: 0.34573518857430263
Full AutoEncoder
Model: "model_9"
_________________________________________________________________
 Layer (type)                Output Shape              Param #   
=================================================================
 input_10 (InputLayer)       multiple                  0         
                                                                 
 dense_15 (Dense)            (None, 3060)              3124260   
                                                                 
 batch_normalization_15 (Bat  (None, 3060)             12240     
 chNormalization)                                                
                                                                 
 re_lu_15 (ReLU)             (None, 3060)              0         
                                                                 
 dense_16 (Dense)            (None, 2040)              6244440   
                                                                 
 batch_normalization_16 (Bat  (None, 2040)             8160      
 chNormalization)                                                
                                                                 
 re_lu_16 (ReLU)             (None, 2040)              0         
                                                                 
 bottleneck (Dense)          (None, 764)               1559324   
                                                                 
 batch_normalization_17 (Bat  (None, 764)              3056      
 chNormalization)                                                
                                                                 
 re_lu_17 (ReLU)             (None, 764)               0         
                                                                 
 dense_17 (Dense)            (None, 2040)              1560600   
                                                                 
 batch_normalization_18 (Bat  (None, 2040)             8160      
 chNormalization)                                                
                                                                 
 re_lu_18 (ReLU)             (None, 2040)              0         
                                                                 
 dense_18 (Dense)            (None, 3060)              6245460   
                                                                 
 batch_normalization_19 (Bat  (None, 3060)             12240     
 chNormalization)                                                
                                                                 
 re_lu_19 (ReLU)             (None, 3060)              0         
                                                                 
 dense_19 (Dense)            (None, 1020)              3122220   
                                                                 
=================================================================
Total params: 21,900,160
Trainable params: 21,878,232
Non-trainable params: 21,928
_________________________________________________________________
Encoder
Model: "model_10"
_________________________________________________________________
 Layer (type)                Output Shape              Param #   
=================================================================
 input_11 (InputLayer)       [(None, 1020)]            0         
                                                                 
 input_10 (InputLayer)       multiple                  0         
                                                                 
 dense_15 (Dense)            (None, 3060)              3124260   
                                                                 
 batch_normalization_15 (Bat  (None, 3060)             12240     
 chNormalization)                                                
                                                                 
 re_lu_15 (ReLU)             (None, 3060)              0         
                                                                 
 dense_16 (Dense)            (None, 2040)              6244440   
                                                                 
 batch_normalization_16 (Bat  (None, 2040)             8160      
 chNormalization)                                                
                                                                 
 re_lu_16 (ReLU)             (None, 2040)              0         
                                                                 
 bottleneck (Dense)          (None, 764)               1559324   
                                                                 
=================================================================
Total params: 10,948,424
Trainable params: 10,938,224
Non-trainable params: 10,200
_________________________________________________________________
Decoder
Model: "model_11"
_________________________________________________________________
 Layer (type)                Output Shape              Param #   
=================================================================
 input_12 (InputLayer)       [(None, 764)]             0         
                                                                 
 batch_normalization_17 (Bat  (None, 764)              3056      
 chNormalization)                                                
                                                                 
 re_lu_17 (ReLU)             (None, 764)               0         
                                                                 
 dense_17 (Dense)            (None, 2040)              1560600   
                                                                 
 batch_normalization_18 (Bat  (None, 2040)             8160      
 chNormalization)                                                
                                                                 
 re_lu_18 (ReLU)             (None, 2040)              0         
                                                                 
 dense_18 (Dense)            (None, 3060)              6245460   
                                                                 
 batch_normalization_19 (Bat  (None, 3060)             12240     
 chNormalization)                                                
                                                                 
 re_lu_19 (ReLU)             (None, 3060)              0         
                                                                 
 dense_19 (Dense)            (None, 1020)              3122220   
                                                                 
=================================================================
Total params: 10,951,736
Trainable params: 10,940,008
Non-trainable params: 11,728
_________________________________________________________________
Model: "model_12"
_________________________________________________________________
 Layer (type)                Output Shape              Param #   
=================================================================
 input_13 (InputLayer)       [(None, 1020)]            0         
                                                                 
 dense_20 (Dense)            (None, 3060)              3124260   
                                                                 
 batch_normalization_20 (Bat  (None, 3060)             12240     
 chNormalization)                                                
                                                                 
 re_lu_20 (ReLU)             (None, 3060)              0         
                                                                 
 dense_21 (Dense)            (None, 2040)              6244440   
                                                                 
 batch_normalization_21 (Bat  (None, 2040)             8160      
 chNormalization)                                                
                                                                 
 re_lu_21 (ReLU)             (None, 2040)              0         
                                                                 
 bottleneck (Dense)          (None, 713)               1455233   
                                                                 
 batch_normalization_22 (Bat  (None, 713)              2852      
 chNormalization)                                                
                                                                 
 re_lu_22 (ReLU)             (None, 713)               0         
                                                                 
 dense_22 (Dense)            (None, 2040)              1456560   
                                                                 
 batch_normalization_23 (Bat  (None, 2040)             8160      
 chNormalization)                                                
                                                                 
 re_lu_23 (ReLU)             (None, 2040)              0         
                                                                 
 dense_23 (Dense)            (None, 3060)              6245460   
                                                                 
 batch_normalization_24 (Bat  (None, 3060)             12240     
 chNormalization)                                                
                                                                 
 re_lu_24 (ReLU)             (None, 3060)              0         
                                                                 
 dense_24 (Dense)            (None, 1020)              3122220   
                                                                 
=================================================================
Total params: 21,691,825
Trainable params: 21,669,999
Non-trainable params: 21,826
_________________________________________________________________
Epoch 1/400
1065/1065 - 5s - loss: 0.0263 - val_loss: 0.0227 - 5s/epoch - 5ms/step
Epoch 2/400
1065/1065 - 4s - loss: 0.0113 - val_loss: 0.0269 - 4s/epoch - 4ms/step
…
 1/60 [..............................] - ETA: 7s45/60 [=====================>........] - ETA: 0s60/60 [==============================] - 0s 1ms/step
correlation 0.008731208738189108
cosine 0.006231198393451033
MAE: 0.014246331346105291
RMSE: 0.09482924862044959
r2: 0.7417365723979462
RMSE zero-vector: 0.34573518857430263
Full AutoEncoder
Model: "model_12"
_________________________________________________________________
 Layer (type)                Output Shape              Param #   
=================================================================
 input_13 (InputLayer)       multiple                  0         
                                                                 
 dense_20 (Dense)            (None, 3060)              3124260   
                                                                 
 batch_normalization_20 (Bat  (None, 3060)             12240     
 chNormalization)                                                
                                                                 
 re_lu_20 (ReLU)             (None, 3060)              0         
                                                                 
 dense_21 (Dense)            (None, 2040)              6244440   
                                                                 
 batch_normalization_21 (Bat  (None, 2040)             8160      
 chNormalization)                                                
                                                                 
 re_lu_21 (ReLU)             (None, 2040)              0         
                                                                 
 bottleneck (Dense)          (None, 713)               1455233   
                                                                 
 batch_normalization_22 (Bat  (None, 713)              2852      
 chNormalization)                                                
                                                                 
 re_lu_22 (ReLU)             (None, 713)               0         
                                                                 
 dense_22 (Dense)            (None, 2040)              1456560   
                                                                 
 batch_normalization_23 (Bat  (None, 2040)             8160      
 chNormalization)                                                
                                                                 
 re_lu_23 (ReLU)             (None, 2040)              0         
                                                                 
 dense_23 (Dense)            (None, 3060)              6245460   
                                                                 
 batch_normalization_24 (Bat  (None, 3060)             12240     
 chNormalization)                                                
                                                                 
 re_lu_24 (ReLU)             (None, 3060)              0         
                                                                 
 dense_24 (Dense)            (None, 1020)              3122220   
                                                                 
=================================================================
Total params: 21,691,825
Trainable params: 21,669,999
Non-trainable params: 21,826
_________________________________________________________________
Encoder
Model: "model_13"
_________________________________________________________________
 Layer (type)                Output Shape              Param #   
=================================================================
 input_14 (InputLayer)       [(None, 1020)]            0         
                                                                 
 input_13 (InputLayer)       multiple                  0         
                                                                 
 dense_20 (Dense)            (None, 3060)              3124260   
                                                                 
 batch_normalization_20 (Bat  (None, 3060)             12240     
 chNormalization)                                                
                                                                 
 re_lu_20 (ReLU)             (None, 3060)              0         
                                                                 
 dense_21 (Dense)            (None, 2040)              6244440   
                                                                 
 batch_normalization_21 (Bat  (None, 2040)             8160      
 chNormalization)                                                
                                                                 
 re_lu_21 (ReLU)             (None, 2040)              0         
                                                                 
 bottleneck (Dense)          (None, 713)               1455233   
                                                                 
=================================================================
Total params: 10,844,333
Trainable params: 10,834,133
Non-trainable params: 10,200
_________________________________________________________________
Decoder
Model: "model_14"
_________________________________________________________________
 Layer (type)                Output Shape              Param #   
=================================================================
 input_15 (InputLayer)       [(None, 713)]             0         
                                                                 
 batch_normalization_22 (Bat  (None, 713)              2852      
 chNormalization)                                                
                                                                 
 re_lu_22 (ReLU)             (None, 713)               0         
                                                                 
 dense_22 (Dense)            (None, 2040)              1456560   
                                                                 
 batch_normalization_23 (Bat  (None, 2040)             8160      
 chNormalization)                                                
                                                                 
 re_lu_23 (ReLU)             (None, 2040)              0         
                                                                 
 dense_23 (Dense)            (None, 3060)              6245460   
                                                                 
 batch_normalization_24 (Bat  (None, 3060)             12240     
 chNormalization)                                                
                                                                 
 re_lu_24 (ReLU)             (None, 3060)              0         
                                                                 
 dense_24 (Dense)            (None, 1020)              3122220   
                                                                 
=================================================================
Total params: 10,847,492
Trainable params: 10,835,866
Non-trainable params: 11,626
_________________________________________________________________
Model: "model_15"
_________________________________________________________________
 Layer (type)                Output Shape              Param #   
=================================================================
 input_16 (InputLayer)       [(None, 1020)]            0         
                                                                 
 dense_25 (Dense)            (None, 3060)              3124260   
                                                                 
 batch_normalization_25 (Bat  (None, 3060)             12240     
 chNormalization)                                                
                                                                 
 re_lu_25 (ReLU)             (None, 3060)              0         
                                                                 
 dense_26 (Dense)            (None, 2040)              6244440   
                                                                 
 batch_normalization_26 (Bat  (None, 2040)             8160      
 chNormalization)                                                
                                                                 
 re_lu_26 (ReLU)             (None, 2040)              0         
                                                                 
 bottleneck (Dense)          (None, 662)               1351142   
                                                                 
 batch_normalization_27 (Bat  (None, 662)              2648      
 chNormalization)                                                
                                                                 
 re_lu_27 (ReLU)             (None, 662)               0         
                                                                 
 dense_27 (Dense)            (None, 2040)              1352520   
                                                                 
 batch_normalization_28 (Bat  (None, 2040)             8160      
 chNormalization)                                                
                                                                 
 re_lu_28 (ReLU)             (None, 2040)              0         
                                                                 
 dense_28 (Dense)            (None, 3060)              6245460   
                                                                 
 batch_normalization_29 (Bat  (None, 3060)             12240     
 chNormalization)                                                
                                                                 
 re_lu_29 (ReLU)             (None, 3060)              0         
                                                                 
 dense_29 (Dense)            (None, 1020)              3122220   
                                                                 
=================================================================
Total params: 21,483,490
Trainable params: 21,461,766
Non-trainable params: 21,724
_________________________________________________________________
Epoch 1/400
1065/1065 - 5s - loss: 0.0256 - val_loss: 0.0213 - 5s/epoch - 5ms/step
Epoch 2/400
1065/1065 - 4s - loss: 0.0113 - val_loss: 0.0167 - 4s/epoch - 4ms/step
…
 1/60 [..............................] - ETA: 7s46/60 [======================>.......] - ETA: 0s60/60 [==============================] - 0s 1ms/step
correlation 0.008216286196117277
cosine 0.005767374383705003
MAE: 0.013145925206865638
RMSE: 0.09554571526360796
r2: 0.7379688916340402
RMSE zero-vector: 0.34573518857430263
Full AutoEncoder
Model: "model_15"
_________________________________________________________________
 Layer (type)                Output Shape              Param #   
=================================================================
 input_16 (InputLayer)       multiple                  0         
                                                                 
 dense_25 (Dense)            (None, 3060)              3124260   
                                                                 
 batch_normalization_25 (Bat  (None, 3060)             12240     
 chNormalization)                                                
                                                                 
 re_lu_25 (ReLU)             (None, 3060)              0         
                                                                 
 dense_26 (Dense)            (None, 2040)              6244440   
                                                                 
 batch_normalization_26 (Bat  (None, 2040)             8160      
 chNormalization)                                                
                                                                 
 re_lu_26 (ReLU)             (None, 2040)              0         
                                                                 
 bottleneck (Dense)          (None, 662)               1351142   
                                                                 
 batch_normalization_27 (Bat  (None, 662)              2648      
 chNormalization)                                                
                                                                 
 re_lu_27 (ReLU)             (None, 662)               0         
                                                                 
 dense_27 (Dense)            (None, 2040)              1352520   
                                                                 
 batch_normalization_28 (Bat  (None, 2040)             8160      
 chNormalization)                                                
                                                                 
 re_lu_28 (ReLU)             (None, 2040)              0         
                                                                 
 dense_28 (Dense)            (None, 3060)              6245460   
                                                                 
 batch_normalization_29 (Bat  (None, 3060)             12240     
 chNormalization)                                                
                                                                 
 re_lu_29 (ReLU)             (None, 3060)              0         
                                                                 
 dense_29 (Dense)            (None, 1020)              3122220   
                                                                 
=================================================================
Total params: 21,483,490
Trainable params: 21,461,766
Non-trainable params: 21,724
_________________________________________________________________
Encoder
Model: "model_16"
_________________________________________________________________
 Layer (type)                Output Shape              Param #   
=================================================================
 input_17 (InputLayer)       [(None, 1020)]            0         
                                                                 
 input_16 (InputLayer)       multiple                  0         
                                                                 
 dense_25 (Dense)            (None, 3060)              3124260   
                                                                 
 batch_normalization_25 (Bat  (None, 3060)             12240     
 chNormalization)                                                
                                                                 
 re_lu_25 (ReLU)             (None, 3060)              0         
                                                                 
 dense_26 (Dense)            (None, 2040)              6244440   
                                                                 
 batch_normalization_26 (Bat  (None, 2040)             8160      
 chNormalization)                                                
                                                                 
 re_lu_26 (ReLU)             (None, 2040)              0         
                                                                 
 bottleneck (Dense)          (None, 662)               1351142   
                                                                 
=================================================================
Total params: 10,740,242
Trainable params: 10,730,042
Non-trainable params: 10,200
_________________________________________________________________
Decoder
Model: "model_17"
_________________________________________________________________
 Layer (type)                Output Shape              Param #   
=================================================================
 input_18 (InputLayer)       [(None, 662)]             0         
                                                                 
 batch_normalization_27 (Bat  (None, 662)              2648      
 chNormalization)                                                
                                                                 
 re_lu_27 (ReLU)             (None, 662)               0         
                                                                 
 dense_27 (Dense)            (None, 2040)              1352520   
                                                                 
 batch_normalization_28 (Bat  (None, 2040)             8160      
 chNormalization)                                                
                                                                 
 re_lu_28 (ReLU)             (None, 2040)              0         
                                                                 
 dense_28 (Dense)            (None, 3060)              6245460   
                                                                 
 batch_normalization_29 (Bat  (None, 3060)             12240     
 chNormalization)                                                
                                                                 
 re_lu_29 (ReLU)             (None, 3060)              0         
                                                                 
 dense_29 (Dense)            (None, 1020)              3122220   
                                                                 
=================================================================
Total params: 10,743,248
Trainable params: 10,731,724
Non-trainable params: 11,524
_________________________________________________________________
Model: "model_18"
_________________________________________________________________
 Layer (type)                Output Shape              Param #   
=================================================================
 input_19 (InputLayer)       [(None, 1020)]            0         
                                                                 
 dense_30 (Dense)            (None, 3060)              3124260   
                                                                 
 batch_normalization_30 (Bat  (None, 3060)             12240     
 chNormalization)                                                
                                                                 
 re_lu_30 (ReLU)             (None, 3060)              0         
                                                                 
 dense_31 (Dense)            (None, 2040)              6244440   
                                                                 
 batch_normalization_31 (Bat  (None, 2040)             8160      
 chNormalization)                                                
                                                                 
 re_lu_31 (ReLU)             (None, 2040)              0         
                                                                 
 bottleneck (Dense)          (None, 611)               1247051   
                                                                 
 batch_normalization_32 (Bat  (None, 611)              2444      
 chNormalization)                                                
                                                                 
 re_lu_32 (ReLU)             (None, 611)               0         
                                                                 
 dense_32 (Dense)            (None, 2040)              1248480   
                                                                 
 batch_normalization_33 (Bat  (None, 2040)             8160      
 chNormalization)                                                
                                                                 
 re_lu_33 (ReLU)             (None, 2040)              0         
                                                                 
 dense_33 (Dense)            (None, 3060)              6245460   
                                                                 
 batch_normalization_34 (Bat  (None, 3060)             12240     
 chNormalization)                                                
                                                                 
 re_lu_34 (ReLU)             (None, 3060)              0         
                                                                 
 dense_34 (Dense)            (None, 1020)              3122220   
                                                                 
=================================================================
Total params: 21,275,155
Trainable params: 21,253,533
Non-trainable params: 21,622
_________________________________________________________________
Epoch 1/400
1065/1065 - 5s - loss: 0.0264 - val_loss: 0.0217 - 5s/epoch - 5ms/step
Epoch 2/400
1065/1065 - 4s - loss: 0.0107 - val_loss: 0.0173 - 4s/epoch - 4ms/step
…
 1/60 [..............................] - ETA: 7s45/60 [=====================>........] - ETA: 0s60/60 [==============================] - 0s 1ms/step
correlation 0.02496139656948591
cosine 0.02459460048299069
MAE: 0.038995569421136383
RMSE: 0.21782825930311298
r2: -0.3636626116163955
RMSE zero-vector: 0.34573518857430263
Full AutoEncoder
Model: "model_18"
_________________________________________________________________
 Layer (type)                Output Shape              Param #   
=================================================================
 input_19 (InputLayer)       multiple                  0         
                                                                 
 dense_30 (Dense)            (None, 3060)              3124260   
                                                                 
 batch_normalization_30 (Bat  (None, 3060)             12240     
 chNormalization)                                                
                                                                 
 re_lu_30 (ReLU)             (None, 3060)              0         
                                                                 
 dense_31 (Dense)            (None, 2040)              6244440   
                                                                 
 batch_normalization_31 (Bat  (None, 2040)             8160      
 chNormalization)                                                
                                                                 
 re_lu_31 (ReLU)             (None, 2040)              0         
                                                                 
 bottleneck (Dense)          (None, 611)               1247051   
                                                                 
 batch_normalization_32 (Bat  (None, 611)              2444      
 chNormalization)                                                
                                                                 
 re_lu_32 (ReLU)             (None, 611)               0         
                                                                 
 dense_32 (Dense)            (None, 2040)              1248480   
                                                                 
 batch_normalization_33 (Bat  (None, 2040)             8160      
 chNormalization)                                                
                                                                 
 re_lu_33 (ReLU)             (None, 2040)              0         
                                                                 
 dense_33 (Dense)            (None, 3060)              6245460   
                                                                 
 batch_normalization_34 (Bat  (None, 3060)             12240     
 chNormalization)                                                
                                                                 
 re_lu_34 (ReLU)             (None, 3060)              0         
                                                                 
 dense_34 (Dense)            (None, 1020)              3122220   
                                                                 
=================================================================
Total params: 21,275,155
Trainable params: 21,253,533
Non-trainable params: 21,622
_________________________________________________________________
Encoder
Model: "model_19"
_________________________________________________________________
 Layer (type)                Output Shape              Param #   
=================================================================
 input_20 (InputLayer)       [(None, 1020)]            0         
                                                                 
 input_19 (InputLayer)       multiple                  0         
                                                                 
 dense_30 (Dense)            (None, 3060)              3124260   
                                                                 
 batch_normalization_30 (Bat  (None, 3060)             12240     
 chNormalization)                                                
                                                                 
 re_lu_30 (ReLU)             (None, 3060)              0         
                                                                 
 dense_31 (Dense)            (None, 2040)              6244440   
                                                                 
 batch_normalization_31 (Bat  (None, 2040)             8160      
 chNormalization)                                                
                                                                 
 re_lu_31 (ReLU)             (None, 2040)              0         
                                                                 
 bottleneck (Dense)          (None, 611)               1247051   
                                                                 
=================================================================
Total params: 10,636,151
Trainable params: 10,625,951
Non-trainable params: 10,200
_________________________________________________________________
Decoder
Model: "model_20"
_________________________________________________________________
 Layer (type)                Output Shape              Param #   
=================================================================
 input_21 (InputLayer)       [(None, 611)]             0         
                                                                 
 batch_normalization_32 (Bat  (None, 611)              2444      
 chNormalization)                                                
                                                                 
 re_lu_32 (ReLU)             (None, 611)               0         
                                                                 
 dense_32 (Dense)            (None, 2040)              1248480   
                                                                 
 batch_normalization_33 (Bat  (None, 2040)             8160      
 chNormalization)                                                
                                                                 
 re_lu_33 (ReLU)             (None, 2040)              0         
                                                                 
 dense_33 (Dense)            (None, 3060)              6245460   
                                                                 
 batch_normalization_34 (Bat  (None, 3060)             12240     
 chNormalization)                                                
                                                                 
 re_lu_34 (ReLU)             (None, 3060)              0         
                                                                 
 dense_34 (Dense)            (None, 1020)              3122220   
                                                                 
=================================================================
Total params: 10,639,004
Trainable params: 10,627,582
Non-trainable params: 11,422
_________________________________________________________________
Model: "model_21"
_________________________________________________________________
 Layer (type)                Output Shape              Param #   
=================================================================
 input_22 (InputLayer)       [(None, 1020)]            0         
                                                                 
 dense_35 (Dense)            (None, 3060)              3124260   
                                                                 
 batch_normalization_35 (Bat  (None, 3060)             12240     
 chNormalization)                                                
                                                                 
 re_lu_35 (ReLU)             (None, 3060)              0         
                                                                 
 dense_36 (Dense)            (None, 2040)              6244440   
                                                                 
 batch_normalization_36 (Bat  (None, 2040)             8160      
 chNormalization)                                                
                                                                 
 re_lu_36 (ReLU)             (None, 2040)              0         
                                                                 
 bottleneck (Dense)          (None, 560)               1142960   
                                                                 
 batch_normalization_37 (Bat  (None, 560)              2240      
 chNormalization)                                                
                                                                 
 re_lu_37 (ReLU)             (None, 560)               0         
                                                                 
 dense_37 (Dense)            (None, 2040)              1144440   
                                                                 
 batch_normalization_38 (Bat  (None, 2040)             8160      
 chNormalization)                                                
                                                                 
 re_lu_38 (ReLU)             (None, 2040)              0         
                                                                 
 dense_38 (Dense)            (None, 3060)              6245460   
                                                                 
 batch_normalization_39 (Bat  (None, 3060)             12240     
 chNormalization)                                                
                                                                 
 re_lu_39 (ReLU)             (None, 3060)              0         
                                                                 
 dense_39 (Dense)            (None, 1020)              3122220   
                                                                 
=================================================================
Total params: 21,066,820
Trainable params: 21,045,300
Non-trainable params: 21,520
_________________________________________________________________
Epoch 1/400
1065/1065 - 6s - loss: 0.0263 - val_loss: 0.0215 - 6s/epoch - 6ms/step
Epoch 2/400
1065/1065 - 4s - loss: 0.0109 - val_loss: 0.0159 - 4s/epoch - 4ms/step
…
 1/60 [..............................] - ETA: 7s46/60 [======================>.......] - ETA: 0s60/60 [==============================] - 0s 1ms/step
correlation 0.01618926335697631
cosine 0.012364802019231121
MAE: 0.01973870186866497
RMSE: 0.09322915676491764
r2: 0.7503437325193314
RMSE zero-vector: 0.34573518857430263
Full AutoEncoder
Model: "model_21"
_________________________________________________________________
 Layer (type)                Output Shape              Param #   
=================================================================
 input_22 (InputLayer)       multiple                  0         
                                                                 
 dense_35 (Dense)            (None, 3060)              3124260   
                                                                 
 batch_normalization_35 (Bat  (None, 3060)             12240     
 chNormalization)                                                
                                                                 
 re_lu_35 (ReLU)             (None, 3060)              0         
                                                                 
 dense_36 (Dense)            (None, 2040)              6244440   
                                                                 
 batch_normalization_36 (Bat  (None, 2040)             8160      
 chNormalization)                                                
                                                                 
 re_lu_36 (ReLU)             (None, 2040)              0         
                                                                 
 bottleneck (Dense)          (None, 560)               1142960   
                                                                 
 batch_normalization_37 (Bat  (None, 560)              2240      
 chNormalization)                                                
                                                                 
 re_lu_37 (ReLU)             (None, 560)               0         
                                                                 
 dense_37 (Dense)            (None, 2040)              1144440   
                                                                 
 batch_normalization_38 (Bat  (None, 2040)             8160      
 chNormalization)                                                
                                                                 
 re_lu_38 (ReLU)             (None, 2040)              0         
                                                                 
 dense_38 (Dense)            (None, 3060)              6245460   
                                                                 
 batch_normalization_39 (Bat  (None, 3060)             12240     
 chNormalization)                                                
                                                                 
 re_lu_39 (ReLU)             (None, 3060)              0         
                                                                 
 dense_39 (Dense)            (None, 1020)              3122220   
                                                                 
=================================================================
Total params: 21,066,820
Trainable params: 21,045,300
Non-trainable params: 21,520
_________________________________________________________________
Encoder
Model: "model_22"
_________________________________________________________________
 Layer (type)                Output Shape              Param #   
=================================================================
 input_23 (InputLayer)       [(None, 1020)]            0         
                                                                 
 input_22 (InputLayer)       multiple                  0         
                                                                 
 dense_35 (Dense)            (None, 3060)              3124260   
                                                                 
 batch_normalization_35 (Bat  (None, 3060)             12240     
 chNormalization)                                                
                                                                 
 re_lu_35 (ReLU)             (None, 3060)              0         
                                                                 
 dense_36 (Dense)            (None, 2040)              6244440   
                                                                 
 batch_normalization_36 (Bat  (None, 2040)             8160      
 chNormalization)                                                
                                                                 
 re_lu_36 (ReLU)             (None, 2040)              0         
                                                                 
 bottleneck (Dense)          (None, 560)               1142960   
                                                                 
=================================================================
Total params: 10,532,060
Trainable params: 10,521,860
Non-trainable params: 10,200
_________________________________________________________________
Decoder
Model: "model_23"
_________________________________________________________________
 Layer (type)                Output Shape              Param #   
=================================================================
 input_24 (InputLayer)       [(None, 560)]             0         
                                                                 
 batch_normalization_37 (Bat  (None, 560)              2240      
 chNormalization)                                                
                                                                 
 re_lu_37 (ReLU)             (None, 560)               0         
                                                                 
 dense_37 (Dense)            (None, 2040)              1144440   
                                                                 
 batch_normalization_38 (Bat  (None, 2040)             8160      
 chNormalization)                                                
                                                                 
 re_lu_38 (ReLU)             (None, 2040)              0         
                                                                 
 dense_38 (Dense)            (None, 3060)              6245460   
                                                                 
 batch_normalization_39 (Bat  (None, 3060)             12240     
 chNormalization)                                                
                                                                 
 re_lu_39 (ReLU)             (None, 3060)              0         
                                                                 
 dense_39 (Dense)            (None, 1020)              3122220   
                                                                 
=================================================================
Total params: 10,534,760
Trainable params: 10,523,440
Non-trainable params: 11,320
_________________________________________________________________
Model: "model_24"
_________________________________________________________________
 Layer (type)                Output Shape              Param #   
=================================================================
 input_25 (InputLayer)       [(None, 1020)]            0         
                                                                 
 dense_40 (Dense)            (None, 3060)              3124260   
                                                                 
 batch_normalization_40 (Bat  (None, 3060)             12240     
 chNormalization)                                                
                                                                 
 re_lu_40 (ReLU)             (None, 3060)              0         
                                                                 
 dense_41 (Dense)            (None, 2040)              6244440   
                                                                 
 batch_normalization_41 (Bat  (None, 2040)             8160      
 chNormalization)                                                
                                                                 
 re_lu_41 (ReLU)             (None, 2040)              0         
                                                                 
 bottleneck (Dense)          (None, 509)               1038869   
                                                                 
 batch_normalization_42 (Bat  (None, 509)              2036      
 chNormalization)                                                
                                                                 
 re_lu_42 (ReLU)             (None, 509)               0         
                                                                 
 dense_42 (Dense)            (None, 2040)              1040400   
                                                                 
 batch_normalization_43 (Bat  (None, 2040)             8160      
 chNormalization)                                                
                                                                 
 re_lu_43 (ReLU)             (None, 2040)              0         
                                                                 
 dense_43 (Dense)            (None, 3060)              6245460   
                                                                 
 batch_normalization_44 (Bat  (None, 3060)             12240     
 chNormalization)                                                
                                                                 
 re_lu_44 (ReLU)             (None, 3060)              0         
                                                                 
 dense_44 (Dense)            (None, 1020)              3122220   
                                                                 
=================================================================
Total params: 20,858,485
Trainable params: 20,837,067
Non-trainable params: 21,418
_________________________________________________________________
Epoch 1/400
1065/1065 - 5s - loss: 0.0253 - val_loss: 0.0360 - 5s/epoch - 5ms/step
Epoch 2/400
1065/1065 - 4s - loss: 0.0111 - val_loss: 0.0239 - 4s/epoch - 4ms/step
…
 1/60 [..............................] - ETA: 7s45/60 [=====================>........] - ETA: 0s60/60 [==============================] - 0s 1ms/step
correlation 0.007790784613630419
cosine 0.005445871848098006
MAE: 0.014055996434125664
RMSE: 0.09094638953914613
r2: 0.7622639602221739
RMSE zero-vector: 0.34573518857430263
Full AutoEncoder
Model: "model_24"
_________________________________________________________________
 Layer (type)                Output Shape              Param #   
=================================================================
 input_25 (InputLayer)       multiple                  0         
                                                                 
 dense_40 (Dense)            (None, 3060)              3124260   
                                                                 
 batch_normalization_40 (Bat  (None, 3060)             12240     
 chNormalization)                                                
                                                                 
 re_lu_40 (ReLU)             (None, 3060)              0         
                                                                 
 dense_41 (Dense)            (None, 2040)              6244440   
                                                                 
 batch_normalization_41 (Bat  (None, 2040)             8160      
 chNormalization)                                                
                                                                 
 re_lu_41 (ReLU)             (None, 2040)              0         
                                                                 
 bottleneck (Dense)          (None, 509)               1038869   
                                                                 
 batch_normalization_42 (Bat  (None, 509)              2036      
 chNormalization)                                                
                                                                 
 re_lu_42 (ReLU)             (None, 509)               0         
                                                                 
 dense_42 (Dense)            (None, 2040)              1040400   
                                                                 
 batch_normalization_43 (Bat  (None, 2040)             8160      
 chNormalization)                                                
                                                                 
 re_lu_43 (ReLU)             (None, 2040)              0         
                                                                 
 dense_43 (Dense)            (None, 3060)              6245460   
                                                                 
 batch_normalization_44 (Bat  (None, 3060)             12240     
 chNormalization)                                                
                                                                 
 re_lu_44 (ReLU)             (None, 3060)              0         
                                                                 
 dense_44 (Dense)            (None, 1020)              3122220   
                                                                 
=================================================================
Total params: 20,858,485
Trainable params: 20,837,067
Non-trainable params: 21,418
_________________________________________________________________
Encoder
Model: "model_25"
_________________________________________________________________
 Layer (type)                Output Shape              Param #   
=================================================================
 input_26 (InputLayer)       [(None, 1020)]            0         
                                                                 
 input_25 (InputLayer)       multiple                  0         
                                                                 
 dense_40 (Dense)            (None, 3060)              3124260   
                                                                 
 batch_normalization_40 (Bat  (None, 3060)             12240     
 chNormalization)                                                
                                                                 
 re_lu_40 (ReLU)             (None, 3060)              0         
                                                                 
 dense_41 (Dense)            (None, 2040)              6244440   
                                                                 
 batch_normalization_41 (Bat  (None, 2040)             8160      
 chNormalization)                                                
                                                                 
 re_lu_41 (ReLU)             (None, 2040)              0         
                                                                 
 bottleneck (Dense)          (None, 509)               1038869   
                                                                 
=================================================================
Total params: 10,427,969
Trainable params: 10,417,769
Non-trainable params: 10,200
_________________________________________________________________
Decoder
Model: "model_26"
_________________________________________________________________
 Layer (type)                Output Shape              Param #   
=================================================================
 input_27 (InputLayer)       [(None, 509)]             0         
                                                                 
 batch_normalization_42 (Bat  (None, 509)              2036      
 chNormalization)                                                
                                                                 
 re_lu_42 (ReLU)             (None, 509)               0         
                                                                 
 dense_42 (Dense)            (None, 2040)              1040400   
                                                                 
 batch_normalization_43 (Bat  (None, 2040)             8160      
 chNormalization)                                                
                                                                 
 re_lu_43 (ReLU)             (None, 2040)              0         
                                                                 
 dense_43 (Dense)            (None, 3060)              6245460   
                                                                 
 batch_normalization_44 (Bat  (None, 3060)             12240     
 chNormalization)                                                
                                                                 
 re_lu_44 (ReLU)             (None, 3060)              0         
                                                                 
 dense_44 (Dense)            (None, 1020)              3122220   
                                                                 
=================================================================
Total params: 10,430,516
Trainable params: 10,419,298
Non-trainable params: 11,218
_________________________________________________________________
Model: "model_27"
_________________________________________________________________
 Layer (type)                Output Shape              Param #   
=================================================================
 input_28 (InputLayer)       [(None, 1020)]            0         
                                                                 
 dense_45 (Dense)            (None, 3060)              3124260   
                                                                 
 batch_normalization_45 (Bat  (None, 3060)             12240     
 chNormalization)                                                
                                                                 
 re_lu_45 (ReLU)             (None, 3060)              0         
                                                                 
 dense_46 (Dense)            (None, 2040)              6244440   
                                                                 
 batch_normalization_46 (Bat  (None, 2040)             8160      
 chNormalization)                                                
                                                                 
 re_lu_46 (ReLU)             (None, 2040)              0         
                                                                 
 bottleneck (Dense)          (None, 458)               934778    
                                                                 
 batch_normalization_47 (Bat  (None, 458)              1832      
 chNormalization)                                                
                                                                 
 re_lu_47 (ReLU)             (None, 458)               0         
                                                                 
 dense_47 (Dense)            (None, 2040)              936360    
                                                                 
 batch_normalization_48 (Bat  (None, 2040)             8160      
 chNormalization)                                                
                                                                 
 re_lu_48 (ReLU)             (None, 2040)              0         
                                                                 
 dense_48 (Dense)            (None, 3060)              6245460   
                                                                 
 batch_normalization_49 (Bat  (None, 3060)             12240     
 chNormalization)                                                
                                                                 
 re_lu_49 (ReLU)             (None, 3060)              0         
                                                                 
 dense_49 (Dense)            (None, 1020)              3122220   
                                                                 
=================================================================
Total params: 20,650,150
Trainable params: 20,628,834
Non-trainable params: 21,316
_________________________________________________________________
Epoch 1/400
1065/1065 - 5s - loss: 0.0252 - val_loss: 0.0216 - 5s/epoch - 5ms/step
Epoch 2/400
1065/1065 - 4s - loss: 0.0109 - val_loss: 0.0178 - 4s/epoch - 4ms/step
…
 1/60 [..............................] - ETA: 7s46/60 [======================>.......] - ETA: 0s60/60 [==============================] - 0s 1ms/step
correlation 0.011644138815334121
cosine 0.008287534643467119
MAE: 0.016257290056054433
RMSE: 0.09825040729101035
r2: 0.7227994295170712
RMSE zero-vector: 0.34573518857430263
Full AutoEncoder
Model: "model_27"
_________________________________________________________________
 Layer (type)                Output Shape              Param #   
=================================================================
 input_28 (InputLayer)       multiple                  0         
                                                                 
 dense_45 (Dense)            (None, 3060)              3124260   
                                                                 
 batch_normalization_45 (Bat  (None, 3060)             12240     
 chNormalization)                                                
                                                                 
 re_lu_45 (ReLU)             (None, 3060)              0         
                                                                 
 dense_46 (Dense)            (None, 2040)              6244440   
                                                                 
 batch_normalization_46 (Bat  (None, 2040)             8160      
 chNormalization)                                                
                                                                 
 re_lu_46 (ReLU)             (None, 2040)              0         
                                                                 
 bottleneck (Dense)          (None, 458)               934778    
                                                                 
 batch_normalization_47 (Bat  (None, 458)              1832      
 chNormalization)                                                
                                                                 
 re_lu_47 (ReLU)             (None, 458)               0         
                                                                 
 dense_47 (Dense)            (None, 2040)              936360    
                                                                 
 batch_normalization_48 (Bat  (None, 2040)             8160      
 chNormalization)                                                
                                                                 
 re_lu_48 (ReLU)             (None, 2040)              0         
                                                                 
 dense_48 (Dense)            (None, 3060)              6245460   
                                                                 
 batch_normalization_49 (Bat  (None, 3060)             12240     
 chNormalization)                                                
                                                                 
 re_lu_49 (ReLU)             (None, 3060)              0         
                                                                 
 dense_49 (Dense)            (None, 1020)              3122220   
                                                                 
=================================================================
Total params: 20,650,150
Trainable params: 20,628,834
Non-trainable params: 21,316
_________________________________________________________________
Encoder
Model: "model_28"
_________________________________________________________________
 Layer (type)                Output Shape              Param #   
=================================================================
 input_29 (InputLayer)       [(None, 1020)]            0         
                                                                 
 input_28 (InputLayer)       multiple                  0         
                                                                 
 dense_45 (Dense)            (None, 3060)              3124260   
                                                                 
 batch_normalization_45 (Bat  (None, 3060)             12240     
 chNormalization)                                                
                                                                 
 re_lu_45 (ReLU)             (None, 3060)              0         
                                                                 
 dense_46 (Dense)            (None, 2040)              6244440   
                                                                 
 batch_normalization_46 (Bat  (None, 2040)             8160      
 chNormalization)                                                
                                                                 
 re_lu_46 (ReLU)             (None, 2040)              0         
                                                                 
 bottleneck (Dense)          (None, 458)               934778    
                                                                 
=================================================================
Total params: 10,323,878
Trainable params: 10,313,678
Non-trainable params: 10,200
_________________________________________________________________
Decoder
Model: "model_29"
_________________________________________________________________
 Layer (type)                Output Shape              Param #   
=================================================================
 input_30 (InputLayer)       [(None, 458)]             0         
                                                                 
 batch_normalization_47 (Bat  (None, 458)              1832      
 chNormalization)                                                
                                                                 
 re_lu_47 (ReLU)             (None, 458)               0         
                                                                 
 dense_47 (Dense)            (None, 2040)              936360    
                                                                 
 batch_normalization_48 (Bat  (None, 2040)             8160      
 chNormalization)                                                
                                                                 
 re_lu_48 (ReLU)             (None, 2040)              0         
                                                                 
 dense_48 (Dense)            (None, 3060)              6245460   
                                                                 
 batch_normalization_49 (Bat  (None, 3060)             12240     
 chNormalization)                                                
                                                                 
 re_lu_49 (ReLU)             (None, 3060)              0         
                                                                 
 dense_49 (Dense)            (None, 1020)              3122220   
                                                                 
=================================================================
Total params: 10,326,272
Trainable params: 10,315,156
Non-trainable params: 11,116
_________________________________________________________________
Model: "model_30"
_________________________________________________________________
 Layer (type)                Output Shape              Param #   
=================================================================
 input_31 (InputLayer)       [(None, 1020)]            0         
                                                                 
 dense_50 (Dense)            (None, 3060)              3124260   
                                                                 
 batch_normalization_50 (Bat  (None, 3060)             12240     
 chNormalization)                                                
                                                                 
 re_lu_50 (ReLU)             (None, 3060)              0         
                                                                 
 dense_51 (Dense)            (None, 2040)              6244440   
                                                                 
 batch_normalization_51 (Bat  (None, 2040)             8160      
 chNormalization)                                                
                                                                 
 re_lu_51 (ReLU)             (None, 2040)              0         
                                                                 
 bottleneck (Dense)          (None, 407)               830687    
                                                                 
 batch_normalization_52 (Bat  (None, 407)              1628      
 chNormalization)                                                
                                                                 
 re_lu_52 (ReLU)             (None, 407)               0         
                                                                 
 dense_52 (Dense)            (None, 2040)              832320    
                                                                 
 batch_normalization_53 (Bat  (None, 2040)             8160      
 chNormalization)                                                
                                                                 
 re_lu_53 (ReLU)             (None, 2040)              0         
                                                                 
 dense_53 (Dense)            (None, 3060)              6245460   
                                                                 
 batch_normalization_54 (Bat  (None, 3060)             12240     
 chNormalization)                                                
                                                                 
 re_lu_54 (ReLU)             (None, 3060)              0         
                                                                 
 dense_54 (Dense)            (None, 1020)              3122220   
                                                                 
=================================================================
Total params: 20,441,815
Trainable params: 20,420,601
Non-trainable params: 21,214
_________________________________________________________________
Epoch 1/400
1065/1065 - 5s - loss: 0.0258 - val_loss: 0.0204 - 5s/epoch - 5ms/step
Epoch 2/400
1065/1065 - 4s - loss: 0.0110 - val_loss: 0.0268 - 4s/epoch - 4ms/step
…
 1/60 [..............................] - ETA: 6s45/60 [=====================>........] - ETA: 0s60/60 [==============================] - 0s 1ms/step
correlation 0.019997927568837396
cosine 0.014288124516485524
MAE: 0.01999004480573148
RMSE: 0.10622853046814675
r2: 0.6759217599213538
RMSE zero-vector: 0.34573518857430263
Full AutoEncoder
Model: "model_30"
_________________________________________________________________
 Layer (type)                Output Shape              Param #   
=================================================================
 input_31 (InputLayer)       multiple                  0         
                                                                 
 dense_50 (Dense)            (None, 3060)              3124260   
                                                                 
 batch_normalization_50 (Bat  (None, 3060)             12240     
 chNormalization)                                                
                                                                 
 re_lu_50 (ReLU)             (None, 3060)              0         
                                                                 
 dense_51 (Dense)            (None, 2040)              6244440   
                                                                 
 batch_normalization_51 (Bat  (None, 2040)             8160      
 chNormalization)                                                
                                                                 
 re_lu_51 (ReLU)             (None, 2040)              0         
                                                                 
 bottleneck (Dense)          (None, 407)               830687    
                                                                 
 batch_normalization_52 (Bat  (None, 407)              1628      
 chNormalization)                                                
                                                                 
 re_lu_52 (ReLU)             (None, 407)               0         
                                                                 
 dense_52 (Dense)            (None, 2040)              832320    
                                                                 
 batch_normalization_53 (Bat  (None, 2040)             8160      
 chNormalization)                                                
                                                                 
 re_lu_53 (ReLU)             (None, 2040)              0         
                                                                 
 dense_53 (Dense)            (None, 3060)              6245460   
                                                                 
 batch_normalization_54 (Bat  (None, 3060)             12240     
 chNormalization)                                                
                                                                 
 re_lu_54 (ReLU)             (None, 3060)              0         
                                                                 
 dense_54 (Dense)            (None, 1020)              3122220   
                                                                 
=================================================================
Total params: 20,441,815
Trainable params: 20,420,601
Non-trainable params: 21,214
_________________________________________________________________
Encoder
Model: "model_31"
_________________________________________________________________
 Layer (type)                Output Shape              Param #   
=================================================================
 input_32 (InputLayer)       [(None, 1020)]            0         
                                                                 
 input_31 (InputLayer)       multiple                  0         
                                                                 
 dense_50 (Dense)            (None, 3060)              3124260   
                                                                 
 batch_normalization_50 (Bat  (None, 3060)             12240     
 chNormalization)                                                
                                                                 
 re_lu_50 (ReLU)             (None, 3060)              0         
                                                                 
 dense_51 (Dense)            (None, 2040)              6244440   
                                                                 
 batch_normalization_51 (Bat  (None, 2040)             8160      
 chNormalization)                                                
                                                                 
 re_lu_51 (ReLU)             (None, 2040)              0         
                                                                 
 bottleneck (Dense)          (None, 407)               830687    
                                                                 
=================================================================
Total params: 10,219,787
Trainable params: 10,209,587
Non-trainable params: 10,200
_________________________________________________________________
Decoder
Model: "model_32"
_________________________________________________________________
 Layer (type)                Output Shape              Param #   
=================================================================
 input_33 (InputLayer)       [(None, 407)]             0         
                                                                 
 batch_normalization_52 (Bat  (None, 407)              1628      
 chNormalization)                                                
                                                                 
 re_lu_52 (ReLU)             (None, 407)               0         
                                                                 
 dense_52 (Dense)            (None, 2040)              832320    
                                                                 
 batch_normalization_53 (Bat  (None, 2040)             8160      
 chNormalization)                                                
                                                                 
 re_lu_53 (ReLU)             (None, 2040)              0         
                                                                 
 dense_53 (Dense)            (None, 3060)              6245460   
                                                                 
 batch_normalization_54 (Bat  (None, 3060)             12240     
 chNormalization)                                                
                                                                 
 re_lu_54 (ReLU)             (None, 3060)              0         
                                                                 
 dense_54 (Dense)            (None, 1020)              3122220   
                                                                 
=================================================================
Total params: 10,222,028
Trainable params: 10,211,014
Non-trainable params: 11,014
_________________________________________________________________
Model: "model_33"
_________________________________________________________________
 Layer (type)                Output Shape              Param #   
=================================================================
 input_34 (InputLayer)       [(None, 1020)]            0         
                                                                 
 dense_55 (Dense)            (None, 3060)              3124260   
                                                                 
 batch_normalization_55 (Bat  (None, 3060)             12240     
 chNormalization)                                                
                                                                 
 re_lu_55 (ReLU)             (None, 3060)              0         
                                                                 
 dense_56 (Dense)            (None, 2040)              6244440   
                                                                 
 batch_normalization_56 (Bat  (None, 2040)             8160      
 chNormalization)                                                
                                                                 
 re_lu_56 (ReLU)             (None, 2040)              0         
                                                                 
 bottleneck (Dense)          (None, 356)               726596    
                                                                 
 batch_normalization_57 (Bat  (None, 356)              1424      
 chNormalization)                                                
                                                                 
 re_lu_57 (ReLU)             (None, 356)               0         
                                                                 
 dense_57 (Dense)            (None, 2040)              728280    
                                                                 
 batch_normalization_58 (Bat  (None, 2040)             8160      
 chNormalization)                                                
                                                                 
 re_lu_58 (ReLU)             (None, 2040)              0         
                                                                 
 dense_58 (Dense)            (None, 3060)              6245460   
                                                                 
 batch_normalization_59 (Bat  (None, 3060)             12240     
 chNormalization)                                                
                                                                 
 re_lu_59 (ReLU)             (None, 3060)              0         
                                                                 
 dense_59 (Dense)            (None, 1020)              3122220   
                                                                 
=================================================================
Total params: 20,233,480
Trainable params: 20,212,368
Non-trainable params: 21,112
_________________________________________________________________
Epoch 1/400
1065/1065 - 5s - loss: 0.0268 - val_loss: 0.0350 - 5s/epoch - 5ms/step
Epoch 2/400
1065/1065 - 4s - loss: 0.0112 - val_loss: 0.0161 - 4s/epoch - 4ms/step
…
 1/60 [..............................] - ETA: 6s46/60 [======================>.......] - ETA: 0s60/60 [==============================] - 0s 1ms/step
correlation 0.010426760185525802
cosine 0.00785989435717133
MAE: 0.015601531241531328
RMSE: 0.09369314195049173
r2: 0.7477001402649971
RMSE zero-vector: 0.34573518857430263
Full AutoEncoder
Model: "model_33"
_________________________________________________________________
 Layer (type)                Output Shape              Param #   
=================================================================
 input_34 (InputLayer)       multiple                  0         
                                                                 
 dense_55 (Dense)            (None, 3060)              3124260   
                                                                 
 batch_normalization_55 (Bat  (None, 3060)             12240     
 chNormalization)                                                
                                                                 
 re_lu_55 (ReLU)             (None, 3060)              0         
                                                                 
 dense_56 (Dense)            (None, 2040)              6244440   
                                                                 
 batch_normalization_56 (Bat  (None, 2040)             8160      
 chNormalization)                                                
                                                                 
 re_lu_56 (ReLU)             (None, 2040)              0         
                                                                 
 bottleneck (Dense)          (None, 356)               726596    
                                                                 
 batch_normalization_57 (Bat  (None, 356)              1424      
 chNormalization)                                                
                                                                 
 re_lu_57 (ReLU)             (None, 356)               0         
                                                                 
 dense_57 (Dense)            (None, 2040)              728280    
                                                                 
 batch_normalization_58 (Bat  (None, 2040)             8160      
 chNormalization)                                                
                                                                 
 re_lu_58 (ReLU)             (None, 2040)              0         
                                                                 
 dense_58 (Dense)            (None, 3060)              6245460   
                                                                 
 batch_normalization_59 (Bat  (None, 3060)             12240     
 chNormalization)                                                
                                                                 
 re_lu_59 (ReLU)             (None, 3060)              0         
                                                                 
 dense_59 (Dense)            (None, 1020)              3122220   
                                                                 
=================================================================
Total params: 20,233,480
Trainable params: 20,212,368
Non-trainable params: 21,112
_________________________________________________________________
Encoder
Model: "model_34"
_________________________________________________________________
 Layer (type)                Output Shape              Param #   
=================================================================
 input_35 (InputLayer)       [(None, 1020)]            0         
                                                                 
 input_34 (InputLayer)       multiple                  0         
                                                                 
 dense_55 (Dense)            (None, 3060)              3124260   
                                                                 
 batch_normalization_55 (Bat  (None, 3060)             12240     
 chNormalization)                                                
                                                                 
 re_lu_55 (ReLU)             (None, 3060)              0         
                                                                 
 dense_56 (Dense)            (None, 2040)              6244440   
                                                                 
 batch_normalization_56 (Bat  (None, 2040)             8160      
 chNormalization)                                                
                                                                 
 re_lu_56 (ReLU)             (None, 2040)              0         
                                                                 
 bottleneck (Dense)          (None, 356)               726596    
                                                                 
=================================================================
Total params: 10,115,696
Trainable params: 10,105,496
Non-trainable params: 10,200
_________________________________________________________________
Decoder
Model: "model_35"
_________________________________________________________________
 Layer (type)                Output Shape              Param #   
=================================================================
 input_36 (InputLayer)       [(None, 356)]             0         
                                                                 
 batch_normalization_57 (Bat  (None, 356)              1424      
 chNormalization)                                                
                                                                 
 re_lu_57 (ReLU)             (None, 356)               0         
                                                                 
 dense_57 (Dense)            (None, 2040)              728280    
                                                                 
 batch_normalization_58 (Bat  (None, 2040)             8160      
 chNormalization)                                                
                                                                 
 re_lu_58 (ReLU)             (None, 2040)              0         
                                                                 
 dense_58 (Dense)            (None, 3060)              6245460   
                                                                 
 batch_normalization_59 (Bat  (None, 3060)             12240     
 chNormalization)                                                
                                                                 
 re_lu_59 (ReLU)             (None, 3060)              0         
                                                                 
 dense_59 (Dense)            (None, 1020)              3122220   
                                                                 
=================================================================
Total params: 10,117,784
Trainable params: 10,106,872
Non-trainable params: 10,912
_________________________________________________________________
Model: "model_36"
_________________________________________________________________
 Layer (type)                Output Shape              Param #   
=================================================================
 input_37 (InputLayer)       [(None, 1020)]            0         
                                                                 
 dense_60 (Dense)            (None, 3060)              3124260   
                                                                 
 batch_normalization_60 (Bat  (None, 3060)             12240     
 chNormalization)                                                
                                                                 
 re_lu_60 (ReLU)             (None, 3060)              0         
                                                                 
 dense_61 (Dense)            (None, 2040)              6244440   
                                                                 
 batch_normalization_61 (Bat  (None, 2040)             8160      
 chNormalization)                                                
                                                                 
 re_lu_61 (ReLU)             (None, 2040)              0         
                                                                 
 bottleneck (Dense)          (None, 305)               622505    
                                                                 
 batch_normalization_62 (Bat  (None, 305)              1220      
 chNormalization)                                                
                                                                 
 re_lu_62 (ReLU)             (None, 305)               0         
                                                                 
 dense_62 (Dense)            (None, 2040)              624240    
                                                                 
 batch_normalization_63 (Bat  (None, 2040)             8160      
 chNormalization)                                                
                                                                 
 re_lu_63 (ReLU)             (None, 2040)              0         
                                                                 
 dense_63 (Dense)            (None, 3060)              6245460   
                                                                 
 batch_normalization_64 (Bat  (None, 3060)             12240     
 chNormalization)                                                
                                                                 
 re_lu_64 (ReLU)             (None, 3060)              0         
                                                                 
 dense_64 (Dense)            (None, 1020)              3122220   
                                                                 
=================================================================
Total params: 20,025,145
Trainable params: 20,004,135
Non-trainable params: 21,010
_________________________________________________________________
Epoch 1/400
1065/1065 - 5s - loss: 0.0266 - val_loss: 0.0199 - 5s/epoch - 5ms/step
Epoch 2/400
1065/1065 - 4s - loss: 0.0114 - val_loss: 0.0151 - 4s/epoch - 4ms/step
…
 1/60 [..............................] - ETA: 6s45/60 [=====================>........] - ETA: 0s60/60 [==============================] - 0s 1ms/step
correlation 0.011669646551606383
cosine 0.008475318829963711
MAE: 0.016328629628391298
RMSE: 0.08226526313278668
r2: 0.8057153246869793
RMSE zero-vector: 0.34573518857430263
Full AutoEncoder
Model: "model_36"
_________________________________________________________________
 Layer (type)                Output Shape              Param #   
=================================================================
 input_37 (InputLayer)       multiple                  0         
                                                                 
 dense_60 (Dense)            (None, 3060)              3124260   
                                                                 
 batch_normalization_60 (Bat  (None, 3060)             12240     
 chNormalization)                                                
                                                                 
 re_lu_60 (ReLU)             (None, 3060)              0         
                                                                 
 dense_61 (Dense)            (None, 2040)              6244440   
                                                                 
 batch_normalization_61 (Bat  (None, 2040)             8160      
 chNormalization)                                                
                                                                 
 re_lu_61 (ReLU)             (None, 2040)              0         
                                                                 
 bottleneck (Dense)          (None, 305)               622505    
                                                                 
 batch_normalization_62 (Bat  (None, 305)              1220      
 chNormalization)                                                
                                                                 
 re_lu_62 (ReLU)             (None, 305)               0         
                                                                 
 dense_62 (Dense)            (None, 2040)              624240    
                                                                 
 batch_normalization_63 (Bat  (None, 2040)             8160      
 chNormalization)                                                
                                                                 
 re_lu_63 (ReLU)             (None, 2040)              0         
                                                                 
 dense_63 (Dense)            (None, 3060)              6245460   
                                                                 
 batch_normalization_64 (Bat  (None, 3060)             12240     
 chNormalization)                                                
                                                                 
 re_lu_64 (ReLU)             (None, 3060)              0         
                                                                 
 dense_64 (Dense)            (None, 1020)              3122220   
                                                                 
=================================================================
Total params: 20,025,145
Trainable params: 20,004,135
Non-trainable params: 21,010
_________________________________________________________________
Encoder
Model: "model_37"
_________________________________________________________________
 Layer (type)                Output Shape              Param #   
=================================================================
 input_38 (InputLayer)       [(None, 1020)]            0         
                                                                 
 input_37 (InputLayer)       multiple                  0         
                                                                 
 dense_60 (Dense)            (None, 3060)              3124260   
                                                                 
 batch_normalization_60 (Bat  (None, 3060)             12240     
 chNormalization)                                                
                                                                 
 re_lu_60 (ReLU)             (None, 3060)              0         
                                                                 
 dense_61 (Dense)            (None, 2040)              6244440   
                                                                 
 batch_normalization_61 (Bat  (None, 2040)             8160      
 chNormalization)                                                
                                                                 
 re_lu_61 (ReLU)             (None, 2040)              0         
                                                                 
 bottleneck (Dense)          (None, 305)               622505    
                                                                 
=================================================================
Total params: 10,011,605
Trainable params: 10,001,405
Non-trainable params: 10,200
_________________________________________________________________
Decoder
Model: "model_38"
_________________________________________________________________
 Layer (type)                Output Shape              Param #   
=================================================================
 input_39 (InputLayer)       [(None, 305)]             0         
                                                                 
 batch_normalization_62 (Bat  (None, 305)              1220      
 chNormalization)                                                
                                                                 
 re_lu_62 (ReLU)             (None, 305)               0         
                                                                 
 dense_62 (Dense)            (None, 2040)              624240    
                                                                 
 batch_normalization_63 (Bat  (None, 2040)             8160      
 chNormalization)                                                
                                                                 
 re_lu_63 (ReLU)             (None, 2040)              0         
                                                                 
 dense_63 (Dense)            (None, 3060)              6245460   
                                                                 
 batch_normalization_64 (Bat  (None, 3060)             12240     
 chNormalization)                                                
                                                                 
 re_lu_64 (ReLU)             (None, 3060)              0         
                                                                 
 dense_64 (Dense)            (None, 1020)              3122220   
                                                                 
=================================================================
Total params: 10,013,540
Trainable params: 10,002,730
Non-trainable params: 10,810
_________________________________________________________________
Model: "model_39"
_________________________________________________________________
 Layer (type)                Output Shape              Param #   
=================================================================
 input_40 (InputLayer)       [(None, 1020)]            0         
                                                                 
 dense_65 (Dense)            (None, 3060)              3124260   
                                                                 
 batch_normalization_65 (Bat  (None, 3060)             12240     
 chNormalization)                                                
                                                                 
 re_lu_65 (ReLU)             (None, 3060)              0         
                                                                 
 dense_66 (Dense)            (None, 2040)              6244440   
                                                                 
 batch_normalization_66 (Bat  (None, 2040)             8160      
 chNormalization)                                                
                                                                 
 re_lu_66 (ReLU)             (None, 2040)              0         
                                                                 
 bottleneck (Dense)          (None, 254)               518414    
                                                                 
 batch_normalization_67 (Bat  (None, 254)              1016      
 chNormalization)                                                
                                                                 
 re_lu_67 (ReLU)             (None, 254)               0         
                                                                 
 dense_67 (Dense)            (None, 2040)              520200    
                                                                 
 batch_normalization_68 (Bat  (None, 2040)             8160      
 chNormalization)                                                
                                                                 
 re_lu_68 (ReLU)             (None, 2040)              0         
                                                                 
 dense_68 (Dense)            (None, 3060)              6245460   
                                                                 
 batch_normalization_69 (Bat  (None, 3060)             12240     
 chNormalization)                                                
                                                                 
 re_lu_69 (ReLU)             (None, 3060)              0         
                                                                 
 dense_69 (Dense)            (None, 1020)              3122220   
                                                                 
=================================================================
Total params: 19,816,810
Trainable params: 19,795,902
Non-trainable params: 20,908
_________________________________________________________________
Epoch 1/400
1065/1065 - 5s - loss: 0.0273 - val_loss: 0.0199 - 5s/epoch - 5ms/step
Epoch 2/400
1065/1065 - 4s - loss: 0.0114 - val_loss: 0.0159 - 4s/epoch - 4ms/step
…
 1/60 [..............................] - ETA: 6s46/60 [======================>.......] - ETA: 0s60/60 [==============================] - 0s 1ms/step
correlation 0.01824956725662701
cosine 0.013304314840394037
MAE: 0.02055124381553124
RMSE: 0.09561981262001462
r2: 0.7377437047341137
RMSE zero-vector: 0.34573518857430263
Full AutoEncoder
Model: "model_39"
_________________________________________________________________
 Layer (type)                Output Shape              Param #   
=================================================================
 input_40 (InputLayer)       multiple                  0         
                                                                 
 dense_65 (Dense)            (None, 3060)              3124260   
                                                                 
 batch_normalization_65 (Bat  (None, 3060)             12240     
 chNormalization)                                                
                                                                 
 re_lu_65 (ReLU)             (None, 3060)              0         
                                                                 
 dense_66 (Dense)            (None, 2040)              6244440   
                                                                 
 batch_normalization_66 (Bat  (None, 2040)             8160      
 chNormalization)                                                
                                                                 
 re_lu_66 (ReLU)             (None, 2040)              0         
                                                                 
 bottleneck (Dense)          (None, 254)               518414    
                                                                 
 batch_normalization_67 (Bat  (None, 254)              1016      
 chNormalization)                                                
                                                                 
 re_lu_67 (ReLU)             (None, 254)               0         
                                                                 
 dense_67 (Dense)            (None, 2040)              520200    
                                                                 
 batch_normalization_68 (Bat  (None, 2040)             8160      
 chNormalization)                                                
                                                                 
 re_lu_68 (ReLU)             (None, 2040)              0         
                                                                 
 dense_68 (Dense)            (None, 3060)              6245460   
                                                                 
 batch_normalization_69 (Bat  (None, 3060)             12240     
 chNormalization)                                                
                                                                 
 re_lu_69 (ReLU)             (None, 3060)              0         
                                                                 
 dense_69 (Dense)            (None, 1020)              3122220   
                                                                 
=================================================================
Total params: 19,816,810
Trainable params: 19,795,902
Non-trainable params: 20,908
_________________________________________________________________
Encoder
Model: "model_40"
_________________________________________________________________
 Layer (type)                Output Shape              Param #   
=================================================================
 input_41 (InputLayer)       [(None, 1020)]            0         
                                                                 
 input_40 (InputLayer)       multiple                  0         
                                                                 
 dense_65 (Dense)            (None, 3060)              3124260   
                                                                 
 batch_normalization_65 (Bat  (None, 3060)             12240     
 chNormalization)                                                
                                                                 
 re_lu_65 (ReLU)             (None, 3060)              0         
                                                                 
 dense_66 (Dense)            (None, 2040)              6244440   
                                                                 
 batch_normalization_66 (Bat  (None, 2040)             8160      
 chNormalization)                                                
                                                                 
 re_lu_66 (ReLU)             (None, 2040)              0         
                                                                 
 bottleneck (Dense)          (None, 254)               518414    
                                                                 
=================================================================
Total params: 9,907,514
Trainable params: 9,897,314
Non-trainable params: 10,200
_________________________________________________________________
Decoder
Model: "model_41"
_________________________________________________________________
 Layer (type)                Output Shape              Param #   
=================================================================
 input_42 (InputLayer)       [(None, 254)]             0         
                                                                 
 batch_normalization_67 (Bat  (None, 254)              1016      
 chNormalization)                                                
                                                                 
 re_lu_67 (ReLU)             (None, 254)               0         
                                                                 
 dense_67 (Dense)            (None, 2040)              520200    
                                                                 
 batch_normalization_68 (Bat  (None, 2040)             8160      
 chNormalization)                                                
                                                                 
 re_lu_68 (ReLU)             (None, 2040)              0         
                                                                 
 dense_68 (Dense)            (None, 3060)              6245460   
                                                                 
 batch_normalization_69 (Bat  (None, 3060)             12240     
 chNormalization)                                                
                                                                 
 re_lu_69 (ReLU)             (None, 3060)              0         
                                                                 
 dense_69 (Dense)            (None, 1020)              3122220   
                                                                 
=================================================================
Total params: 9,909,296
Trainable params: 9,898,588
Non-trainable params: 10,708
_________________________________________________________________
Model: "model_42"
_________________________________________________________________
 Layer (type)                Output Shape              Param #   
=================================================================
 input_43 (InputLayer)       [(None, 1020)]            0         
                                                                 
 dense_70 (Dense)            (None, 3060)              3124260   
                                                                 
 batch_normalization_70 (Bat  (None, 3060)             12240     
 chNormalization)                                                
                                                                 
 re_lu_70 (ReLU)             (None, 3060)              0         
                                                                 
 dense_71 (Dense)            (None, 2040)              6244440   
                                                                 
 batch_normalization_71 (Bat  (None, 2040)             8160      
 chNormalization)                                                
                                                                 
 re_lu_71 (ReLU)             (None, 2040)              0         
                                                                 
 bottleneck (Dense)          (None, 203)               414323    
                                                                 
 batch_normalization_72 (Bat  (None, 203)              812       
 chNormalization)                                                
                                                                 
 re_lu_72 (ReLU)             (None, 203)               0         
                                                                 
 dense_72 (Dense)            (None, 2040)              416160    
                                                                 
 batch_normalization_73 (Bat  (None, 2040)             8160      
 chNormalization)                                                
                                                                 
 re_lu_73 (ReLU)             (None, 2040)              0         
                                                                 
 dense_73 (Dense)            (None, 3060)              6245460   
                                                                 
 batch_normalization_74 (Bat  (None, 3060)             12240     
 chNormalization)                                                
                                                                 
 re_lu_74 (ReLU)             (None, 3060)              0         
                                                                 
 dense_74 (Dense)            (None, 1020)              3122220   
                                                                 
=================================================================
Total params: 19,608,475
Trainable params: 19,587,669
Non-trainable params: 20,806
_________________________________________________________________
Epoch 1/400
1065/1065 - 5s - loss: 0.0262 - val_loss: 0.0182 - 5s/epoch - 5ms/step
Epoch 2/400
1065/1065 - 4s - loss: 0.0115 - val_loss: 0.0171 - 4s/epoch - 4ms/step
…
 1/60 [..............................] - ETA: 7s46/60 [======================>.......] - ETA: 0s60/60 [==============================] - 0s 1ms/step
correlation 0.019344327644613624
cosine 0.014932999862812013
MAE: 0.024320716914361187
RMSE: 0.12679589309360612
r2: 0.5382329232167111
RMSE zero-vector: 0.34573518857430263
Full AutoEncoder
Model: "model_42"
_________________________________________________________________
 Layer (type)                Output Shape              Param #   
=================================================================
 input_43 (InputLayer)       multiple                  0         
                                                                 
 dense_70 (Dense)            (None, 3060)              3124260   
                                                                 
 batch_normalization_70 (Bat  (None, 3060)             12240     
 chNormalization)                                                
                                                                 
 re_lu_70 (ReLU)             (None, 3060)              0         
                                                                 
 dense_71 (Dense)            (None, 2040)              6244440   
                                                                 
 batch_normalization_71 (Bat  (None, 2040)             8160      
 chNormalization)                                                
                                                                 
 re_lu_71 (ReLU)             (None, 2040)              0         
                                                                 
 bottleneck (Dense)          (None, 203)               414323    
                                                                 
 batch_normalization_72 (Bat  (None, 203)              812       
…
                                                                 
 dense_157 (Dense)           (None, 3060)              780300    
                                                                 
 batch_normalization_158 (Ba  (None, 3060)             12240     
 tchNormalization)                                               
                                                                 
 re_lu_158 (ReLU)            (None, 3060)              0         
                                                                 
 dense_158 (Dense)           (None, 2040)              6244440   
                                                                 
 batch_normalization_159 (Ba  (None, 2040)             8160      
 tchNormalization)                                               
                                                                 
 re_lu_159 (ReLU)            (None, 2040)              0         
                                                                 
 dense_159 (Dense)           (None, 1020)              2081820   
                                                                 
=================================================================
Total params: 18,254,170
Trainable params: 18,233,262
Non-trainable params: 20,908
_________________________________________________________________
Epoch 1/400
1065/1065 - 5s - loss: 0.0218 - val_loss: 0.0255 - 5s/epoch - 5ms/step
Epoch 2/400
1065/1065 - 4s - loss: 0.0101 - val_loss: 0.0142 - 4s/epoch - 4ms/step
…
 1/60 [..............................] - ETA: 6s45/60 [=====================>........] - ETA: 0s60/60 [==============================] - 0s 1ms/step
correlation 0.008609362229342787
cosine 0.00603298475894657
MAE: 0.01342506299912776
RMSE: 0.06720385334442965
r2: 0.8702001362596851
RMSE zero-vector: 0.34573518857430263
Full AutoEncoder
Model: "model_93"
_________________________________________________________________
 Layer (type)                Output Shape              Param #   
=================================================================
 input_94 (InputLayer)       multiple                  0         
                                                                 
 dense_155 (Dense)           (None, 2040)              2082840   
                                                                 
 batch_normalization_155 (Ba  (None, 2040)             8160      
 tchNormalization)                                               
                                                                 
 re_lu_155 (ReLU)            (None, 2040)              0         
                                                                 
 dense_156 (Dense)           (None, 3060)              6245460   
                                                                 
 batch_normalization_156 (Ba  (None, 3060)             12240     
 tchNormalization)                                               
                                                                 
 re_lu_156 (ReLU)            (None, 3060)              0         
                                                                 
 bottleneck (Dense)          (None, 254)               777494    
                                                                 
 batch_normalization_157 (Ba  (None, 254)              1016      
 tchNormalization)                                               
                                                                 
 re_lu_157 (ReLU)            (None, 254)               0         
                                                                 
 dense_157 (Dense)           (None, 3060)              780300    
                                                                 
 batch_normalization_158 (Ba  (None, 3060)             12240     
 tchNormalization)                                               
                                                                 
 re_lu_158 (ReLU)            (None, 3060)              0         
                                                                 
 dense_158 (Dense)           (None, 2040)              6244440   
                                                                 
 batch_normalization_159 (Ba  (None, 2040)             8160      
 tchNormalization)                                               
                                                                 
 re_lu_159 (ReLU)            (None, 2040)              0         
                                                                 
 dense_159 (Dense)           (None, 1020)              2081820   
                                                                 
=================================================================
Total params: 18,254,170
Trainable params: 18,233,262
Non-trainable params: 20,908
_________________________________________________________________
Encoder
Model: "model_94"
_________________________________________________________________
 Layer (type)                Output Shape              Param #   
=================================================================
 input_95 (InputLayer)       [(None, 1020)]            0         
                                                                 
 input_94 (InputLayer)       multiple                  0         
                                                                 
 dense_155 (Dense)           (None, 2040)              2082840   
                                                                 
 batch_normalization_155 (Ba  (None, 2040)             8160      
 tchNormalization)                                               
                                                                 
 re_lu_155 (ReLU)            (None, 2040)              0         
                                                                 
 dense_156 (Dense)           (None, 3060)              6245460   
                                                                 
 batch_normalization_156 (Ba  (None, 3060)             12240     
 tchNormalization)                                               
                                                                 
 re_lu_156 (ReLU)            (None, 3060)              0         
                                                                 
 bottleneck (Dense)          (None, 254)               777494    
                                                                 
=================================================================
Total params: 9,126,194
Trainable params: 9,115,994
Non-trainable params: 10,200
_________________________________________________________________
Decoder
Model: "model_95"
_________________________________________________________________
 Layer (type)                Output Shape              Param #   
=================================================================
 input_96 (InputLayer)       [(None, 254)]             0         
                                                                 
 batch_normalization_157 (Ba  (None, 254)              1016      
 tchNormalization)                                               
                                                                 
 re_lu_157 (ReLU)            (None, 254)               0         
                                                                 
 dense_157 (Dense)           (None, 3060)              780300    
                                                                 
 batch_normalization_158 (Ba  (None, 3060)             12240     
 tchNormalization)                                               
                                                                 
 re_lu_158 (ReLU)            (None, 3060)              0         
                                                                 
 dense_158 (Dense)           (None, 2040)              6244440   
                                                                 
 batch_normalization_159 (Ba  (None, 2040)             8160      
 tchNormalization)                                               
                                                                 
 re_lu_159 (ReLU)            (None, 2040)              0         
                                                                 
 dense_159 (Dense)           (None, 1020)              2081820   
                                                                 
=================================================================
Total params: 9,127,976
Trainable params: 9,117,268
Non-trainable params: 10,708
_________________________________________________________________
Model: "model_96"
_________________________________________________________________
 Layer (type)                Output Shape              Param #   
=================================================================
 input_97 (InputLayer)       [(None, 1020)]            0         
                                                                 
 dense_160 (Dense)           (None, 2040)              2082840   
                                                                 
 batch_normalization_160 (Ba  (None, 2040)             8160      
 tchNormalization)                                               
                                                                 
 re_lu_160 (ReLU)            (None, 2040)              0         
                                                                 
 dense_161 (Dense)           (None, 3060)              6245460   
                                                                 
 batch_normalization_161 (Ba  (None, 3060)             12240     
 tchNormalization)                                               
                                                                 
 re_lu_161 (ReLU)            (None, 3060)              0         
                                                                 
 bottleneck (Dense)          (None, 203)               621383    
                                                                 
 batch_normalization_162 (Ba  (None, 203)              812       
 tchNormalization)                                               
                                                                 
 re_lu_162 (ReLU)            (None, 203)               0         
                                                                 
 dense_162 (Dense)           (None, 3060)              624240    
                                                                 
 batch_normalization_163 (Ba  (None, 3060)             12240     
 tchNormalization)                                               
                                                                 
 re_lu_163 (ReLU)            (None, 3060)              0         
                                                                 
 dense_163 (Dense)           (None, 2040)              6244440   
                                                                 
 batch_normalization_164 (Ba  (None, 2040)             8160      
 tchNormalization)                                               
                                                                 
 re_lu_164 (ReLU)            (None, 2040)              0         
                                                                 
 dense_164 (Dense)           (None, 1020)              2081820   
                                                                 
=================================================================
Total params: 17,941,795
Trainable params: 17,920,989
Non-trainable params: 20,806
_________________________________________________________________
Epoch 1/400
1065/1065 - 5s - loss: 0.0223 - val_loss: 0.0180 - 5s/epoch - 5ms/step
Epoch 2/400
1065/1065 - 4s - loss: 0.0103 - val_loss: 0.0144 - 4s/epoch - 4ms/step
…
 1/60 [..............................] - ETA: 7s46/60 [======================>.......] - ETA: 0s60/60 [==============================] - 0s 1ms/step
correlation 0.02094525837099132
cosine 0.016513717518431417
MAE: 0.02007106520936147
RMSE: 0.10094507505856641
r2: 0.7078813031474173
RMSE zero-vector: 0.34573518857430263
Full AutoEncoder
Model: "model_96"
_________________________________________________________________
 Layer (type)                Output Shape              Param #   
=================================================================
 input_97 (InputLayer)       multiple                  0         
                                                                 
 dense_160 (Dense)           (None, 2040)              2082840   
                                                                 
 batch_normalization_160 (Ba  (None, 2040)             8160      
 tchNormalization)                                               
                                                                 
 re_lu_160 (ReLU)            (None, 2040)              0         
                                                                 
 dense_161 (Dense)           (None, 3060)              6245460   
                                                                 
 batch_normalization_161 (Ba  (None, 3060)             12240     
 tchNormalization)                                               
                                                                 
 re_lu_161 (ReLU)            (None, 3060)              0         
                                                                 
 bottleneck (Dense)          (None, 203)               621383    
                                                                 
 batch_normalization_162 (Ba  (None, 203)              812       
 tchNormalization)                                               
                                                                 
 re_lu_162 (ReLU)            (None, 203)               0         
                                                                 
 dense_162 (Dense)           (None, 3060)              624240    
                                                                 
 batch_normalization_163 (Ba  (None, 3060)             12240     
 tchNormalization)                                               
                                                                 
 re_lu_163 (ReLU)            (None, 3060)              0         
                                                                 
 dense_163 (Dense)           (None, 2040)              6244440   
                                                                 
 batch_normalization_164 (Ba  (None, 2040)             8160      
 tchNormalization)                                               
                                                                 
 re_lu_164 (ReLU)            (None, 2040)              0         
                                                                 
 dense_164 (Dense)           (None, 1020)              2081820   
                                                                 
=================================================================
Total params: 17,941,795
Trainable params: 17,920,989
Non-trainable params: 20,806
_________________________________________________________________
Encoder
Model: "model_97"
_________________________________________________________________
 Layer (type)                Output Shape              Param #   
=================================================================
 input_98 (InputLayer)       [(None, 1020)]            0         
                                                                 
 input_97 (InputLayer)       multiple                  0         
                                                                 
 dense_160 (Dense)           (None, 2040)              2082840   
                                                                 
 batch_normalization_160 (Ba  (None, 2040)             8160      
 tchNormalization)                                               
                                                                 
 re_lu_160 (ReLU)            (None, 2040)              0         
                                                                 
 dense_161 (Dense)           (None, 3060)              6245460   
                                                                 
 batch_normalization_161 (Ba  (None, 3060)             12240     
 tchNormalization)                                               
                                                                 
 re_lu_161 (ReLU)            (None, 3060)              0         
                                                                 
 bottleneck (Dense)          (None, 203)               621383    
                                                                 
=================================================================
Total params: 8,970,083
Trainable params: 8,959,883
Non-trainable params: 10,200
_________________________________________________________________
Decoder
Model: "model_98"
_________________________________________________________________
 Layer (type)                Output Shape              Param #   
=================================================================
 input_99 (InputLayer)       [(None, 203)]             0         
                                                                 
 batch_normalization_162 (Ba  (None, 203)              812       
 tchNormalization)                                               
                                                                 
 re_lu_162 (ReLU)            (None, 203)               0         
                                                                 
 dense_162 (Dense)           (None, 3060)              624240    
                                                                 
 batch_normalization_163 (Ba  (None, 3060)             12240     
 tchNormalization)                                               
                                                                 
 re_lu_163 (ReLU)            (None, 3060)              0         
                                                                 
 dense_163 (Dense)           (None, 2040)              6244440   
                                                                 
 batch_normalization_164 (Ba  (None, 2040)             8160      
 tchNormalization)                                               
                                                                 
 re_lu_164 (ReLU)            (None, 2040)              0         
                                                                 
 dense_164 (Dense)           (None, 1020)              2081820   
                                                                 
=================================================================
Total params: 8,971,712
Trainable params: 8,961,106
Non-trainable params: 10,606
_________________________________________________________________
Model: "model_99"
_________________________________________________________________
 Layer (type)                Output Shape              Param #   
=================================================================
 input_100 (InputLayer)      [(None, 1020)]            0         
                                                                 
 dense_165 (Dense)           (None, 2040)              2082840   
                                                                 
 batch_normalization_165 (Ba  (None, 2040)             8160      
 tchNormalization)                                               
                                                                 
 re_lu_165 (ReLU)            (None, 2040)              0         
                                                                 
 dense_166 (Dense)           (None, 3060)              6245460   
                                                                 
 batch_normalization_166 (Ba  (None, 3060)             12240     
 tchNormalization)                                               
                                                                 
 re_lu_166 (ReLU)            (None, 3060)              0         
                                                                 
 bottleneck (Dense)          (None, 152)               465272    
                                                                 
 batch_normalization_167 (Ba  (None, 152)              608       
 tchNormalization)                                               
                                                                 
 re_lu_167 (ReLU)            (None, 152)               0         
                                                                 
 dense_167 (Dense)           (None, 3060)              468180    
                                                                 
 batch_normalization_168 (Ba  (None, 3060)             12240     
 tchNormalization)                                               
                                                                 
 re_lu_168 (ReLU)            (None, 3060)              0         
                                                                 
 dense_168 (Dense)           (None, 2040)              6244440   
                                                                 
 batch_normalization_169 (Ba  (None, 2040)             8160      
 tchNormalization)                                               
                                                                 
 re_lu_169 (ReLU)            (None, 2040)              0         
                                                                 
 dense_169 (Dense)           (None, 1020)              2081820   
                                                                 
=================================================================
Total params: 17,629,420
Trainable params: 17,608,716
Non-trainable params: 20,704
_________________________________________________________________
Epoch 1/400
1065/1065 - 5s - loss: 0.0223 - val_loss: 0.0198 - 5s/epoch - 5ms/step
Epoch 2/400
1065/1065 - 4s - loss: 0.0103 - val_loss: 0.0153 - 4s/epoch - 4ms/step
…
 1/60 [..............................] - ETA: 7s46/60 [======================>.......] - ETA: 0s60/60 [==============================] - 0s 1ms/step
correlation 0.019761688175851236
cosine 0.014825295583503576
MAE: 0.020717172717126073
RMSE: 0.11277246855181793
r2: 0.6345198467256769
RMSE zero-vector: 0.34573518857430263
Full AutoEncoder
Model: "model_99"
_________________________________________________________________
 Layer (type)                Output Shape              Param #   
=================================================================
 input_100 (InputLayer)      multiple                  0         
                                                                 
 dense_165 (Dense)           (None, 2040)              2082840   
                                                                 
 batch_normalization_165 (Ba  (None, 2040)             8160      
 tchNormalization)                                               
                                                                 
 re_lu_165 (ReLU)            (None, 2040)              0         
                                                                 
 dense_166 (Dense)           (None, 3060)              6245460   
                                                                 
 batch_normalization_166 (Ba  (None, 3060)             12240     
 tchNormalization)                                               
                                                                 
 re_lu_166 (ReLU)            (None, 3060)              0         
                                                                 
 bottleneck (Dense)          (None, 152)               465272    
                                                                 
 batch_normalization_167 (Ba  (None, 152)              608       
 tchNormalization)                                               
                                                                 
 re_lu_167 (ReLU)            (None, 152)               0         
                                                                 
 dense_167 (Dense)           (None, 3060)              468180    
                                                                 
 batch_normalization_168 (Ba  (None, 3060)             12240     
 tchNormalization)                                               
                                                                 
 re_lu_168 (ReLU)            (None, 3060)              0         
                                                                 
 dense_168 (Dense)           (None, 2040)              6244440   
                                                                 
 batch_normalization_169 (Ba  (None, 2040)             8160      
 tchNormalization)                                               
                                                                 
 re_lu_169 (ReLU)            (None, 2040)              0         
                                                                 
 dense_169 (Dense)           (None, 1020)              2081820   
                                                                 
=================================================================
Total params: 17,629,420
Trainable params: 17,608,716
Non-trainable params: 20,704
_________________________________________________________________
Encoder
Model: "model_100"
_________________________________________________________________
 Layer (type)                Output Shape              Param #   
=================================================================
 input_101 (InputLayer)      [(None, 1020)]            0         
                                                                 
 input_100 (InputLayer)      multiple                  0         
                                                                 
 dense_165 (Dense)           (None, 2040)              2082840   
                                                                 
 batch_normalization_165 (Ba  (None, 2040)             8160      
 tchNormalization)                                               
                                                                 
 re_lu_165 (ReLU)            (None, 2040)              0         
                                                                 
 dense_166 (Dense)           (None, 3060)              6245460   
                                                                 
 batch_normalization_166 (Ba  (None, 3060)             12240     
 tchNormalization)                                               
                                                                 
 re_lu_166 (ReLU)            (None, 3060)              0         
                                                                 
 bottleneck (Dense)          (None, 152)               465272    
                                                                 
=================================================================
Total params: 8,813,972
Trainable params: 8,803,772
Non-trainable params: 10,200
_________________________________________________________________
Decoder
Model: "model_101"
_________________________________________________________________
 Layer (type)                Output Shape              Param #   
=================================================================
 input_102 (InputLayer)      [(None, 152)]             0         
                                                                 
 batch_normalization_167 (Ba  (None, 152)              608       
 tchNormalization)                                               
                                                                 
 re_lu_167 (ReLU)            (None, 152)               0         
                                                                 
 dense_167 (Dense)           (None, 3060)              468180    
                                                                 
 batch_normalization_168 (Ba  (None, 3060)             12240     
 tchNormalization)                                               
                                                                 
 re_lu_168 (ReLU)            (None, 3060)              0         
                                                                 
 dense_168 (Dense)           (None, 2040)              6244440   
                                                                 
 batch_normalization_169 (Ba  (None, 2040)             8160      
 tchNormalization)                                               
                                                                 
 re_lu_169 (ReLU)            (None, 2040)              0         
                                                                 
 dense_169 (Dense)           (None, 1020)              2081820   
                                                                 
=================================================================
Total params: 8,815,448
Trainable params: 8,804,944
Non-trainable params: 10,504
_________________________________________________________________
Model: "model_102"
_________________________________________________________________
 Layer (type)                Output Shape              Param #   
=================================================================
 input_103 (InputLayer)      [(None, 1020)]            0         
                                                                 
 dense_170 (Dense)           (None, 2040)              2082840   
                                                                 
 batch_normalization_170 (Ba  (None, 2040)             8160      
 tchNormalization)                                               
                                                                 
 re_lu_170 (ReLU)            (None, 2040)              0         
                                                                 
 dense_171 (Dense)           (None, 3060)              6245460   
                                                                 
 batch_normalization_171 (Ba  (None, 3060)             12240     
 tchNormalization)                                               
                                                                 
 re_lu_171 (ReLU)            (None, 3060)              0         
                                                                 
 bottleneck (Dense)          (None, 101)               309161    
                                                                 
 batch_normalization_172 (Ba  (None, 101)              404       
 tchNormalization)                                               
                                                                 
 re_lu_172 (ReLU)            (None, 101)               0         
                                                                 
 dense_172 (Dense)           (None, 3060)              312120    
                                                                 
 batch_normalization_173 (Ba  (None, 3060)             12240     
 tchNormalization)                                               
                                                                 
 re_lu_173 (ReLU)            (None, 3060)              0         
                                                                 
 dense_173 (Dense)           (None, 2040)              6244440   
                                                                 
 batch_normalization_174 (Ba  (None, 2040)             8160      
 tchNormalization)                                               
                                                                 
 re_lu_174 (ReLU)            (None, 2040)              0         
                                                                 
 dense_174 (Dense)           (None, 1020)              2081820   
                                                                 
=================================================================
Total params: 17,317,045
Trainable params: 17,296,443
Non-trainable params: 20,602
_________________________________________________________________
Epoch 1/400
1065/1065 - 6s - loss: 0.0221 - val_loss: 0.0200 - 6s/epoch - 6ms/step
Epoch 2/400
1065/1065 - 4s - loss: 0.0103 - val_loss: 0.0149 - 4s/epoch - 4ms/step
…
 1/60 [..............................] - ETA: 7s46/60 [======================>.......] - ETA: 0s60/60 [==============================] - 0s 1ms/step
correlation 0.02457433918355556
cosine 0.022115920934201564
MAE: 0.028773457470953962
RMSE: 0.18694410560860902
r2: -0.004257507093581679
RMSE zero-vector: 0.34573518857430263
Full AutoEncoder
Model: "model_102"
_________________________________________________________________
 Layer (type)                Output Shape              Param #   
=================================================================
 input_103 (InputLayer)      multiple                  0         
                                                                 
 dense_170 (Dense)           (None, 2040)              2082840   
                                                                 
 batch_normalization_170 (Ba  (None, 2040)             8160      
 tchNormalization)                                               
                                                                 
 re_lu_170 (ReLU)            (None, 2040)              0         
                                                                 
 dense_171 (Dense)           (None, 3060)              6245460   
                                                                 
 batch_normalization_171 (Ba  (None, 3060)             12240     
 tchNormalization)                                               
                                                                 
 re_lu_171 (ReLU)            (None, 3060)              0         
                                                                 
 bottleneck (Dense)          (None, 101)               309161    
                                                                 
 batch_normalization_172 (Ba  (None, 101)              404       
 tchNormalization)                                               
                                                                 
 re_lu_172 (ReLU)            (None, 101)               0         
                                                                 
 dense_172 (Dense)           (None, 3060)              312120    
                                                                 
 batch_normalization_173 (Ba  (None, 3060)             12240     
 tchNormalization)                                               
                                                                 
 re_lu_173 (ReLU)            (None, 3060)              0         
                                                                 
 dense_173 (Dense)           (None, 2040)              6244440   
                                                                 
 batch_normalization_174 (Ba  (None, 2040)             8160      
 tchNormalization)                                               
                                                                 
 re_lu_174 (ReLU)            (None, 2040)              0         
                                                                 
 dense_174 (Dense)           (None, 1020)              2081820   
                                                                 
=================================================================
Total params: 17,317,045
Trainable params: 17,296,443
Non-trainable params: 20,602
_________________________________________________________________
Encoder
Model: "model_103"
_________________________________________________________________
 Layer (type)                Output Shape              Param #   
=================================================================
 input_104 (InputLayer)      [(None, 1020)]            0         
                                                                 
 input_103 (InputLayer)      multiple                  0         
                                                                 
 dense_170 (Dense)           (None, 2040)              2082840   
                                                                 
 batch_normalization_170 (Ba  (None, 2040)             8160      
 tchNormalization)                                               
                                                                 
 re_lu_170 (ReLU)            (None, 2040)              0         
                                                                 
 dense_171 (Dense)           (None, 3060)              6245460   
                                                                 
 batch_normalization_171 (Ba  (None, 3060)             12240     
 tchNormalization)                                               
                                                                 
 re_lu_171 (ReLU)            (None, 3060)              0         
                                                                 
 bottleneck (Dense)          (None, 101)               309161    
                                                                 
=================================================================
Total params: 8,657,861
Trainable params: 8,647,661
Non-trainable params: 10,200
_________________________________________________________________
Decoder
Model: "model_104"
_________________________________________________________________
 Layer (type)                Output Shape              Param #   
=================================================================
 input_105 (InputLayer)      [(None, 101)]             0         
                                                                 
 batch_normalization_172 (Ba  (None, 101)              404       
 tchNormalization)                                               
                                                                 
 re_lu_172 (ReLU)            (None, 101)               0         
                                                                 
 dense_172 (Dense)           (None, 3060)              312120    
                                                                 
 batch_normalization_173 (Ba  (None, 3060)             12240     
 tchNormalization)                                               
                                                                 
 re_lu_173 (ReLU)            (None, 3060)              0         
                                                                 
 dense_173 (Dense)           (None, 2040)              6244440   
                                                                 
 batch_normalization_174 (Ba  (None, 2040)             8160      
 tchNormalization)                                               
                                                                 
 re_lu_174 (ReLU)            (None, 2040)              0         
                                                                 
 dense_174 (Dense)           (None, 1020)              2081820   
                                                                 
=================================================================
Total params: 8,659,184
Trainable params: 8,648,782
Non-trainable params: 10,402
_________________________________________________________________
Model: "model_105"
_________________________________________________________________
 Layer (type)                Output Shape              Param #   
=================================================================
 input_106 (InputLayer)      [(None, 1020)]            0         
                                                                 
 dense_175 (Dense)           (None, 2040)              2082840   
                                                                 
 batch_normalization_175 (Ba  (None, 2040)             8160      
 tchNormalization)                                               
                                                                 
 re_lu_175 (ReLU)            (None, 2040)              0         
                                                                 
 dense_176 (Dense)           (None, 3060)              6245460   
                                                                 
 batch_normalization_176 (Ba  (None, 3060)             12240     
 tchNormalization)                                               
                                                                 
 re_lu_176 (ReLU)            (None, 3060)              0         
                                                                 
 bottleneck (Dense)          (None, 50)                153050    
                                                                 
 batch_normalization_177 (Ba  (None, 50)               200       
 tchNormalization)                                               
                                                                 
 re_lu_177 (ReLU)            (None, 50)                0         
                                                                 
 dense_177 (Dense)           (None, 3060)              156060    
                                                                 
 batch_normalization_178 (Ba  (None, 3060)             12240     
 tchNormalization)                                               
                                                                 
 re_lu_178 (ReLU)            (None, 3060)              0         
                                                                 
 dense_178 (Dense)           (None, 2040)              6244440   
                                                                 
 batch_normalization_179 (Ba  (None, 2040)             8160      
 tchNormalization)                                               
                                                                 
 re_lu_179 (ReLU)            (None, 2040)              0         
                                                                 
 dense_179 (Dense)           (None, 1020)              2081820   
                                                                 
=================================================================
Total params: 17,004,670
Trainable params: 16,984,170
Non-trainable params: 20,500
_________________________________________________________________
Epoch 1/400
1065/1065 - 5s - loss: 0.0228 - val_loss: 0.0182 - 5s/epoch - 5ms/step
Epoch 2/400
1065/1065 - 4s - loss: 0.0113 - val_loss: 0.0146 - 4s/epoch - 4ms/step
…
 1/60 [..............................] - ETA: 7s45/60 [=====================>........] - ETA: 0s60/60 [==============================] - 0s 1ms/step
correlation 0.02757806072600661
cosine 0.02155866599859524
MAE: 0.024209756918480492
RMSE: 0.13032117152085113
r2: 0.5143343949569574
RMSE zero-vector: 0.34573518857430263
Full AutoEncoder
Model: "model_105"
_________________________________________________________________
 Layer (type)                Output Shape              Param #   
=================================================================
 input_106 (InputLayer)      multiple                  0         
                                                                 
 dense_175 (Dense)           (None, 2040)              2082840   
                                                                 
 batch_normalization_175 (Ba  (None, 2040)             8160      
 tchNormalization)                                               
                                                                 
 re_lu_175 (ReLU)            (None, 2040)              0         
                                                                 
 dense_176 (Dense)           (None, 3060)              6245460   
                                                                 
 batch_normalization_176 (Ba  (None, 3060)             12240     
 tchNormalization)                                               
                                                                 
 re_lu_176 (ReLU)            (None, 3060)              0         
                                                                 
 bottleneck (Dense)          (None, 50)                153050    
                                                                 
 batch_normalization_177 (Ba  (None, 50)               200       
 tchNormalization)                                               
                                                                 
 re_lu_177 (ReLU)            (None, 50)                0         
                                                                 
 dense_177 (Dense)           (None, 3060)              156060    
                                                                 
 batch_normalization_178 (Ba  (None, 3060)             12240     
 tchNormalization)                                               
                                                                 
 re_lu_178 (ReLU)            (None, 3060)              0         
                                                                 
 dense_178 (Dense)           (None, 2040)              6244440   
                                                                 
 batch_normalization_179 (Ba  (None, 2040)             8160      
 tchNormalization)                                               
                                                                 
 re_lu_179 (ReLU)            (None, 2040)              0         
                                                                 
 dense_179 (Dense)           (None, 1020)              2081820   
                                                                 
=================================================================
Total params: 17,004,670
Trainable params: 16,984,170
Non-trainable params: 20,500
_________________________________________________________________
Encoder
Model: "model_106"
_________________________________________________________________
 Layer (type)                Output Shape              Param #   
=================================================================
 input_107 (InputLayer)      [(None, 1020)]            0         
                                                                 
 input_106 (InputLayer)      multiple                  0         
                                                                 
 dense_175 (Dense)           (None, 2040)              2082840   
                                                                 
 batch_normalization_175 (Ba  (None, 2040)             8160      
 tchNormalization)                                               
                                                                 
 re_lu_175 (ReLU)            (None, 2040)              0         
                                                                 
 dense_176 (Dense)           (None, 3060)              6245460   
                                                                 
 batch_normalization_176 (Ba  (None, 3060)             12240     
 tchNormalization)                                               
                                                                 
 re_lu_176 (ReLU)            (None, 3060)              0         
                                                                 
 bottleneck (Dense)          (None, 50)                153050    
                                                                 
=================================================================
Total params: 8,501,750
Trainable params: 8,491,550
Non-trainable params: 10,200
_________________________________________________________________
Decoder
Model: "model_107"
_________________________________________________________________
 Layer (type)                Output Shape              Param #   
=================================================================
 input_108 (InputLayer)      [(None, 50)]              0         
                                                                 
 batch_normalization_177 (Ba  (None, 50)               200       
 tchNormalization)                                               
                                                                 
 re_lu_177 (ReLU)            (None, 50)                0         
                                                                 
 dense_177 (Dense)           (None, 3060)              156060    
                                                                 
 batch_normalization_178 (Ba  (None, 3060)             12240     
 tchNormalization)                                               
                                                                 
 re_lu_178 (ReLU)            (None, 3060)              0         
                                                                 
 dense_178 (Dense)           (None, 2040)              6244440   
                                                                 
 batch_normalization_179 (Ba  (None, 2040)             8160      
 tchNormalization)                                               
                                                                 
 re_lu_179 (ReLU)            (None, 2040)              0         
                                                                 
 dense_179 (Dense)           (None, 1020)              2081820   
                                                                 
=================================================================
Total params: 8,502,920
Trainable params: 8,492,620
Non-trainable params: 10,300
_________________________________________________________________
Sun Dec 18 22:04:12 CET 2022
done
