…
2022-12-20 01:06:13.840143: I tensorflow/core/common_runtime/gpu/gpu_device.cc:1616] Created device /job:localhost/replica:0/task:0/device:GPU:0 with 9636 MB memory:  -> device: 0, name: GeForce RTX 2080 Ti, pci bus id: 0000:1d:00.0, compute capability: 7.5
Model: "model"
_________________________________________________________________
 Layer (type)                Output Shape              Param #   
=================================================================
 input_1 (InputLayer)        [(None, 1264)]            0         
                                                                 
 dense (Dense)               (None, 3792)              4796880   
                                                                 
 batch_normalization (BatchN  (None, 3792)             15168     
 ormalization)                                                   
                                                                 
 re_lu (ReLU)                (None, 3792)              0         
                                                                 
 dense_1 (Dense)             (None, 2528)              9588704   
                                                                 
 batch_normalization_1 (Batc  (None, 2528)             10112     
 hNormalization)                                                 
                                                                 
 re_lu_1 (ReLU)              (None, 2528)              0         
                                                                 
 bottleneck (Dense)          (None, 1264)              3196656   
                                                                 
 batch_normalization_2 (Batc  (None, 1264)             5056      
 hNormalization)                                                 
                                                                 
 re_lu_2 (ReLU)              (None, 1264)              0         
                                                                 
 dense_2 (Dense)             (None, 2528)              3197920   
                                                                 
 batch_normalization_3 (Batc  (None, 2528)             10112     
 hNormalization)                                                 
                                                                 
 re_lu_3 (ReLU)              (None, 2528)              0         
                                                                 
 dense_3 (Dense)             (None, 3792)              9589968   
                                                                 
 batch_normalization_4 (Batc  (None, 3792)             15168     
 hNormalization)                                                 
                                                                 
 re_lu_4 (ReLU)              (None, 3792)              0         
                                                                 
 dense_4 (Dense)             (None, 1264)              4794352   
                                                                 
=================================================================
Total params: 35,220,096
Trainable params: 35,192,288
Non-trainable params: 27,808
_________________________________________________________________
Epoch 1/400
5969/5969 - 61s - loss: 0.0093 - val_loss: 0.0038 - 61s/epoch - 10ms/step
Epoch 2/400
5969/5969 - 30s - loss: 0.0038 - val_loss: 0.0028 - 30s/epoch - 5ms/step
…
332/332 [==============================] - 1s 1ms/step
correlation 0.01778203452833922
cosine 0.01516404931910569
MAE: 0.013939486
RMSE: 0.07044317
r2: 0.6780876534612503
RMSE zero-vector: 0.23411466903540806
Full AutoEncoder
Model: "model"
_________________________________________________________________
 Layer (type)                Output Shape              Param #   
=================================================================
 input_1 (InputLayer)        multiple                  0         
                                                                 
 dense (Dense)               (None, 3792)              4796880   
                                                                 
 batch_normalization (BatchN  (None, 3792)             15168     
 ormalization)                                                   
                                                                 
 re_lu (ReLU)                (None, 3792)              0         
                                                                 
 dense_1 (Dense)             (None, 2528)              9588704   
                                                                 
 batch_normalization_1 (Batc  (None, 2528)             10112     
 hNormalization)                                                 
                                                                 
 re_lu_1 (ReLU)              (None, 2528)              0         
                                                                 
 bottleneck (Dense)          (None, 1264)              3196656   
                                                                 
 batch_normalization_2 (Batc  (None, 1264)             5056      
 hNormalization)                                                 
                                                                 
 re_lu_2 (ReLU)              (None, 1264)              0         
                                                                 
 dense_2 (Dense)             (None, 2528)              3197920   
                                                                 
 batch_normalization_3 (Batc  (None, 2528)             10112     
 hNormalization)                                                 
                                                                 
 re_lu_3 (ReLU)              (None, 2528)              0         
                                                                 
 dense_3 (Dense)             (None, 3792)              9589968   
                                                                 
 batch_normalization_4 (Batc  (None, 3792)             15168     
 hNormalization)                                                 
                                                                 
 re_lu_4 (ReLU)              (None, 3792)              0         
                                                                 
 dense_4 (Dense)             (None, 1264)              4794352   
                                                                 
=================================================================
Total params: 35,220,096
Trainable params: 35,192,288
Non-trainable params: 27,808
_________________________________________________________________
Encoder
Model: "model_1"
_________________________________________________________________
 Layer (type)                Output Shape              Param #   
=================================================================
 input_2 (InputLayer)        [(None, 1264)]            0         
                                                                 
 input_1 (InputLayer)        multiple                  0         
                                                                 
 dense (Dense)               (None, 3792)              4796880   
                                                                 
 batch_normalization (BatchN  (None, 3792)             15168     
 ormalization)                                                   
                                                                 
 re_lu (ReLU)                (None, 3792)              0         
                                                                 
 dense_1 (Dense)             (None, 2528)              9588704   
                                                                 
 batch_normalization_1 (Batc  (None, 2528)             10112     
 hNormalization)                                                 
                                                                 
 re_lu_1 (ReLU)              (None, 2528)              0         
                                                                 
 bottleneck (Dense)          (None, 1264)              3196656   
                                                                 
=================================================================
Total params: 17,607,520
Trainable params: 17,594,880
Non-trainable params: 12,640
_________________________________________________________________
Decoder
Model: "model_2"
_________________________________________________________________
 Layer (type)                Output Shape              Param #   
=================================================================
 input_3 (InputLayer)        [(None, 1264)]            0         
                                                                 
 batch_normalization_2 (Batc  (None, 1264)             5056      
 hNormalization)                                                 
                                                                 
 re_lu_2 (ReLU)              (None, 1264)              0         
                                                                 
 dense_2 (Dense)             (None, 2528)              3197920   
                                                                 
 batch_normalization_3 (Batc  (None, 2528)             10112     
 hNormalization)                                                 
                                                                 
 re_lu_3 (ReLU)              (None, 2528)              0         
                                                                 
 dense_3 (Dense)             (None, 3792)              9589968   
                                                                 
 batch_normalization_4 (Batc  (None, 3792)             15168     
 hNormalization)                                                 
                                                                 
 re_lu_4 (ReLU)              (None, 3792)              0         
                                                                 
 dense_4 (Dense)             (None, 1264)              4794352   
                                                                 
=================================================================
Total params: 17,612,576
Trainable params: 17,597,408
Non-trainable params: 15,168
_________________________________________________________________
Model: "model_3"
_________________________________________________________________
 Layer (type)                Output Shape              Param #   
=================================================================
 input_4 (InputLayer)        [(None, 1264)]            0         
                                                                 
 dense_5 (Dense)             (None, 3792)              4796880   
                                                                 
 batch_normalization_5 (Batc  (None, 3792)             15168     
 hNormalization)                                                 
                                                                 
 re_lu_5 (ReLU)              (None, 3792)              0         
                                                                 
 dense_6 (Dense)             (None, 2528)              9588704   
                                                                 
 batch_normalization_6 (Batc  (None, 2528)             10112     
 hNormalization)                                                 
                                                                 
 re_lu_6 (ReLU)              (None, 2528)              0         
                                                                 
 bottleneck (Dense)          (None, 1200)              3034800   
                                                                 
 batch_normalization_7 (Batc  (None, 1200)             4800      
 hNormalization)                                                 
                                                                 
 re_lu_7 (ReLU)              (None, 1200)              0         
                                                                 
 dense_7 (Dense)             (None, 2528)              3036128   
                                                                 
 batch_normalization_8 (Batc  (None, 2528)             10112     
 hNormalization)                                                 
                                                                 
 re_lu_8 (ReLU)              (None, 2528)              0         
                                                                 
 dense_8 (Dense)             (None, 3792)              9589968   
                                                                 
 batch_normalization_9 (Batc  (None, 3792)             15168     
 hNormalization)                                                 
                                                                 
 re_lu_9 (ReLU)              (None, 3792)              0         
                                                                 
 dense_9 (Dense)             (None, 1264)              4794352   
                                                                 
=================================================================
Total params: 34,896,192
Trainable params: 34,868,512
Non-trainable params: 27,680
_________________________________________________________________
Epoch 1/400
5969/5969 - 32s - loss: 0.0094 - val_loss: 0.0086 - 32s/epoch - 5ms/step
Epoch 2/400
5969/5969 - 31s - loss: 0.0040 - val_loss: 0.0029 - 31s/epoch - 5ms/step
…
332/332 [==============================] - 1s 1ms/step
correlation 0.03731417643988997
cosine 0.03726525457861613
MAE: 0.06472578
RMSE: 0.7422695
r2: -34.74285538779301
RMSE zero-vector: 0.23411466903540806
Full AutoEncoder
Model: "model_3"
_________________________________________________________________
 Layer (type)                Output Shape              Param #   
=================================================================
 input_4 (InputLayer)        multiple                  0         
                                                                 
 dense_5 (Dense)             (None, 3792)              4796880   
                                                                 
 batch_normalization_5 (Batc  (None, 3792)             15168     
 hNormalization)                                                 
                                                                 
 re_lu_5 (ReLU)              (None, 3792)              0         
                                                                 
 dense_6 (Dense)             (None, 2528)              9588704   
                                                                 
 batch_normalization_6 (Batc  (None, 2528)             10112     
 hNormalization)                                                 
                                                                 
 re_lu_6 (ReLU)              (None, 2528)              0         
                                                                 
 bottleneck (Dense)          (None, 1200)              3034800   
                                                                 
 batch_normalization_7 (Batc  (None, 1200)             4800      
 hNormalization)                                                 
                                                                 
 re_lu_7 (ReLU)              (None, 1200)              0         
                                                                 
 dense_7 (Dense)             (None, 2528)              3036128   
                                                                 
 batch_normalization_8 (Batc  (None, 2528)             10112     
 hNormalization)                                                 
                                                                 
 re_lu_8 (ReLU)              (None, 2528)              0         
                                                                 
 dense_8 (Dense)             (None, 3792)              9589968   
                                                                 
 batch_normalization_9 (Batc  (None, 3792)             15168     
 hNormalization)                                                 
                                                                 
 re_lu_9 (ReLU)              (None, 3792)              0         
                                                                 
 dense_9 (Dense)             (None, 1264)              4794352   
                                                                 
=================================================================
Total params: 34,896,192
Trainable params: 34,868,512
Non-trainable params: 27,680
_________________________________________________________________
Encoder
Model: "model_4"
_________________________________________________________________
 Layer (type)                Output Shape              Param #   
=================================================================
 input_5 (InputLayer)        [(None, 1264)]            0         
                                                                 
 input_4 (InputLayer)        multiple                  0         
                                                                 
 dense_5 (Dense)             (None, 3792)              4796880   
                                                                 
 batch_normalization_5 (Batc  (None, 3792)             15168     
 hNormalization)                                                 
                                                                 
 re_lu_5 (ReLU)              (None, 3792)              0         
                                                                 
 dense_6 (Dense)             (None, 2528)              9588704   
                                                                 
 batch_normalization_6 (Batc  (None, 2528)             10112     
 hNormalization)                                                 
                                                                 
 re_lu_6 (ReLU)              (None, 2528)              0         
                                                                 
 bottleneck (Dense)          (None, 1200)              3034800   
                                                                 
=================================================================
Total params: 17,445,664
Trainable params: 17,433,024
Non-trainable params: 12,640
_________________________________________________________________
Decoder
Model: "model_5"
_________________________________________________________________
 Layer (type)                Output Shape              Param #   
=================================================================
 input_6 (InputLayer)        [(None, 1200)]            0         
                                                                 
 batch_normalization_7 (Batc  (None, 1200)             4800      
 hNormalization)                                                 
                                                                 
 re_lu_7 (ReLU)              (None, 1200)              0         
                                                                 
 dense_7 (Dense)             (None, 2528)              3036128   
                                                                 
 batch_normalization_8 (Batc  (None, 2528)             10112     
 hNormalization)                                                 
                                                                 
 re_lu_8 (ReLU)              (None, 2528)              0         
                                                                 
 dense_8 (Dense)             (None, 3792)              9589968   
                                                                 
 batch_normalization_9 (Batc  (None, 3792)             15168     
 hNormalization)                                                 
                                                                 
 re_lu_9 (ReLU)              (None, 3792)              0         
                                                                 
 dense_9 (Dense)             (None, 1264)              4794352   
                                                                 
=================================================================
Total params: 17,450,528
Trainable params: 17,435,488
Non-trainable params: 15,040
_________________________________________________________________
Model: "model_6"
_________________________________________________________________
 Layer (type)                Output Shape              Param #   
=================================================================
 input_7 (InputLayer)        [(None, 1264)]            0         
                                                                 
 dense_10 (Dense)            (None, 3792)              4796880   
                                                                 
 batch_normalization_10 (Bat  (None, 3792)             15168     
 chNormalization)                                                
                                                                 
 re_lu_10 (ReLU)             (None, 3792)              0         
                                                                 
 dense_11 (Dense)            (None, 2528)              9588704   
                                                                 
 batch_normalization_11 (Bat  (None, 2528)             10112     
 chNormalization)                                                
                                                                 
 re_lu_11 (ReLU)             (None, 2528)              0         
                                                                 
 bottleneck (Dense)          (None, 1137)              2875473   
                                                                 
 batch_normalization_12 (Bat  (None, 1137)             4548      
 chNormalization)                                                
                                                                 
 re_lu_12 (ReLU)             (None, 1137)              0         
                                                                 
 dense_12 (Dense)            (None, 2528)              2876864   
                                                                 
 batch_normalization_13 (Bat  (None, 2528)             10112     
 chNormalization)                                                
                                                                 
 re_lu_13 (ReLU)             (None, 2528)              0         
                                                                 
 dense_13 (Dense)            (None, 3792)              9589968   
                                                                 
 batch_normalization_14 (Bat  (None, 3792)             15168     
 chNormalization)                                                
                                                                 
 re_lu_14 (ReLU)             (None, 3792)              0         
                                                                 
 dense_14 (Dense)            (None, 1264)              4794352   
                                                                 
=================================================================
Total params: 34,577,349
Trainable params: 34,549,795
Non-trainable params: 27,554
_________________________________________________________________
Epoch 1/400
5969/5969 - 33s - loss: 0.0096 - val_loss: 0.0039 - 33s/epoch - 5ms/step
Epoch 2/400
5969/5969 - 31s - loss: 0.0056 - val_loss: 0.0036 - 31s/epoch - 5ms/step
…
332/332 [==============================] - 1s 1ms/step
correlation 0.04904626227934737
cosine 0.04692983157625418
MAE: 0.33279482
RMSE: 3.5509577
r2: -816.9832704877905
RMSE zero-vector: 0.23411466903540806
Full AutoEncoder
Model: "model_6"
_________________________________________________________________
 Layer (type)                Output Shape              Param #   
=================================================================
 input_7 (InputLayer)        multiple                  0         
                                                                 
 dense_10 (Dense)            (None, 3792)              4796880   
                                                                 
 batch_normalization_10 (Bat  (None, 3792)             15168     
 chNormalization)                                                
                                                                 
 re_lu_10 (ReLU)             (None, 3792)              0         
                                                                 
 dense_11 (Dense)            (None, 2528)              9588704   
                                                                 
 batch_normalization_11 (Bat  (None, 2528)             10112     
 chNormalization)                                                
                                                                 
 re_lu_11 (ReLU)             (None, 2528)              0         
                                                                 
 bottleneck (Dense)          (None, 1137)              2875473   
                                                                 
 batch_normalization_12 (Bat  (None, 1137)             4548      
 chNormalization)                                                
                                                                 
 re_lu_12 (ReLU)             (None, 1137)              0         
                                                                 
 dense_12 (Dense)            (None, 2528)              2876864   
                                                                 
 batch_normalization_13 (Bat  (None, 2528)             10112     
 chNormalization)                                                
                                                                 
 re_lu_13 (ReLU)             (None, 2528)              0         
                                                                 
 dense_13 (Dense)            (None, 3792)              9589968   
                                                                 
 batch_normalization_14 (Bat  (None, 3792)             15168     
 chNormalization)                                                
                                                                 
 re_lu_14 (ReLU)             (None, 3792)              0         
                                                                 
 dense_14 (Dense)            (None, 1264)              4794352   
                                                                 
=================================================================
Total params: 34,577,349
Trainable params: 34,549,795
Non-trainable params: 27,554
_________________________________________________________________
Encoder
Model: "model_7"
_________________________________________________________________
 Layer (type)                Output Shape              Param #   
=================================================================
 input_8 (InputLayer)        [(None, 1264)]            0         
                                                                 
 input_7 (InputLayer)        multiple                  0         
                                                                 
 dense_10 (Dense)            (None, 3792)              4796880   
                                                                 
 batch_normalization_10 (Bat  (None, 3792)             15168     
 chNormalization)                                                
                                                                 
 re_lu_10 (ReLU)             (None, 3792)              0         
                                                                 
 dense_11 (Dense)            (None, 2528)              9588704   
                                                                 
 batch_normalization_11 (Bat  (None, 2528)             10112     
 chNormalization)                                                
                                                                 
 re_lu_11 (ReLU)             (None, 2528)              0         
                                                                 
 bottleneck (Dense)          (None, 1137)              2875473   
                                                                 
=================================================================
Total params: 17,286,337
Trainable params: 17,273,697
Non-trainable params: 12,640
_________________________________________________________________
Decoder
Model: "model_8"
_________________________________________________________________
 Layer (type)                Output Shape              Param #   
=================================================================
 input_9 (InputLayer)        [(None, 1137)]            0         
                                                                 
 batch_normalization_12 (Bat  (None, 1137)             4548      
 chNormalization)                                                
                                                                 
 re_lu_12 (ReLU)             (None, 1137)              0         
                                                                 
 dense_12 (Dense)            (None, 2528)              2876864   
                                                                 
 batch_normalization_13 (Bat  (None, 2528)             10112     
 chNormalization)                                                
                                                                 
 re_lu_13 (ReLU)             (None, 2528)              0         
                                                                 
 dense_13 (Dense)            (None, 3792)              9589968   
                                                                 
 batch_normalization_14 (Bat  (None, 3792)             15168     
 chNormalization)                                                
                                                                 
 re_lu_14 (ReLU)             (None, 3792)              0         
                                                                 
 dense_14 (Dense)            (None, 1264)              4794352   
                                                                 
=================================================================
Total params: 17,291,012
Trainable params: 17,276,098
Non-trainable params: 14,914
_________________________________________________________________
Model: "model_9"
_________________________________________________________________
 Layer (type)                Output Shape              Param #   
=================================================================
 input_10 (InputLayer)       [(None, 1264)]            0         
                                                                 
 dense_15 (Dense)            (None, 3792)              4796880   
                                                                 
 batch_normalization_15 (Bat  (None, 3792)             15168     
 chNormalization)                                                
                                                                 
 re_lu_15 (ReLU)             (None, 3792)              0         
                                                                 
 dense_16 (Dense)            (None, 2528)              9588704   
                                                                 
 batch_normalization_16 (Bat  (None, 2528)             10112     
 chNormalization)                                                
                                                                 
 re_lu_16 (ReLU)             (None, 2528)              0         
                                                                 
 bottleneck (Dense)          (None, 1074)              2716146   
                                                                 
 batch_normalization_17 (Bat  (None, 1074)             4296      
 chNormalization)                                                
                                                                 
 re_lu_17 (ReLU)             (None, 1074)              0         
                                                                 
 dense_17 (Dense)            (None, 2528)              2717600   
                                                                 
 batch_normalization_18 (Bat  (None, 2528)             10112     
 chNormalization)                                                
                                                                 
 re_lu_18 (ReLU)             (None, 2528)              0         
                                                                 
 dense_18 (Dense)            (None, 3792)              9589968   
                                                                 
 batch_normalization_19 (Bat  (None, 3792)             15168     
 chNormalization)                                                
                                                                 
 re_lu_19 (ReLU)             (None, 3792)              0         
                                                                 
 dense_19 (Dense)            (None, 1264)              4794352   
                                                                 
=================================================================
Total params: 34,258,506
Trainable params: 34,231,078
Non-trainable params: 27,428
_________________________________________________________________
Epoch 1/400
5969/5969 - 33s - loss: 0.0099 - val_loss: 0.0037 - 33s/epoch - 5ms/step
Epoch 2/400
5969/5969 - 31s - loss: 0.0042 - val_loss: 0.0032 - 31s/epoch - 5ms/step
…
32 [==============================] - 1s 1ms/step
correlation 0.021124110694397544
cosine 0.020025735401541074
MAE: 0.017149223
RMSE: 0.086419165
r2: 0.5155106391167775
RMSE zero-vector: 0.23411466903540806
Full AutoEncoder
Model: "model_9"
_________________________________________________________________
 Layer (type)                Output Shape              Param #   
=================================================================
 input_10 (InputLayer)       multiple                  0         
                                                                 
 dense_15 (Dense)            (None, 3792)              4796880   
                                                                 
 batch_normalization_15 (Bat  (None, 3792)             15168     
 chNormalization)                                                
                                                                 
 re_lu_15 (ReLU)             (None, 3792)              0         
                                                                 
 dense_16 (Dense)            (None, 2528)              9588704   
                                                                 
 batch_normalization_16 (Bat  (None, 2528)             10112     
 chNormalization)                                                
                                                                 
 re_lu_16 (ReLU)             (None, 2528)              0         
                                                                 
 bottleneck (Dense)          (None, 1074)              2716146   
                                                                 
 batch_normalization_17 (Bat  (None, 1074)             4296      
 chNormalization)                                                
                                                                 
 re_lu_17 (ReLU)             (None, 1074)              0         
                                                                 
 dense_17 (Dense)            (None, 2528)              2717600   
                                                                 
 batch_normalization_18 (Bat  (None, 2528)             10112     
 chNormalization)                                                
                                                                 
 re_lu_18 (ReLU)             (None, 2528)              0         
                                                                 
 dense_18 (Dense)            (None, 3792)              9589968   
                                                                 
 batch_normalization_19 (Bat  (None, 3792)             15168     
 chNormalization)                                                
                                                                 
 re_lu_19 (ReLU)             (None, 3792)              0         
                                                                 
 dense_19 (Dense)            (None, 1264)              4794352   
                                                                 
=================================================================
Total params: 34,258,506
Trainable params: 34,231,078
Non-trainable params: 27,428
_________________________________________________________________
Encoder
Model: "model_10"
_________________________________________________________________
 Layer (type)                Output Shape              Param #   
=================================================================
 input_11 (InputLayer)       [(None, 1264)]            0         
                                                                 
 input_10 (InputLayer)       multiple                  0         
                                                                 
 dense_15 (Dense)            (None, 3792)              4796880   
                                                                 
 batch_normalization_15 (Bat  (None, 3792)             15168     
 chNormalization)                                                
                                                                 
 re_lu_15 (ReLU)             (None, 3792)              0         
                                                                 
 dense_16 (Dense)            (None, 2528)              9588704   
                                                                 
 batch_normalization_16 (Bat  (None, 2528)             10112     
 chNormalization)                                                
                                                                 
 re_lu_16 (ReLU)             (None, 2528)              0         
                                                                 
 bottleneck (Dense)          (None, 1074)              2716146   
                                                                 
=================================================================
Total params: 17,127,010
Trainable params: 17,114,370
Non-trainable params: 12,640
_________________________________________________________________
Decoder
Model: "model_11"
_________________________________________________________________
 Layer (type)                Output Shape              Param #   
=================================================================
 input_12 (InputLayer)       [(None, 1074)]            0         
                                                                 
 batch_normalization_17 (Bat  (None, 1074)             4296      
 chNormalization)                                                
                                                                 
 re_lu_17 (ReLU)             (None, 1074)              0         
                                                                 
 dense_17 (Dense)            (None, 2528)              2717600   
                                                                 
 batch_normalization_18 (Bat  (None, 2528)             10112     
 chNormalization)                                                
                                                                 
 re_lu_18 (ReLU)             (None, 2528)              0         
                                                                 
 dense_18 (Dense)            (None, 3792)              9589968   
                                                                 
 batch_normalization_19 (Bat  (None, 3792)             15168     
 chNormalization)                                                
                                                                 
 re_lu_19 (ReLU)             (None, 3792)              0         
                                                                 
 dense_19 (Dense)            (None, 1264)              4794352   
                                                                 
=================================================================
Total params: 17,131,496
Trainable params: 17,116,708
Non-trainable params: 14,788
_________________________________________________________________
Model: "model_12"
_________________________________________________________________
 Layer (type)                Output Shape              Param #   
=================================================================
 input_13 (InputLayer)       [(None, 1264)]            0         
                                                                 
 dense_20 (Dense)            (None, 3792)              4796880   
                                                                 
 batch_normalization_20 (Bat  (None, 3792)             15168     
 chNormalization)                                                
                                                                 
 re_lu_20 (ReLU)             (None, 3792)              0         
                                                                 
 dense_21 (Dense)            (None, 2528)              9588704   
                                                                 
 batch_normalization_21 (Bat  (None, 2528)             10112     
 chNormalization)                                                
                                                                 
 re_lu_21 (ReLU)             (None, 2528)              0         
                                                                 
 bottleneck (Dense)          (None, 1011)              2556819   
                                                                 
 batch_normalization_22 (Bat  (None, 1011)             4044      
 chNormalization)                                                
                                                                 
 re_lu_22 (ReLU)             (None, 1011)              0         
                                                                 
 dense_22 (Dense)            (None, 2528)              2558336   
                                                                 
 batch_normalization_23 (Bat  (None, 2528)             10112     
 chNormalization)                                                
                                                                 
 re_lu_23 (ReLU)             (None, 2528)              0         
                                                                 
 dense_23 (Dense)            (None, 3792)              9589968   
                                                                 
 batch_normalization_24 (Bat  (None, 3792)             15168     
 chNormalization)                                                
                                                                 
 re_lu_24 (ReLU)             (None, 3792)              0         
                                                                 
 dense_24 (Dense)            (None, 1264)              4794352   
                                                                 
=================================================================
Total params: 33,939,663
Trainable params: 33,912,361
Non-trainable params: 27,302
_________________________________________________________________
Epoch 1/400
5969/5969 - 33s - loss: 0.0098 - val_loss: 0.0040 - 33s/epoch - 6ms/step
Epoch 2/400
5969/5969 - 31s - loss: 0.0042 - val_loss: 0.0029 - 31s/epoch - 5ms/step
…
332 [==============================] - 1s 1ms/step
correlation 0.026222735170254533
cosine 0.02363837678837002
MAE: 0.019590033
RMSE: 0.10231966
r2: 0.3209642781672911
RMSE zero-vector: 0.23411466903540806
Full AutoEncoder
Model: "model_12"
_________________________________________________________________
 Layer (type)                Output Shape              Param #   
=================================================================
 input_13 (InputLayer)       multiple                  0         
                                                                 
 dense_20 (Dense)            (None, 3792)              4796880   
                                                                 
 batch_normalization_20 (Bat  (None, 3792)             15168     
 chNormalization)                                                
                                                                 
 re_lu_20 (ReLU)             (None, 3792)              0         
                                                                 
 dense_21 (Dense)            (None, 2528)              9588704   
                                                                 
 batch_normalization_21 (Bat  (None, 2528)             10112     
 chNormalization)                                                
                                                                 
 re_lu_21 (ReLU)             (None, 2528)              0         
                                                                 
 bottleneck (Dense)          (None, 1011)              2556819   
                                                                 
 batch_normalization_22 (Bat  (None, 1011)             4044      
 chNormalization)                                                
                                                                 
 re_lu_22 (ReLU)             (None, 1011)              0         
                                                                 
 dense_22 (Dense)            (None, 2528)              2558336   
                                                                 
 batch_normalization_23 (Bat  (None, 2528)             10112     
 chNormalization)                                                
                                                                 
 re_lu_23 (ReLU)             (None, 2528)              0         
                                                                 
 dense_23 (Dense)            (None, 3792)              9589968   
                                                                 
 batch_normalization_24 (Bat  (None, 3792)             15168     
 chNormalization)                                                
                                                                 
 re_lu_24 (ReLU)             (None, 3792)              0         
                                                                 
 dense_24 (Dense)            (None, 1264)              4794352   
                                                                 
=================================================================
Total params: 33,939,663
Trainable params: 33,912,361
Non-trainable params: 27,302
_________________________________________________________________
Encoder
Model: "model_13"
_________________________________________________________________
 Layer (type)                Output Shape              Param #   
=================================================================
 input_14 (InputLayer)       [(None, 1264)]            0         
                                                                 
 input_13 (InputLayer)       multiple                  0         
                                                                 
 dense_20 (Dense)            (None, 3792)              4796880   
                                                                 
 batch_normalization_20 (Bat  (None, 3792)             15168     
 chNormalization)                                                
                                                                 
 re_lu_20 (ReLU)             (None, 3792)              0         
                                                                 
 dense_21 (Dense)            (None, 2528)              9588704   
                                                                 
 batch_normalization_21 (Bat  (None, 2528)             10112     
 chNormalization)                                                
                                                                 
 re_lu_21 (ReLU)             (None, 2528)              0         
                                                                 
 bottleneck (Dense)          (None, 1011)              2556819   
                                                                 
=================================================================
Total params: 16,967,683
Trainable params: 16,955,043
Non-trainable params: 12,640
_________________________________________________________________
Decoder
Model: "model_14"
_________________________________________________________________
 Layer (type)                Output Shape              Param #   
=================================================================
 input_15 (InputLayer)       [(None, 1011)]            0         
                                                                 
 batch_normalization_22 (Bat  (None, 1011)             4044      
 chNormalization)                                                
                                                                 
 re_lu_22 (ReLU)             (None, 1011)              0         
                                                                 
 dense_22 (Dense)            (None, 2528)              2558336   
                                                                 
 batch_normalization_23 (Bat  (None, 2528)             10112     
 chNormalization)                                                
                                                                 
 re_lu_23 (ReLU)             (None, 2528)              0         
                                                                 
 dense_23 (Dense)            (None, 3792)              9589968   
                                                                 
 batch_normalization_24 (Bat  (None, 3792)             15168     
 chNormalization)                                                
                                                                 
 re_lu_24 (ReLU)             (None, 3792)              0         
                                                                 
 dense_24 (Dense)            (None, 1264)              4794352   
                                                                 
=================================================================
Total params: 16,971,980
Trainable params: 16,957,318
Non-trainable params: 14,662
_________________________________________________________________
Model: "model_15"
_________________________________________________________________
 Layer (type)                Output Shape              Param #   
=================================================================
 input_16 (InputLayer)       [(None, 1264)]            0         
                                                                 
 dense_25 (Dense)            (None, 3792)              4796880   
                                                                 
 batch_normalization_25 (Bat  (None, 3792)             15168     
 chNormalization)                                                
                                                                 
 re_lu_25 (ReLU)             (None, 3792)              0         
                                                                 
 dense_26 (Dense)            (None, 2528)              9588704   
                                                                 
 batch_normalization_26 (Bat  (None, 2528)             10112     
 chNormalization)                                                
                                                                 
 re_lu_26 (ReLU)             (None, 2528)              0         
                                                                 
 bottleneck (Dense)          (None, 947)               2394963   
                                                                 
 batch_normalization_27 (Bat  (None, 947)              3788      
 chNormalization)                                                
                                                                 
 re_lu_27 (ReLU)             (None, 947)               0         
                                                                 
 dense_27 (Dense)            (None, 2528)              2396544   
                                                                 
 batch_normalization_28 (Bat  (None, 2528)             10112     
 chNormalization)                                                
                                                                 
 re_lu_28 (ReLU)             (None, 2528)              0         
                                                                 
 dense_28 (Dense)            (None, 3792)              9589968   
                                                                 
 batch_normalization_29 (Bat  (None, 3792)             15168     
 chNormalization)                                                
                                                                 
 re_lu_29 (ReLU)             (None, 3792)              0         
                                                                 
 dense_29 (Dense)            (None, 1264)              4794352   
                                                                 
=================================================================
Total params: 33,615,759
Trainable params: 33,588,585
Non-trainable params: 27,174
_________________________________________________________________
Epoch 1/400
5969/5969 - 33s - loss: 0.0097 - val_loss: 0.0037 - 33s/epoch - 5ms/step
Epoch 2/400
5969/5969 - 31s - loss: 0.0036 - val_loss: 0.0027 - 31s/epoch - 5ms/step
…
/332 [==============================] - 1s 1ms/step
correlation 0.05603145389831412
cosine 0.05027112627416516
MAE: 0.087993264
RMSE: 0.5683285
r2: -19.952270762205984
RMSE zero-vector: 0.23411466903540806
Full AutoEncoder
Model: "model_15"
_________________________________________________________________
 Layer (type)                Output Shape              Param #   
=================================================================
 input_16 (InputLayer)       multiple                  0         
                                                                 
 dense_25 (Dense)            (None, 3792)              4796880   
                                                                 
 batch_normalization_25 (Bat  (None, 3792)             15168     
 chNormalization)                                                
                                                                 
 re_lu_25 (ReLU)             (None, 3792)              0         
                                                                 
 dense_26 (Dense)            (None, 2528)              9588704   
                                                                 
 batch_normalization_26 (Bat  (None, 2528)             10112     
 chNormalization)                                                
                                                                 
 re_lu_26 (ReLU)             (None, 2528)              0         
                                                                 
 bottleneck (Dense)          (None, 947)               2394963   
                                                                 
 batch_normalization_27 (Bat  (None, 947)              3788      
 chNormalization)                                                
                                                                 
 re_lu_27 (ReLU)             (None, 947)               0         
                                                                 
 dense_27 (Dense)            (None, 2528)              2396544   
                                                                 
 batch_normalization_28 (Bat  (None, 2528)             10112     
 chNormalization)                                                
                                                                 
 re_lu_28 (ReLU)             (None, 2528)              0         
                                                                 
 dense_28 (Dense)            (None, 3792)              9589968   
                                                                 
 batch_normalization_29 (Bat  (None, 3792)             15168     
 chNormalization)                                                
                                                                 
 re_lu_29 (ReLU)             (None, 3792)              0         
                                                                 
 dense_29 (Dense)            (None, 1264)              4794352   
                                                                 
=================================================================
Total params: 33,615,759
Trainable params: 33,588,585
Non-trainable params: 27,174
_________________________________________________________________
Encoder
Model: "model_16"
_________________________________________________________________
 Layer (type)                Output Shape              Param #   
=================================================================
 input_17 (InputLayer)       [(None, 1264)]            0         
                                                                 
 input_16 (InputLayer)       multiple                  0         
                                                                 
 dense_25 (Dense)            (None, 3792)              4796880   
                                                                 
 batch_normalization_25 (Bat  (None, 3792)             15168     
 chNormalization)                                                
                                                                 
 re_lu_25 (ReLU)             (None, 3792)              0         
                                                                 
 dense_26 (Dense)            (None, 2528)              9588704   
                                                                 
 batch_normalization_26 (Bat  (None, 2528)             10112     
 chNormalization)                                                
                                                                 
 re_lu_26 (ReLU)             (None, 2528)              0         
                                                                 
 bottleneck (Dense)          (None, 947)               2394963   
                                                                 
=================================================================
Total params: 16,805,827
Trainable params: 16,793,187
Non-trainable params: 12,640
_________________________________________________________________
Decoder
Model: "model_17"
_________________________________________________________________
 Layer (type)                Output Shape              Param #   
=================================================================
 input_18 (InputLayer)       [(None, 947)]             0         
                                                                 
 batch_normalization_27 (Bat  (None, 947)              3788      
 chNormalization)                                                
                                                                 
 re_lu_27 (ReLU)             (None, 947)               0         
                                                                 
 dense_27 (Dense)            (None, 2528)              2396544   
                                                                 
 batch_normalization_28 (Bat  (None, 2528)             10112     
 chNormalization)                                                
                                                                 
 re_lu_28 (ReLU)             (None, 2528)              0         
                                                                 
 dense_28 (Dense)            (None, 3792)              9589968   
                                                                 
 batch_normalization_29 (Bat  (None, 3792)             15168     
 chNormalization)                                                
                                                                 
 re_lu_29 (ReLU)             (None, 3792)              0         
                                                                 
 dense_29 (Dense)            (None, 1264)              4794352   
                                                                 
=================================================================
Total params: 16,809,932
Trainable params: 16,795,398
Non-trainable params: 14,534
_________________________________________________________________
Model: "model_18"
_________________________________________________________________
 Layer (type)                Output Shape              Param #   
=================================================================
 input_19 (InputLayer)       [(None, 1264)]            0         
                                                                 
 dense_30 (Dense)            (None, 3792)              4796880   
                                                                 
 batch_normalization_30 (Bat  (None, 3792)             15168     
 chNormalization)                                                
                                                                 
 re_lu_30 (ReLU)             (None, 3792)              0         
                                                                 
 dense_31 (Dense)            (None, 2528)              9588704   
                                                                 
 batch_normalization_31 (Bat  (None, 2528)             10112     
 chNormalization)                                                
                                                                 
 re_lu_31 (ReLU)             (None, 2528)              0         
                                                                 
 bottleneck (Dense)          (None, 884)               2235636   
                                                                 
 batch_normalization_32 (Bat  (None, 884)              3536      
 chNormalization)                                                
                                                                 
 re_lu_32 (ReLU)             (None, 884)               0         
                                                                 
 dense_32 (Dense)            (None, 2528)              2237280   
                                                                 
 batch_normalization_33 (Bat  (None, 2528)             10112     
 chNormalization)                                                
                                                                 
 re_lu_33 (ReLU)             (None, 2528)              0         
                                                                 
 dense_33 (Dense)            (None, 3792)              9589968   
                                                                 
 batch_normalization_34 (Bat  (None, 3792)             15168     
 chNormalization)                                                
                                                                 
 re_lu_34 (ReLU)             (None, 3792)              0         
                                                                 
 dense_34 (Dense)            (None, 1264)              4794352   
                                                                 
=================================================================
Total params: 33,296,916
Trainable params: 33,269,868
Non-trainable params: 27,048
_________________________________________________________________
2022-12-20 21:57:32.098227: W tensorflow/core/common_runtime/bfc_allocator.cc:479] Allocator (GPU_0_bfc) ran out of memory trying to allocate 460.48MiB (rounded to 482853120)requested by op _EagerConst
…
