…
2022-12-27 01:25:42.265668: I tensorflow/core/platform/cpu_feature_guard.cc:193] This TensorFlow binary is optimized with oneAPI Deep Neural Network Library (oneDNN) to use the following CPU instructions in performance-critical operations:  SSE4.1 SSE4.2 AVX AVX2 AVX512F AVX512_VNNI FMA
To enable them in other operations, rebuild TensorFlow with the appropriate compiler flags.
Model: "model"
_________________________________________________________________
 Layer (type)                Output Shape              Param #   
=================================================================
 input_1 (InputLayer)        [(None, 1264)]            0         
                                                                 
 dense (Dense)               (None, 2528)              3197920   
                                                                 
 reshape (Reshape)           (None, 2528, 1)           0         
                                                                 
 conv1d (Conv1D)             (None, 1265, 1)           1265      
                                                                 
 batch_normalization (BatchN  (None, 1265, 1)          4         
 ormalization)                                                   
                                                                 
 re_lu (ReLU)                (None, 1265, 1)           0         
                                                                 
 flatten (Flatten)           (None, 1265)              0         
                                                                 
 bottleneck (Dense)          (None, 632)               800112    
                                                                 
 reshape_1 (Reshape)         (None, 632, 1)            0         
                                                                 
 conv1d_transpose (Conv1DTra  (None, 1895, 1)          1265      
 nspose)                                                         
                                                                 
 batch_normalization_1 (Batc  (None, 1895, 1)          4         
 hNormalization)                                                 
                                                                 
 re_lu_1 (ReLU)              (None, 1895, 1)           0         
                                                                 
 flatten_1 (Flatten)         (None, 1895)              0         
                                                                 
 dense_1 (Dense)             (None, 2528)              4793088   
                                                                 
 batch_normalization_2 (Batc  (None, 2528)             10112     
 hNormalization)                                                 
                                                                 
 re_lu_2 (ReLU)              (None, 2528)              0         
                                                                 
 dense_2 (Dense)             (None, 1264)              3196656   
                                                                 
=================================================================
Total params: 12,000,426
Trainable params: 11,995,366
Non-trainable params: 5,060
_________________________________________________________________
Epoch 1/100
5969/5969 - 777s - loss: 0.0100 - val_loss: 0.0070 - 777s/epoch - 130ms/step
Epoch 2/100
5969/5969 - 774s - loss: 0.0043 - val_loss: 0.0044 - 774s/epoch - 130ms/step
…
32 [==============================] - 22s 65ms/step
correlation 0.006200353435601911
cosine 0.0051127333675651246
MAE: 0.011937979
RMSE: 0.02531922
r2: 0.9584128665808794
RMSE zero-vector: 0.23411466903540806
Full AutoEncoder
Model: "model"
_________________________________________________________________
 Layer (type)                Output Shape              Param #   
=================================================================
 input_1 (InputLayer)        multiple                  0         
                                                                 
 dense (Dense)               (None, 2528)              3197920   
                                                                 
 reshape (Reshape)           (None, 2528, 1)           0         
                                                                 
 conv1d (Conv1D)             (None, 1265, 1)           1265      
                                                                 
 batch_normalization (BatchN  (None, 1265, 1)          4         
 ormalization)                                                   
                                                                 
 re_lu (ReLU)                (None, 1265, 1)           0         
                                                                 
 flatten (Flatten)           (None, 1265)              0         
                                                                 
 bottleneck (Dense)          (None, 632)               800112    
                                                                 
 reshape_1 (Reshape)         (None, 632, 1)            0         
                                                                 
 conv1d_transpose (Conv1DTra  (None, 1895, 1)          1265      
 nspose)                                                         
                                                                 
 batch_normalization_1 (Batc  (None, 1895, 1)          4         
 hNormalization)                                                 
                                                                 
 re_lu_1 (ReLU)              (None, 1895, 1)           0         
                                                                 
 flatten_1 (Flatten)         (None, 1895)              0         
                                                                 
 dense_1 (Dense)             (None, 2528)              4793088   
                                                                 
 batch_normalization_2 (Batc  (None, 2528)             10112     
 hNormalization)                                                 
                                                                 
 re_lu_2 (ReLU)              (None, 2528)              0         
                                                                 
 dense_2 (Dense)             (None, 1264)              3196656   
                                                                 
=================================================================
Total params: 12,000,426
Trainable params: 11,995,366
Non-trainable params: 5,060
_________________________________________________________________
Encoder
Model: "model_1"
_________________________________________________________________
 Layer (type)                Output Shape              Param #   
=================================================================
 input_2 (InputLayer)        [(None, 1264)]            0         
                                                                 
 input_1 (InputLayer)        multiple                  0         
                                                                 
 dense (Dense)               (None, 2528)              3197920   
                                                                 
 reshape (Reshape)           (None, 2528, 1)           0         
                                                                 
 conv1d (Conv1D)             (None, 1265, 1)           1265      
                                                                 
 batch_normalization (BatchN  (None, 1265, 1)          4         
 ormalization)                                                   
                                                                 
 re_lu (ReLU)                (None, 1265, 1)           0         
                                                                 
 flatten (Flatten)           (None, 1265)              0         
                                                                 
 bottleneck (Dense)          (None, 632)               800112    
                                                                 
=================================================================
Total params: 3,999,301
Trainable params: 3,999,299
Non-trainable params: 2
_________________________________________________________________
Decoder
Model: "model_2"
_________________________________________________________________
 Layer (type)                Output Shape              Param #   
=================================================================
 input_3 (InputLayer)        [(None, 632)]             0         
                                                                 
 reshape_1 (Reshape)         (None, 632, 1)            0         
                                                                 
 conv1d_transpose (Conv1DTra  (None, 1895, 1)          1265      
 nspose)                                                         
                                                                 
 batch_normalization_1 (Batc  (None, 1895, 1)          4         
 hNormalization)                                                 
                                                                 
 re_lu_1 (ReLU)              (None, 1895, 1)           0         
                                                                 
 flatten_1 (Flatten)         (None, 1895)              0         
                                                                 
 dense_1 (Dense)             (None, 2528)              4793088   
                                                                 
 batch_normalization_2 (Batc  (None, 2528)             10112     
 hNormalization)                                                 
                                                                 
 re_lu_2 (ReLU)              (None, 2528)              0         
                                                                 
 dense_2 (Dense)             (None, 1264)              3196656   
                                                                 
=================================================================
Total params: 8,001,125
Trainable params: 7,996,067
Non-trainable params: 5,058
_________________________________________________________________
['2n_conv2_b', 'mse', 16, 100, 0.0005, 0.5, 632, 0.0004670970083680004, 0.0006410642527043819, 0.006200353435601911, 0
…
