…
2022-12-28 01:22:19.925800: I tensorflow/core/platform/cpu_feature_guard.cc:193] This TensorFlow binary is optimized with oneAPI Deep Neural Network Library (oneDNN) to use the following CPU instructions in performance-critical operations:  SSE4.1 SSE4.2 AVX AVX2 AVX512F AVX512_VNNI FMA
To enable them in other operations, rebuild TensorFlow with the appropriate compiler flags.
Model: "model"
_________________________________________________________________
 Layer (type)                Output Shape              Param #   
=================================================================
 input_1 (InputLayer)        [(None, 1264)]            0         
                                                                 
 dense (Dense)               (None, 1896)              2398440   
                                                                 
 batch_normalization (BatchN  (None, 1896)             7584      
 ormalization)                                                   
                                                                 
 re_lu (ReLU)                (None, 1896)              0         
                                                                 
 bottleneck (Dense)          (None, 252)               478044    
                                                                 
 batch_normalization_1 (Batc  (None, 252)              1008      
 hNormalization)                                                 
                                                                 
 re_lu_1 (ReLU)              (None, 252)               0         
                                                                 
 dense_1 (Dense)             (None, 1896)              479688    
                                                                 
 batch_normalization_2 (Batc  (None, 1896)             7584      
 hNormalization)                                                 
                                                                 
 re_lu_2 (ReLU)              (None, 1896)              0         
                                                                 
 dense_2 (Dense)             (None, 1264)              2397808   
                                                                 
=================================================================
Total params: 5,770,156
Trainable params: 5,762,068
Non-trainable params: 8,088
_________________________________________________________________
Epoch 1/200
1493/1493 - 51s - loss: 0.0100 - val_loss: 0.0053 - 51s/epoch - 34ms/step
Epoch 2/200
1493/1493 - 50s - loss: 0.0036 - val_loss: 0.0029 - 50s/epoch - 33ms/step
…
32 [==============================] - 2s 5ms/step
correlation 0.0024594713551477805
cosine 0.0019404829121336953
MAE: 0.007963079
RMSE: 0.014605403
r2: 0.9861619153568315
RMSE zero-vector: 0.23411466903540806
Full AutoEncoder
Model: "model"
_________________________________________________________________
 Layer (type)                Output Shape              Param #   
=================================================================
 input_1 (InputLayer)        multiple                  0         
                                                                 
 dense (Dense)               (None, 1896)              2398440   
                                                                 
 batch_normalization (BatchN  (None, 1896)             7584      
 ormalization)                                                   
                                                                 
 re_lu (ReLU)                (None, 1896)              0         
                                                                 
 bottleneck (Dense)          (None, 252)               478044    
                                                                 
 batch_normalization_1 (Batc  (None, 252)              1008      
 hNormalization)                                                 
                                                                 
 re_lu_1 (ReLU)              (None, 252)               0         
                                                                 
 dense_1 (Dense)             (None, 1896)              479688    
                                                                 
 batch_normalization_2 (Batc  (None, 1896)             7584      
 hNormalization)                                                 
                                                                 
 re_lu_2 (ReLU)              (None, 1896)              0         
                                                                 
 dense_2 (Dense)             (None, 1264)              2397808   
                                                                 
=================================================================
Total params: 5,770,156
Trainable params: 5,762,068
Non-trainable params: 8,088
_________________________________________________________________
Encoder
Model: "model_1"
_________________________________________________________________
 Layer (type)                Output Shape              Param #   
=================================================================
 input_2 (InputLayer)        [(None, 1264)]            0         
                                                                 
 input_1 (InputLayer)        multiple                  0         
                                                                 
 dense (Dense)               (None, 1896)              2398440   
                                                                 
 batch_normalization (BatchN  (None, 1896)             7584      
 ormalization)                                                   
                                                                 
 re_lu (ReLU)                (None, 1896)              0         
                                                                 
 bottleneck (Dense)          (None, 252)               478044    
                                                                 
=================================================================
Total params: 2,884,068
Trainable params: 2,880,276
Non-trainable params: 3,792
_________________________________________________________________
Decoder
Model: "model_2"
_________________________________________________________________
 Layer (type)                Output Shape              Param #   
=================================================================
 input_3 (InputLayer)        [(None, 252)]             0         
                                                                 
 batch_normalization_1 (Batc  (None, 252)              1008      
 hNormalization)                                                 
                                                                 
 re_lu_1 (ReLU)              (None, 252)               0         
                                                                 
 dense_1 (Dense)             (None, 1896)              479688    
                                                                 
 batch_normalization_2 (Batc  (None, 1896)             7584      
 hNormalization)                                                 
                                                                 
 re_lu_2 (ReLU)              (None, 1896)              0         
                                                                 
 dense_2 (Dense)             (None, 1264)              2397808   
                                                                 
=================================================================
Total params: 2,886,088
Trainable params: 2,881,792
Non-trainable params: 4,296
_________________________________________________________________
['1.5custom_n_b', 'mse', 64, 200, 0.0005, 0.2, 252, 0.00020555446099024266, 0.00021331799507606775, 0.0024594713551477
…
'float'>, <class 'float'>, <class 'float'>, <class 'float'>, <class 'float'>, <class 'float'>, <class 'float'>, <class 'float'>]
./DATAFILES/MP_GapFeats_custom_n_b already created.
Shape of dataset to encode: (106113, 1264)
Model: "model_3"
_________________________________________________________________
 Layer (type)                Output Shape              Param #   
=================================================================
 input_4 (InputLayer)        [(None, 1264)]            0         
                                                                 
 dense_3 (Dense)             (None, 2022)              2557830   
                                                                 
 batch_normalization_3 (Batc  (None, 2022)             8088      
 hNormalization)                                                 
                                                                 
 re_lu_3 (ReLU)              (None, 2022)              0         
                                                                 
 bottleneck (Dense)          (None, 252)               509796    
                                                                 
 batch_normalization_4 (Batc  (None, 252)              1008      
 hNormalization)                                                 
                                                                 
 re_lu_4 (ReLU)              (None, 252)               0         
                                                                 
 dense_4 (Dense)             (None, 2022)              511566    
                                                                 
 batch_normalization_5 (Batc  (None, 2022)             8088      
 hNormalization)                                                 
                                                                 
 re_lu_5 (ReLU)              (None, 2022)              0         
                                                                 
 dense_5 (Dense)             (None, 1264)              2557072   
                                                                 
=================================================================
Total params: 6,153,448
Trainable params: 6,144,856
Non-trainable params: 8,592
_________________________________________________________________
Epoch 1/200
1493/1493 - 54s - loss: 0.0101 - val_loss: 0.0045 - 54s/epoch - 36ms/step
Epoch 2/200
1493/1493 - 54s - loss: 0.0035 - val_loss: 0.0031 - 54s/epoch - 36ms/step
…
2 [==============================] - 2s 5ms/step
correlation 0.0023637364888433867
cosine 0.0018629418918424132
MAE: 0.007816281
RMSE: 0.01433355
r2: 0.9866723531899937
RMSE zero-vector: 0.23411466903540806
Full AutoEncoder
Model: "model_3"
_________________________________________________________________
 Layer (type)                Output Shape              Param #   
=================================================================
 input_4 (InputLayer)        multiple                  0         
                                                                 
 dense_3 (Dense)             (None, 2022)              2557830   
                                                                 
 batch_normalization_3 (Batc  (None, 2022)             8088      
 hNormalization)                                                 
                                                                 
 re_lu_3 (ReLU)              (None, 2022)              0         
                                                                 
 bottleneck (Dense)          (None, 252)               509796    
                                                                 
 batch_normalization_4 (Batc  (None, 252)              1008      
 hNormalization)                                                 
                                                                 
 re_lu_4 (ReLU)              (None, 252)               0         
                                                                 
 dense_4 (Dense)             (None, 2022)              511566    
                                                                 
 batch_normalization_5 (Batc  (None, 2022)             8088      
 hNormalization)                                                 
                                                                 
 re_lu_5 (ReLU)              (None, 2022)              0         
                                                                 
 dense_5 (Dense)             (None, 1264)              2557072   
                                                                 
=================================================================
Total params: 6,153,448
Trainable params: 6,144,856
Non-trainable params: 8,592
_________________________________________________________________
Encoder
Model: "model_4"
_________________________________________________________________
 Layer (type)                Output Shape              Param #   
=================================================================
 input_5 (InputLayer)        [(None, 1264)]            0         
                                                                 
 input_4 (InputLayer)        multiple                  0         
                                                                 
 dense_3 (Dense)             (None, 2022)              2557830   
                                                                 
 batch_normalization_3 (Batc  (None, 2022)             8088      
 hNormalization)                                                 
                                                                 
 re_lu_3 (ReLU)              (None, 2022)              0         
                                                                 
 bottleneck (Dense)          (None, 252)               509796    
                                                                 
=================================================================
Total params: 3,075,714
Trainable params: 3,071,670
Non-trainable params: 4,044
_________________________________________________________________
Decoder
Model: "model_5"
_________________________________________________________________
 Layer (type)                Output Shape              Param #   
=================================================================
 input_6 (InputLayer)        [(None, 252)]             0         
                                                                 
 batch_normalization_4 (Batc  (None, 252)              1008      
 hNormalization)                                                 
                                                                 
 re_lu_4 (ReLU)              (None, 252)               0         
                                                                 
 dense_4 (Dense)             (None, 2022)              511566    
                                                                 
 batch_normalization_5 (Batc  (None, 2022)             8088      
 hNormalization)                                                 
                                                                 
 re_lu_5 (ReLU)              (None, 2022)              0         
                                                                 
 dense_5 (Dense)             (None, 1264)              2557072   
                                                                 
=================================================================
Total params: 3,077,734
Trainable params: 3,073,186
Non-trainable params: 4,548
_________________________________________________________________
['1.6custom_n_b', 'mse', 64, 200, 0.0005, 0.2, 252, 0.0002046617737505585, 0.00020545088045764714, 0.00236373648884338
…
'float'>, <class 'float'>, <class 'float'>, <class 'float'>, <class 'float'>, <class 'float'>, <class 'float'>, <class 'float'>]
./DATAFILES/MP_GapFeats_custom_n_b already created.
Shape of dataset to encode: (106113, 1264)
Model: "model_6"
_________________________________________________________________
 Layer (type)                Output Shape              Param #   
=================================================================
 input_7 (InputLayer)        [(None, 1264)]            0         
                                                                 
 dense_6 (Dense)             (None, 2148)              2717220   
                                                                 
 batch_normalization_6 (Batc  (None, 2148)             8592      
 hNormalization)                                                 
                                                                 
 re_lu_6 (ReLU)              (None, 2148)              0         
                                                                 
 bottleneck (Dense)          (None, 252)               541548    
                                                                 
 batch_normalization_7 (Batc  (None, 252)              1008      
 hNormalization)                                                 
                                                                 
 re_lu_7 (ReLU)              (None, 252)               0         
                                                                 
 dense_7 (Dense)             (None, 2148)              543444    
                                                                 
 batch_normalization_8 (Batc  (None, 2148)             8592      
 hNormalization)                                                 
                                                                 
 re_lu_8 (ReLU)              (None, 2148)              0         
                                                                 
 dense_8 (Dense)             (None, 1264)              2716336   
                                                                 
=================================================================
Total params: 6,536,740
Trainable params: 6,527,644
Non-trainable params: 9,096
_________________________________________________________________
Epoch 1/200
1493/1493 - 57s - loss: 0.0102 - val_loss: 0.0051 - 57s/epoch - 38ms/step
Epoch 2/200
1493/1493 - 56s - loss: 0.0035 - val_loss: 0.0031 - 56s/epoch - 38ms/step
…
 [==============================] - 2s 5ms/step
correlation 0.002314657680591996
cosine 0.0018240666045721999
MAE: 0.0078071402
RMSE: 0.014205975
r2: 0.9869085338635954
RMSE zero-vector: 0.23411466903540806
Full AutoEncoder
Model: "model_6"
_________________________________________________________________
 Layer (type)                Output Shape              Param #   
=================================================================
 input_7 (InputLayer)        multiple                  0         
                                                                 
 dense_6 (Dense)             (None, 2148)              2717220   
                                                                 
 batch_normalization_6 (Batc  (None, 2148)             8592      
 hNormalization)                                                 
                                                                 
 re_lu_6 (ReLU)              (None, 2148)              0         
                                                                 
 bottleneck (Dense)          (None, 252)               541548    
                                                                 
 batch_normalization_7 (Batc  (None, 252)              1008      
 hNormalization)                                                 
                                                                 
 re_lu_7 (ReLU)              (None, 252)               0         
                                                                 
 dense_7 (Dense)             (None, 2148)              543444    
                                                                 
 batch_normalization_8 (Batc  (None, 2148)             8592      
 hNormalization)                                                 
                                                                 
 re_lu_8 (ReLU)              (None, 2148)              0         
                                                                 
 dense_8 (Dense)             (None, 1264)              2716336   
                                                                 
=================================================================
Total params: 6,536,740
Trainable params: 6,527,644
Non-trainable params: 9,096
_________________________________________________________________
Encoder
Model: "model_7"
_________________________________________________________________
 Layer (type)                Output Shape              Param #   
=================================================================
 input_8 (InputLayer)        [(None, 1264)]            0         
                                                                 
 input_7 (InputLayer)        multiple                  0         
                                                                 
 dense_6 (Dense)             (None, 2148)              2717220   
                                                                 
 batch_normalization_6 (Batc  (None, 2148)             8592      
 hNormalization)                                                 
                                                                 
 re_lu_6 (ReLU)              (None, 2148)              0         
                                                                 
 bottleneck (Dense)          (None, 252)               541548    
                                                                 
=================================================================
Total params: 3,267,360
Trainable params: 3,263,064
Non-trainable params: 4,296
_________________________________________________________________
Decoder
Model: "model_8"
_________________________________________________________________
 Layer (type)                Output Shape              Param #   
=================================================================
 input_9 (InputLayer)        [(None, 252)]             0         
                                                                 
 batch_normalization_7 (Batc  (None, 252)              1008      
 hNormalization)                                                 
                                                                 
 re_lu_7 (ReLU)              (None, 252)               0         
                                                                 
 dense_7 (Dense)             (None, 2148)              543444    
                                                                 
 batch_normalization_8 (Batc  (None, 2148)             8592      
 hNormalization)                                                 
                                                                 
 re_lu_8 (ReLU)              (None, 2148)              0         
                                                                 
 dense_8 (Dense)             (None, 1264)              2716336   
                                                                 
=================================================================
Total params: 3,269,380
Trainable params: 3,264,580
Non-trainable params: 4,800
_________________________________________________________________
['1.7custom_n_b', 'mse', 64, 200, 0.0005, 0.2, 252, 0.00019598928338382393, 0.00020180991850793362, 0.0023146576805919
…
'float'>, <class 'float'>, <class 'float'>, <class 'float'>, <class 'float'>, <class 'float'>, <class 'float'>, <class 'float'>]
./DATAFILES/MP_GapFeats_custom_n_b already created.
Shape of dataset to encode: (106113, 1264)
Model: "model_9"
_________________________________________________________________
 Layer (type)                Output Shape              Param #   
=================================================================
 input_10 (InputLayer)       [(None, 1264)]            0         
                                                                 
 dense_9 (Dense)             (None, 2275)              2877875   
                                                                 
 batch_normalization_9 (Batc  (None, 2275)             9100      
 hNormalization)                                                 
                                                                 
 re_lu_9 (ReLU)              (None, 2275)              0         
                                                                 
 bottleneck (Dense)          (None, 252)               573552    
                                                                 
 batch_normalization_10 (Bat  (None, 252)              1008      
 chNormalization)                                                
                                                                 
 re_lu_10 (ReLU)             (None, 252)               0         
                                                                 
 dense_10 (Dense)            (None, 2275)              575575    
                                                                 
 batch_normalization_11 (Bat  (None, 2275)             9100      
 chNormalization)                                                
                                                                 
 re_lu_11 (ReLU)             (None, 2275)              0         
                                                                 
 dense_11 (Dense)            (None, 1264)              2876864   
                                                                 
=================================================================
Total params: 6,923,074
Trainable params: 6,913,470
Non-trainable params: 9,604
_________________________________________________________________
Epoch 1/200
1493/1493 - 61s - loss: 0.0099 - val_loss: 0.0050 - 61s/epoch - 41ms/step
Epoch 2/200
1493/1493 - 60s - loss: 0.0035 - val_loss: 0.0032 - 60s/epoch - 40ms/step
…
 [==============================] - 2s 6ms/step
correlation 0.0024438844877865645
cosine 0.001925442630373843
MAE: 0.007812967
RMSE: 0.0145820975
r2: 0.9862062739782043
RMSE zero-vector: 0.23411466903540806
Full AutoEncoder
Model: "model_9"
_________________________________________________________________
 Layer (type)                Output Shape              Param #   
=================================================================
 input_10 (InputLayer)       multiple                  0         
                                                                 
 dense_9 (Dense)             (None, 2275)              2877875   
                                                                 
 batch_normalization_9 (Batc  (None, 2275)             9100      
 hNormalization)                                                 
                                                                 
 re_lu_9 (ReLU)              (None, 2275)              0         
                                                                 
 bottleneck (Dense)          (None, 252)               573552    
                                                                 
 batch_normalization_10 (Bat  (None, 252)              1008      
 chNormalization)                                                
                                                                 
 re_lu_10 (ReLU)             (None, 252)               0         
                                                                 
 dense_10 (Dense)            (None, 2275)              575575    
                                                                 
 batch_normalization_11 (Bat  (None, 2275)             9100      
 chNormalization)                                                
                                                                 
 re_lu_11 (ReLU)             (None, 2275)              0         
                                                                 
 dense_11 (Dense)            (None, 1264)              2876864   
                                                                 
=================================================================
Total params: 6,923,074
Trainable params: 6,913,470
Non-trainable params: 9,604
_________________________________________________________________
Encoder
Model: "model_10"
_________________________________________________________________
 Layer (type)                Output Shape              Param #   
=================================================================
 input_11 (InputLayer)       [(None, 1264)]            0         
                                                                 
 input_10 (InputLayer)       multiple                  0         
                                                                 
 dense_9 (Dense)             (None, 2275)              2877875   
                                                                 
 batch_normalization_9 (Batc  (None, 2275)             9100      
 hNormalization)                                                 
                                                                 
 re_lu_9 (ReLU)              (None, 2275)              0         
                                                                 
 bottleneck (Dense)          (None, 252)               573552    
                                                                 
=================================================================
Total params: 3,460,527
Trainable params: 3,455,977
Non-trainable params: 4,550
_________________________________________________________________
Decoder
Model: "model_11"
_________________________________________________________________
 Layer (type)                Output Shape              Param #   
=================================================================
 input_12 (InputLayer)       [(None, 252)]             0         
                                                                 
 batch_normalization_10 (Bat  (None, 252)              1008      
 chNormalization)                                                
                                                                 
 re_lu_10 (ReLU)             (None, 252)               0         
                                                                 
 dense_10 (Dense)            (None, 2275)              575575    
                                                                 
 batch_normalization_11 (Bat  (None, 2275)             9100      
 chNormalization)                                                
                                                                 
 re_lu_11 (ReLU)             (None, 2275)              0         
                                                                 
 dense_11 (Dense)            (None, 1264)              2876864   
                                                                 
=================================================================
Total params: 3,462,547
Trainable params: 3,457,493
Non-trainable params: 5,054
_________________________________________________________________
['1.8custom_n_b', 'mse', 64, 200, 0.0005, 0.2, 252, 0.0001970883458852768, 0.00021263776579871774, 0.00244388448778656
…
float'>, <class 'float'>, <class 'float'>, <class 'float'>, <class 'float'>, <class 'float'>, <class 'float'>, <class 'float'>]
./DATAFILES/MP_GapFeats_custom_n_b already created.
Shape of dataset to encode: (106113, 1264)
Model: "model_12"
_________________________________________________________________
 Layer (type)                Output Shape              Param #   
=================================================================
 input_13 (InputLayer)       [(None, 1264)]            0         
                                                                 
 dense_12 (Dense)            (None, 2401)              3037265   
                                                                 
 batch_normalization_12 (Bat  (None, 2401)             9604      
 chNormalization)                                                
                                                                 
 re_lu_12 (ReLU)             (None, 2401)              0         
                                                                 
 bottleneck (Dense)          (None, 252)               605304    
                                                                 
 batch_normalization_13 (Bat  (None, 252)              1008      
 chNormalization)                                                
                                                                 
 re_lu_13 (ReLU)             (None, 252)               0         
                                                                 
 dense_13 (Dense)            (None, 2401)              607453    
                                                                 
 batch_normalization_14 (Bat  (None, 2401)             9604      
 chNormalization)                                                
                                                                 
 re_lu_14 (ReLU)             (None, 2401)              0         
                                                                 
 dense_14 (Dense)            (None, 1264)              3036128   
                                                                 
=================================================================
Total params: 7,306,366
Trainable params: 7,296,258
Non-trainable params: 10,108
_________________________________________________________________
Epoch 1/200
1493/1493 - 64s - loss: 0.0101 - val_loss: 0.0057 - 64s/epoch - 43ms/step
Epoch 2/200
1493/1493 - 62s - loss: 0.0037 - val_loss: 0.0036 - 62s/epoch - 42ms/step
…
