…
2022-12-28 16:07:18.681631: I tensorflow/core/platform/cpu_feature_guard.cc:193] This TensorFlow binary is optimized with oneAPI Deep Neural Network Library (oneDNN) to use the following CPU instructions in performance-critical operations:  SSE4.1 SSE4.2 AVX AVX2 AVX512F AVX512_VNNI FMA
To enable them in other operations, rebuild TensorFlow with the appropriate compiler flags.
Model: "model"
_________________________________________________________________
 Layer (type)                Output Shape              Param #   
=================================================================
 input_1 (InputLayer)        [(None, 1264)]            0         
                                                                 
 dense (Dense)               (None, 1896)              2398440   
                                                                 
 batch_normalization (BatchN  (None, 1896)             7584      
 ormalization)                                                   
                                                                 
 re_lu (ReLU)                (None, 1896)              0         
                                                                 
 bottleneck (Dense)          (None, 632)               1198904   
                                                                 
 batch_normalization_1 (Batc  (None, 632)              2528      
 hNormalization)                                                 
                                                                 
 re_lu_1 (ReLU)              (None, 632)               0         
                                                                 
 dense_1 (Dense)             (None, 1896)              1200168   
                                                                 
 batch_normalization_2 (Batc  (None, 1896)             7584      
 hNormalization)                                                 
                                                                 
 re_lu_2 (ReLU)              (None, 1896)              0         
                                                                 
 dense_2 (Dense)             (None, 1264)              2397808   
                                                                 
=================================================================
Total params: 7,213,016
Trainable params: 7,204,168
Non-trainable params: 8,848
_________________________________________________________________
Epoch 1/200
1493/1493 - 42s - loss: 0.0094 - val_loss: 0.0044 - 42s/epoch - 28ms/step
Epoch 2/200
1493/1493 - 41s - loss: 0.0030 - val_loss: 0.0027 - 41s/epoch - 27ms/step
…
332 [==============================] - 2s 5ms/step
correlation 0.001264664926171258
cosine 0.0009956750225400728
MAE: 0.005886184
RMSE: 0.010533778
r2: 0.9928024280986263
RMSE zero-vector: 0.23411466903540806
Full AutoEncoder
Model: "model"
_________________________________________________________________
 Layer (type)                Output Shape              Param #   
=================================================================
 input_1 (InputLayer)        multiple                  0         
                                                                 
 dense (Dense)               (None, 1896)              2398440   
                                                                 
 batch_normalization (BatchN  (None, 1896)             7584      
 ormalization)                                                   
                                                                 
 re_lu (ReLU)                (None, 1896)              0         
                                                                 
 bottleneck (Dense)          (None, 632)               1198904   
                                                                 
 batch_normalization_1 (Batc  (None, 632)              2528      
 hNormalization)                                                 
                                                                 
 re_lu_1 (ReLU)              (None, 632)               0         
                                                                 
 dense_1 (Dense)             (None, 1896)              1200168   
                                                                 
 batch_normalization_2 (Batc  (None, 1896)             7584      
 hNormalization)                                                 
                                                                 
 re_lu_2 (ReLU)              (None, 1896)              0         
                                                                 
 dense_2 (Dense)             (None, 1264)              2397808   
                                                                 
=================================================================
Total params: 7,213,016
Trainable params: 7,204,168
Non-trainable params: 8,848
_________________________________________________________________
Encoder
Model: "model_1"
_________________________________________________________________
 Layer (type)                Output Shape              Param #   
=================================================================
 input_2 (InputLayer)        [(None, 1264)]            0         
                                                                 
 input_1 (InputLayer)        multiple                  0         
                                                                 
 dense (Dense)               (None, 1896)              2398440   
                                                                 
 batch_normalization (BatchN  (None, 1896)             7584      
 ormalization)                                                   
                                                                 
 re_lu (ReLU)                (None, 1896)              0         
                                                                 
 bottleneck (Dense)          (None, 632)               1198904   
                                                                 
=================================================================
Total params: 3,604,928
Trainable params: 3,601,136
Non-trainable params: 3,792
_________________________________________________________________
Decoder
Model: "model_2"
_________________________________________________________________
 Layer (type)                Output Shape              Param #   
=================================================================
 input_3 (InputLayer)        [(None, 632)]             0         
                                                                 
 batch_normalization_1 (Batc  (None, 632)              2528      
 hNormalization)                                                 
                                                                 
 re_lu_1 (ReLU)              (None, 632)               0         
                                                                 
 dense_1 (Dense)             (None, 1896)              1200168   
                                                                 
 batch_normalization_2 (Batc  (None, 1896)             7584      
 hNormalization)                                                 
                                                                 
 re_lu_2 (ReLU)              (None, 1896)              0         
                                                                 
 dense_2 (Dense)             (None, 1264)              2397808   
                                                                 
=================================================================
Total params: 3,608,088
Trainable params: 3,603,032
Non-trainable params: 5,056
_________________________________________________________________
['1.5custom_n_b', 'mse', 64, 200, 0.0005, 0.5, 632, 0.00011116487439721823, 0.0001109605364035815, 0.00126466492617125
…
float'>, <class 'float'>, <class 'float'>, <class 'float'>, <class 'float'>, <class 'float'>, <class 'float'>, <class 'float'>]
./DATAFILES/MP_GapFeats2_custom_n_b already created.
Shape of dataset to encode: (106113, 1264)
Model: "model_3"
_________________________________________________________________
 Layer (type)                Output Shape              Param #   
=================================================================
 input_4 (InputLayer)        [(None, 1264)]            0         
                                                                 
 dense_3 (Dense)             (None, 2022)              2557830   
                                                                 
 batch_normalization_3 (Batc  (None, 2022)             8088      
 hNormalization)                                                 
                                                                 
 re_lu_3 (ReLU)              (None, 2022)              0         
                                                                 
 bottleneck (Dense)          (None, 632)               1278536   
                                                                 
 batch_normalization_4 (Batc  (None, 632)              2528      
 hNormalization)                                                 
                                                                 
 re_lu_4 (ReLU)              (None, 632)               0         
                                                                 
 dense_4 (Dense)             (None, 2022)              1279926   
                                                                 
 batch_normalization_5 (Batc  (None, 2022)             8088      
 hNormalization)                                                 
                                                                 
 re_lu_5 (ReLU)              (None, 2022)              0         
                                                                 
 dense_5 (Dense)             (None, 1264)              2557072   
                                                                 
=================================================================
Total params: 7,692,068
Trainable params: 7,682,716
Non-trainable params: 9,352
_________________________________________________________________
Epoch 1/200
1493/1493 - 44s - loss: 0.0093 - val_loss: 0.0050 - 44s/epoch - 30ms/step
Epoch 2/200
1493/1493 - 43s - loss: 0.0031 - val_loss: 0.0027 - 43s/epoch - 29ms/step
…
 [==============================] - 2s 5ms/step
correlation 0.001305897568155584
cosine 0.0010282624803576162
MAE: 0.0060560247
RMSE: 0.010714201
r2: 0.9925538801418433
RMSE zero-vector: 0.23411466903540806
Full AutoEncoder
Model: "model_3"
_________________________________________________________________
 Layer (type)                Output Shape              Param #   
=================================================================
 input_4 (InputLayer)        multiple                  0         
                                                                 
 dense_3 (Dense)             (None, 2022)              2557830   
                                                                 
 batch_normalization_3 (Batc  (None, 2022)             8088      
 hNormalization)                                                 
                                                                 
 re_lu_3 (ReLU)              (None, 2022)              0         
                                                                 
 bottleneck (Dense)          (None, 632)               1278536   
                                                                 
 batch_normalization_4 (Batc  (None, 632)              2528      
 hNormalization)                                                 
                                                                 
 re_lu_4 (ReLU)              (None, 632)               0         
                                                                 
 dense_4 (Dense)             (None, 2022)              1279926   
                                                                 
 batch_normalization_5 (Batc  (None, 2022)             8088      
 hNormalization)                                                 
                                                                 
 re_lu_5 (ReLU)              (None, 2022)              0         
                                                                 
 dense_5 (Dense)             (None, 1264)              2557072   
                                                                 
=================================================================
Total params: 7,692,068
Trainable params: 7,682,716
Non-trainable params: 9,352
_________________________________________________________________
Encoder
Model: "model_4"
_________________________________________________________________
 Layer (type)                Output Shape              Param #   
=================================================================
 input_5 (InputLayer)        [(None, 1264)]            0         
                                                                 
 input_4 (InputLayer)        multiple                  0         
                                                                 
 dense_3 (Dense)             (None, 2022)              2557830   
                                                                 
 batch_normalization_3 (Batc  (None, 2022)             8088      
 hNormalization)                                                 
                                                                 
 re_lu_3 (ReLU)              (None, 2022)              0         
                                                                 
 bottleneck (Dense)          (None, 632)               1278536   
                                                                 
=================================================================
Total params: 3,844,454
Trainable params: 3,840,410
Non-trainable params: 4,044
_________________________________________________________________
Decoder
Model: "model_5"
_________________________________________________________________
 Layer (type)                Output Shape              Param #   
=================================================================
 input_6 (InputLayer)        [(None, 632)]             0         
                                                                 
 batch_normalization_4 (Batc  (None, 632)              2528      
 hNormalization)                                                 
                                                                 
 re_lu_4 (ReLU)              (None, 632)               0         
                                                                 
 dense_4 (Dense)             (None, 2022)              1279926   
                                                                 
 batch_normalization_5 (Batc  (None, 2022)             8088      
 hNormalization)                                                 
                                                                 
 re_lu_5 (ReLU)              (None, 2022)              0         
                                                                 
 dense_5 (Dense)             (None, 1264)              2557072   
                                                                 
=================================================================
Total params: 3,847,614
Trainable params: 3,842,306
Non-trainable params: 5,308
_________________________________________________________________
['1.6custom_n_b', 'mse', 64, 200, 0.0005, 0.5, 632, 0.00010821171599673107, 0.00011479422391857952, 0.0013058975681555
…
float'>, <class 'float'>, <class 'float'>, <class 'float'>, <class 'float'>, <class 'float'>, <class 'float'>, <class 'float'>]
./DATAFILES/MP_GapFeats2_custom_n_b already created.
Shape of dataset to encode: (106113, 1264)
Model: "model_6"
_________________________________________________________________
 Layer (type)                Output Shape              Param #   
=================================================================
 input_7 (InputLayer)        [(None, 1264)]            0         
                                                                 
 dense_6 (Dense)             (None, 2148)              2717220   
                                                                 
 batch_normalization_6 (Batc  (None, 2148)             8592      
 hNormalization)                                                 
                                                                 
 re_lu_6 (ReLU)              (None, 2148)              0         
                                                                 
 bottleneck (Dense)          (None, 632)               1358168   
                                                                 
 batch_normalization_7 (Batc  (None, 632)              2528      
 hNormalization)                                                 
                                                                 
 re_lu_7 (ReLU)              (None, 632)               0         
                                                                 
 dense_7 (Dense)             (None, 2148)              1359684   
                                                                 
 batch_normalization_8 (Batc  (None, 2148)             8592      
 hNormalization)                                                 
                                                                 
 re_lu_8 (ReLU)              (None, 2148)              0         
                                                                 
 dense_8 (Dense)             (None, 1264)              2716336   
                                                                 
=================================================================
Total params: 8,171,120
Trainable params: 8,161,264
Non-trainable params: 9,856
_________________________________________________________________
Epoch 1/200
1493/1493 - 47s - loss: 0.0094 - val_loss: 0.0052 - 47s/epoch - 31ms/step
Epoch 2/200
1493/1493 - 46s - loss: 0.0031 - val_loss: 0.0028 - 46s/epoch - 31ms/step
…
[==============================] - 2s 5ms/step
correlation 0.0012574849198819823
cosine 0.0009906499387181754
MAE: 0.0059102937
RMSE: 0.010518499
r2: 0.9928232279596557
RMSE zero-vector: 0.23411466903540806
Full AutoEncoder
Model: "model_6"
_________________________________________________________________
 Layer (type)                Output Shape              Param #   
=================================================================
 input_7 (InputLayer)        multiple                  0         
                                                                 
 dense_6 (Dense)             (None, 2148)              2717220   
                                                                 
 batch_normalization_6 (Batc  (None, 2148)             8592      
 hNormalization)                                                 
                                                                 
 re_lu_6 (ReLU)              (None, 2148)              0         
                                                                 
 bottleneck (Dense)          (None, 632)               1358168   
                                                                 
 batch_normalization_7 (Batc  (None, 632)              2528      
 hNormalization)                                                 
                                                                 
 re_lu_7 (ReLU)              (None, 632)               0         
                                                                 
 dense_7 (Dense)             (None, 2148)              1359684   
                                                                 
 batch_normalization_8 (Batc  (None, 2148)             8592      
 hNormalization)                                                 
                                                                 
 re_lu_8 (ReLU)              (None, 2148)              0         
                                                                 
 dense_8 (Dense)             (None, 1264)              2716336   
                                                                 
=================================================================
Total params: 8,171,120
Trainable params: 8,161,264
Non-trainable params: 9,856
_________________________________________________________________
Encoder
Model: "model_7"
_________________________________________________________________
 Layer (type)                Output Shape              Param #   
=================================================================
 input_8 (InputLayer)        [(None, 1264)]            0         
                                                                 
 input_7 (InputLayer)        multiple                  0         
                                                                 
 dense_6 (Dense)             (None, 2148)              2717220   
                                                                 
 batch_normalization_6 (Batc  (None, 2148)             8592      
 hNormalization)                                                 
                                                                 
 re_lu_6 (ReLU)              (None, 2148)              0         
                                                                 
 bottleneck (Dense)          (None, 632)               1358168   
                                                                 
=================================================================
Total params: 4,083,980
Trainable params: 4,079,684
Non-trainable params: 4,296
_________________________________________________________________
Decoder
Model: "model_8"
_________________________________________________________________
 Layer (type)                Output Shape              Param #   
=================================================================
 input_9 (InputLayer)        [(None, 632)]             0         
                                                                 
 batch_normalization_7 (Batc  (None, 632)              2528      
 hNormalization)                                                 
                                                                 
 re_lu_7 (ReLU)              (None, 632)               0         
                                                                 
 dense_7 (Dense)             (None, 2148)              1359684   
                                                                 
 batch_normalization_8 (Batc  (None, 2148)             8592      
 hNormalization)                                                 
                                                                 
 re_lu_8 (ReLU)              (None, 2148)              0         
                                                                 
 dense_8 (Dense)             (None, 1264)              2716336   
                                                                 
=================================================================
Total params: 4,087,140
Trainable params: 4,081,580
Non-trainable params: 5,560
_________________________________________________________________
['1.7custom_n_b', 'mse', 64, 200, 0.0005, 0.5, 632, 0.00010474623559275642, 0.00011063892452511936, 0.0012574849198819
…
float'>, <class 'float'>, <class 'float'>, <class 'float'>, <class 'float'>, <class 'float'>, <class 'float'>, <class 'float'>]
./DATAFILES/MP_GapFeats2_custom_n_b already created.
Shape of dataset to encode: (106113, 1264)
Model: "model_9"
_________________________________________________________________
 Layer (type)                Output Shape              Param #   
=================================================================
 input_10 (InputLayer)       [(None, 1264)]            0         
                                                                 
 dense_9 (Dense)             (None, 2275)              2877875   
                                                                 
 batch_normalization_9 (Batc  (None, 2275)             9100      
 hNormalization)                                                 
                                                                 
 re_lu_9 (ReLU)              (None, 2275)              0         
                                                                 
 bottleneck (Dense)          (None, 632)               1438432   
                                                                 
 batch_normalization_10 (Bat  (None, 632)              2528      
 chNormalization)                                                
                                                                 
 re_lu_10 (ReLU)             (None, 632)               0         
                                                                 
 dense_10 (Dense)            (None, 2275)              1440075   
                                                                 
 batch_normalization_11 (Bat  (None, 2275)             9100      
 chNormalization)                                                
                                                                 
 re_lu_11 (ReLU)             (None, 2275)              0         
                                                                 
 dense_11 (Dense)            (None, 1264)              2876864   
                                                                 
=================================================================
Total params: 8,653,974
Trainable params: 8,643,610
Non-trainable params: 10,364
_________________________________________________________________
Epoch 1/200
1493/1493 - 49s - loss: 0.0093 - val_loss: 0.0050 - 49s/epoch - 33ms/step
Epoch 2/200
1493/1493 - 48s - loss: 0.0030 - val_loss: 0.0030 - 48s/epoch - 32ms/step
…
2 [==============================] - 2s 5ms/step
correlation 0.0012073085987024204
cosine 0.0009501185275184583
MAE: 0.00581959
RMSE: 0.010305582
r2: 0.9931118525875603
RMSE zero-vector: 0.23411466903540806
Full AutoEncoder
Model: "model_9"
_________________________________________________________________
 Layer (type)                Output Shape              Param #   
=================================================================
 input_10 (InputLayer)       multiple                  0         
                                                                 
 dense_9 (Dense)             (None, 2275)              2877875   
                                                                 
 batch_normalization_9 (Batc  (None, 2275)             9100      
 hNormalization)                                                 
                                                                 
 re_lu_9 (ReLU)              (None, 2275)              0         
                                                                 
 bottleneck (Dense)          (None, 632)               1438432   
                                                                 
 batch_normalization_10 (Bat  (None, 632)              2528      
 chNormalization)                                                
                                                                 
 re_lu_10 (ReLU)             (None, 632)               0         
                                                                 
 dense_10 (Dense)            (None, 2275)              1440075   
                                                                 
 batch_normalization_11 (Bat  (None, 2275)             9100      
 chNormalization)                                                
                                                                 
 re_lu_11 (ReLU)             (None, 2275)              0         
                                                                 
 dense_11 (Dense)            (None, 1264)              2876864   
                                                                 
=================================================================
Total params: 8,653,974
Trainable params: 8,643,610
Non-trainable params: 10,364
_________________________________________________________________
Encoder
Model: "model_10"
_________________________________________________________________
 Layer (type)                Output Shape              Param #   
=================================================================
 input_11 (InputLayer)       [(None, 1264)]            0         
                                                                 
 input_10 (InputLayer)       multiple                  0         
                                                                 
 dense_9 (Dense)             (None, 2275)              2877875   
                                                                 
 batch_normalization_9 (Batc  (None, 2275)             9100      
 hNormalization)                                                 
                                                                 
 re_lu_9 (ReLU)              (None, 2275)              0         
                                                                 
 bottleneck (Dense)          (None, 632)               1438432   
                                                                 
=================================================================
Total params: 4,325,407
Trainable params: 4,320,857
Non-trainable params: 4,550
_________________________________________________________________
Decoder
Model: "model_11"
_________________________________________________________________
 Layer (type)                Output Shape              Param #   
=================================================================
 input_12 (InputLayer)       [(None, 632)]             0         
                                                                 
 batch_normalization_10 (Bat  (None, 632)              2528      
 chNormalization)                                                
                                                                 
 re_lu_10 (ReLU)             (None, 632)               0         
                                                                 
 dense_10 (Dense)            (None, 2275)              1440075   
                                                                 
 batch_normalization_11 (Bat  (None, 2275)             9100      
 chNormalization)                                                
                                                                 
 re_lu_11 (ReLU)             (None, 2275)              0         
                                                                 
 dense_11 (Dense)            (None, 1264)              2876864   
                                                                 
=================================================================
Total params: 4,328,567
Trainable params: 4,322,753
Non-trainable params: 5,814
_________________________________________________________________
['1.8custom_n_b', 'mse', 64, 200, 0.0005, 0.5, 632, 0.00010374555859016255, 0.00010620507237035781, 0.0012073085987024
…
loat'>, <class 'float'>, <class 'float'>, <class 'float'>, <class 'float'>, <class 'float'>, <class 'float'>, <class 'float'>]
./DATAFILES/MP_GapFeats2_custom_n_b already created.
Shape of dataset to encode: (106113, 1264)
Model: "model_12"
_________________________________________________________________
 Layer (type)                Output Shape              Param #   
=================================================================
 input_13 (InputLayer)       [(None, 1264)]            0         
                                                                 
 dense_12 (Dense)            (None, 2401)              3037265   
                                                                 
 batch_normalization_12 (Bat  (None, 2401)             9604      
 chNormalization)                                                
                                                                 
 re_lu_12 (ReLU)             (None, 2401)              0         
                                                                 
 bottleneck (Dense)          (None, 632)               1518064   
                                                                 
 batch_normalization_13 (Bat  (None, 632)              2528      
 chNormalization)                                                
                                                                 
 re_lu_13 (ReLU)             (None, 632)               0         
                                                                 
 dense_13 (Dense)            (None, 2401)              1519833   
                                                                 
 batch_normalization_14 (Bat  (None, 2401)             9604      
 chNormalization)                                                
                                                                 
 re_lu_14 (ReLU)             (None, 2401)              0         
                                                                 
 dense_14 (Dense)            (None, 1264)              3036128   
                                                                 
=================================================================
Total params: 9,133,026
Trainable params: 9,122,158
Non-trainable params: 10,868
_________________________________________________________________
Epoch 1/200
1493/1493 - 52s - loss: 0.0093 - val_loss: 0.0041 - 52s/epoch - 35ms/step
Epoch 2/200
1493/1493 - 51s - loss: 0.0029 - val_loss: 0.0028 - 51s/epoch - 34ms/step
…
 [==============================] - 2s 6ms/step
correlation 0.0011807432994274567
cosine 0.0009309539492068271
MAE: 0.005702279
RMSE: 0.010186374
r2: 0.993270080518188
RMSE zero-vector: 0.23411466903540806
Full AutoEncoder
Model: "model_12"
_________________________________________________________________
 Layer (type)                Output Shape              Param #   
=================================================================
 input_13 (InputLayer)       multiple                  0         
                                                                 
 dense_12 (Dense)            (None, 2401)              3037265   
                                                                 
 batch_normalization_12 (Bat  (None, 2401)             9604      
 chNormalization)                                                
                                                                 
 re_lu_12 (ReLU)             (None, 2401)              0         
                                                                 
 bottleneck (Dense)          (None, 632)               1518064   
                                                                 
 batch_normalization_13 (Bat  (None, 632)              2528      
 chNormalization)                                                
                                                                 
 re_lu_13 (ReLU)             (None, 632)               0         
                                                                 
 dense_13 (Dense)            (None, 2401)              1519833   
                                                                 
 batch_normalization_14 (Bat  (None, 2401)             9604      
 chNormalization)                                                
                                                                 
 re_lu_14 (ReLU)             (None, 2401)              0         
                                                                 
 dense_14 (Dense)            (None, 1264)              3036128   
                                                                 
=================================================================
Total params: 9,133,026
Trainable params: 9,122,158
Non-trainable params: 10,868
_________________________________________________________________
Encoder
Model: "model_13"
_________________________________________________________________
 Layer (type)                Output Shape              Param #   
=================================================================
 input_14 (InputLayer)       [(None, 1264)]            0         
                                                                 
 input_13 (InputLayer)       multiple                  0         
                                                                 
 dense_12 (Dense)            (None, 2401)              3037265   
                                                                 
 batch_normalization_12 (Bat  (None, 2401)             9604      
 chNormalization)                                                
                                                                 
 re_lu_12 (ReLU)             (None, 2401)              0         
                                                                 
 bottleneck (Dense)          (None, 632)               1518064   
                                                                 
=================================================================
Total params: 4,564,933
Trainable params: 4,560,131
Non-trainable params: 4,802
_________________________________________________________________
Decoder
Model: "model_14"
_________________________________________________________________
 Layer (type)                Output Shape              Param #   
=================================================================
 input_15 (InputLayer)       [(None, 632)]             0         
                                                                 
 batch_normalization_13 (Bat  (None, 632)              2528      
 chNormalization)                                                
                                                                 
 re_lu_13 (ReLU)             (None, 632)               0         
                                                                 
 dense_13 (Dense)            (None, 2401)              1519833   
                                                                 
 batch_normalization_14 (Bat  (None, 2401)             9604      
 chNormalization)                                                
                                                                 
 re_lu_14 (ReLU)             (None, 2401)              0         
                                                                 
 dense_14 (Dense)            (None, 1264)              3036128   
                                                                 
=================================================================
Total params: 4,568,093
Trainable params: 4,562,027
Non-trainable params: 6,066
_________________________________________________________________
['1.9custom_n_b', 'mse', 64, 200, 0.0005, 0.5, 632, 0.00010269886115565896, 0.00010376232967246324, 0.0011807432994274
…
loat'>, <class 'float'>, <class 'float'>, <class 'float'>, <class 'float'>, <class 'float'>, <class 'float'>, <class 'float'>]
./DATAFILES/MP_GapFeats2_custom_n_b already created.
Shape of dataset to encode: (106113, 1264)
Model: "model_15"
_________________________________________________________________
 Layer (type)                Output Shape              Param #   
=================================================================
 input_16 (InputLayer)       [(None, 1264)]            0         
                                                                 
 dense_15 (Dense)            (None, 2528)              3197920   
                                                                 
 batch_normalization_15 (Bat  (None, 2528)             10112     
 chNormalization)                                                
                                                                 
 re_lu_15 (ReLU)             (None, 2528)              0         
                                                                 
 bottleneck (Dense)          (None, 632)               1598328   
                                                                 
 batch_normalization_16 (Bat  (None, 632)              2528      
 chNormalization)                                                
                                                                 
 re_lu_16 (ReLU)             (None, 632)               0         
                                                                 
 dense_16 (Dense)            (None, 2528)              1600224   
                                                                 
 batch_normalization_17 (Bat  (None, 2528)             10112     
 chNormalization)                                                
                                                                 
 re_lu_17 (ReLU)             (None, 2528)              0         
                                                                 
 dense_17 (Dense)            (None, 1264)              3196656   
                                                                 
=================================================================
Total params: 9,615,880
Trainable params: 9,604,504
Non-trainable params: 11,376
_________________________________________________________________
Epoch 1/200
1493/1493 - 52s - loss: 0.0093 - val_loss: 0.0042 - 52s/epoch - 35ms/step
Epoch 2/200
1493/1493 - 51s - loss: 0.0030 - val_loss: 0.0041 - 51s/epoch - 34ms/step
…
[==============================] - 2s 6ms/step
correlation 0.001204080236573692
cosine 0.0009501829569266959
MAE: 0.0057935906
RMSE: 0.010337584
r2: 0.9930687436368045
RMSE zero-vector: 0.23411466903540806
Full AutoEncoder
Model: "model_15"
_________________________________________________________________
 Layer (type)                Output Shape              Param #   
=================================================================
 input_16 (InputLayer)       multiple                  0         
                                                                 
 dense_15 (Dense)            (None, 2528)              3197920   
                                                                 
 batch_normalization_15 (Bat  (None, 2528)             10112     
 chNormalization)                                                
                                                                 
 re_lu_15 (ReLU)             (None, 2528)              0         
                                                                 
 bottleneck (Dense)          (None, 632)               1598328   
                                                                 
 batch_normalization_16 (Bat  (None, 632)              2528      
 chNormalization)                                                
                                                                 
 re_lu_16 (ReLU)             (None, 632)               0         
                                                                 
 dense_16 (Dense)            (None, 2528)              1600224   
                                                                 
 batch_normalization_17 (Bat  (None, 2528)             10112     
 chNormalization)                                                
                                                                 
 re_lu_17 (ReLU)             (None, 2528)              0         
                                                                 
 dense_17 (Dense)            (None, 1264)              3196656   
                                                                 
=================================================================
Total params: 9,615,880
Trainable params: 9,604,504
Non-trainable params: 11,376
_________________________________________________________________
Encoder
Model: "model_16"
_________________________________________________________________
 Layer (type)                Output Shape              Param #   
=================================================================
 input_17 (InputLayer)       [(None, 1264)]            0         
                                                                 
 input_16 (InputLayer)       multiple                  0         
                                                                 
 dense_15 (Dense)            (None, 2528)              3197920   
                                                                 
 batch_normalization_15 (Bat  (None, 2528)             10112     
 chNormalization)                                                
                                                                 
 re_lu_15 (ReLU)             (None, 2528)              0         
                                                                 
 bottleneck (Dense)          (None, 632)               1598328   
                                                                 
=================================================================
Total params: 4,806,360
Trainable params: 4,801,304
Non-trainable params: 5,056
_________________________________________________________________
Decoder
Model: "model_17"
_________________________________________________________________
 Layer (type)                Output Shape              Param #   
=================================================================
 input_18 (InputLayer)       [(None, 632)]             0         
                                                                 
 batch_normalization_16 (Bat  (None, 632)              2528      
 chNormalization)                                                
                                                                 
 re_lu_16 (ReLU)             (None, 632)               0         
                                                                 
 dense_16 (Dense)            (None, 2528)              1600224   
                                                                 
 batch_normalization_17 (Bat  (None, 2528)             10112     
 chNormalization)                                                
                                                                 
 re_lu_17 (ReLU)             (None, 2528)              0         
                                                                 
 dense_17 (Dense)            (None, 1264)              3196656   
                                                                 
=================================================================
Total params: 4,809,520
Trainable params: 4,803,200
Non-trainable params: 6,320
_________________________________________________________________
['2.0custom_n_b', 'mse', 64, 200, 0.0005, 0.5, 632, 0.00010136917262570933, 0.00010686571476981044, 0.0012040802365736
…
loat'>, <class 'float'>, <class 'float'>, <class 'float'>, <class 'float'>, <class 'float'>, <class 'float'>, <class 'float'>]
./DATAFILES/MP_GapFeats2_custom_n_b already created.
Shape of dataset to encode: (106113, 1264)
Model: "model_18"
_________________________________________________________________
 Layer (type)                Output Shape              Param #   
=================================================================
 input_19 (InputLayer)       [(None, 1264)]            0         
                                                                 
 dense_18 (Dense)            (None, 2654)              3357310   
                                                                 
 batch_normalization_18 (Bat  (None, 2654)             10616     
 chNormalization)                                                
                                                                 
 re_lu_18 (ReLU)             (None, 2654)              0         
                                                                 
 bottleneck (Dense)          (None, 632)               1677960   
                                                                 
 batch_normalization_19 (Bat  (None, 632)              2528      
 chNormalization)                                                
                                                                 
 re_lu_19 (ReLU)             (None, 632)               0         
                                                                 
 dense_19 (Dense)            (None, 2654)              1679982   
                                                                 
 batch_normalization_20 (Bat  (None, 2654)             10616     
 chNormalization)                                                
                                                                 
 re_lu_20 (ReLU)             (None, 2654)              0         
                                                                 
 dense_20 (Dense)            (None, 1264)              3355920   
                                                                 
=================================================================
Total params: 10,094,932
Trainable params: 10,083,052
Non-trainable params: 11,880
_________________________________________________________________
Epoch 1/200
1493/1493 - 59s - loss: 0.0094 - val_loss: 0.0040 - 59s/epoch - 40ms/step
Epoch 2/200
1493/1493 - 58s - loss: 0.0030 - val_loss: 0.0031 - 58s/epoch - 39ms/step
…
 [==============================] - 2s 6ms/step
correlation 0.00113040403716752
cosine 0.0008901338947075427
MAE: 0.0055326736
RMSE: 0.009980777
r2: 0.9935386708060221
RMSE zero-vector: 0.23411466903540806
Full AutoEncoder
Model: "model_18"
_________________________________________________________________
 Layer (type)                Output Shape              Param #   
=================================================================
 input_19 (InputLayer)       multiple                  0         
                                                                 
 dense_18 (Dense)            (None, 2654)              3357310   
                                                                 
 batch_normalization_18 (Bat  (None, 2654)             10616     
 chNormalization)                                                
                                                                 
 re_lu_18 (ReLU)             (None, 2654)              0         
                                                                 
 bottleneck (Dense)          (None, 632)               1677960   
                                                                 
 batch_normalization_19 (Bat  (None, 632)              2528      
 chNormalization)                                                
                                                                 
 re_lu_19 (ReLU)             (None, 632)               0         
                                                                 
 dense_19 (Dense)            (None, 2654)              1679982   
                                                                 
 batch_normalization_20 (Bat  (None, 2654)             10616     
 chNormalization)                                                
                                                                 
 re_lu_20 (ReLU)             (None, 2654)              0         
                                                                 
 dense_20 (Dense)            (None, 1264)              3355920   
                                                                 
=================================================================
Total params: 10,094,932
Trainable params: 10,083,052
Non-trainable params: 11,880
_________________________________________________________________
Encoder
Model: "model_19"
_________________________________________________________________
 Layer (type)                Output Shape              Param #   
=================================================================
 input_20 (InputLayer)       [(None, 1264)]            0         
                                                                 
 input_19 (InputLayer)       multiple                  0         
                                                                 
 dense_18 (Dense)            (None, 2654)              3357310   
                                                                 
 batch_normalization_18 (Bat  (None, 2654)             10616     
 chNormalization)                                                
                                                                 
 re_lu_18 (ReLU)             (None, 2654)              0         
                                                                 
 bottleneck (Dense)          (None, 632)               1677960   
                                                                 
=================================================================
Total params: 5,045,886
Trainable params: 5,040,578
Non-trainable params: 5,308
_________________________________________________________________
Decoder
Model: "model_20"
_________________________________________________________________
 Layer (type)                Output Shape              Param #   
=================================================================
 input_21 (InputLayer)       [(None, 632)]             0         
                                                                 
 batch_normalization_19 (Bat  (None, 632)              2528      
 chNormalization)                                                
                                                                 
 re_lu_19 (ReLU)             (None, 632)               0         
                                                                 
 dense_19 (Dense)            (None, 2654)              1679982   
                                                                 
 batch_normalization_20 (Bat  (None, 2654)             10616     
 chNormalization)                                                
                                                                 
 re_lu_20 (ReLU)             (None, 2654)              0         
                                                                 
 dense_20 (Dense)            (None, 1264)              3355920   
                                                                 
=================================================================
Total params: 5,049,046
Trainable params: 5,042,474
Non-trainable params: 6,572
_________________________________________________________________
['2.1custom_n_b', 'mse', 64, 200, 0.0005, 0.5, 632, 0.00010221423144685104, 9.961600153474137e-05, 0.00113040403716752
…
loat'>, <class 'float'>, <class 'float'>, <class 'float'>, <class 'float'>, <class 'float'>, <class 'float'>, <class 'float'>]
./DATAFILES/MP_GapFeats2_custom_n_b already created.
Shape of dataset to encode: (106113, 1264)
Model: "model_21"
_________________________________________________________________
 Layer (type)                Output Shape              Param #   
=================================================================
 input_22 (InputLayer)       [(None, 1264)]            0         
                                                                 
 dense_21 (Dense)            (None, 2780)              3516700   
                                                                 
 batch_normalization_21 (Bat  (None, 2780)             11120     
 chNormalization)                                                
                                                                 
 re_lu_21 (ReLU)             (None, 2780)              0         
                                                                 
 bottleneck (Dense)          (None, 632)               1757592   
                                                                 
 batch_normalization_22 (Bat  (None, 632)              2528      
 chNormalization)                                                
                                                                 
 re_lu_22 (ReLU)             (None, 632)               0         
                                                                 
 dense_22 (Dense)            (None, 2780)              1759740   
                                                                 
 batch_normalization_23 (Bat  (None, 2780)             11120     
 chNormalization)                                                
                                                                 
 re_lu_23 (ReLU)             (None, 2780)              0         
                                                                 
 dense_23 (Dense)            (None, 1264)              3515184   
                                                                 
=================================================================
Total params: 10,573,984
Trainable params: 10,561,600
Non-trainable params: 12,384
_________________________________________________________________
Epoch 1/200
1493/1493 - 64s - loss: 0.0095 - val_loss: 0.0048 - 64s/epoch - 43ms/step
Epoch 2/200
1493/1493 - 62s - loss: 0.0030 - val_loss: 0.0032 - 62s/epoch - 42ms/step
…
[==============================] - 2s 6ms/step
correlation 0.0010788419192303722
cosine 0.0008500624873527616
MAE: 0.005396405
RMSE: 0.009744238
r2: 0.9938417195227113
RMSE zero-vector: 0.23411466903540806
Full AutoEncoder
Model: "model_21"
_________________________________________________________________
 Layer (type)                Output Shape              Param #   
=================================================================
 input_22 (InputLayer)       multiple                  0         
                                                                 
 dense_21 (Dense)            (None, 2780)              3516700   
                                                                 
 batch_normalization_21 (Bat  (None, 2780)             11120     
 chNormalization)                                                
                                                                 
 re_lu_21 (ReLU)             (None, 2780)              0         
                                                                 
 bottleneck (Dense)          (None, 632)               1757592   
                                                                 
 batch_normalization_22 (Bat  (None, 632)              2528      
 chNormalization)                                                
                                                                 
 re_lu_22 (ReLU)             (None, 632)               0         
                                                                 
 dense_22 (Dense)            (None, 2780)              1759740   
                                                                 
 batch_normalization_23 (Bat  (None, 2780)             11120     
 chNormalization)                                                
                                                                 
 re_lu_23 (ReLU)             (None, 2780)              0         
                                                                 
 dense_23 (Dense)            (None, 1264)              3515184   
                                                                 
=================================================================
Total params: 10,573,984
Trainable params: 10,561,600
Non-trainable params: 12,384
_________________________________________________________________
Encoder
Model: "model_22"
_________________________________________________________________
 Layer (type)                Output Shape              Param #   
=================================================================
 input_23 (InputLayer)       [(None, 1264)]            0         
                                                                 
 input_22 (InputLayer)       multiple                  0         
                                                                 
 dense_21 (Dense)            (None, 2780)              3516700   
                                                                 
 batch_normalization_21 (Bat  (None, 2780)             11120     
 chNormalization)                                                
                                                                 
 re_lu_21 (ReLU)             (None, 2780)              0         
                                                                 
 bottleneck (Dense)          (None, 632)               1757592   
                                                                 
=================================================================
Total params: 5,285,412
Trainable params: 5,279,852
Non-trainable params: 5,560
_________________________________________________________________
Decoder
Model: "model_23"
_________________________________________________________________
 Layer (type)                Output Shape              Param #   
=================================================================
 input_24 (InputLayer)       [(None, 632)]             0         
                                                                 
 batch_normalization_22 (Bat  (None, 632)              2528      
 chNormalization)                                                
                                                                 
 re_lu_22 (ReLU)             (None, 632)               0         
                                                                 
 dense_22 (Dense)            (None, 2780)              1759740   
                                                                 
 batch_normalization_23 (Bat  (None, 2780)             11120     
 chNormalization)                                                
                                                                 
 re_lu_23 (ReLU)             (None, 2780)              0         
                                                                 
 dense_23 (Dense)            (None, 1264)              3515184   
                                                                 
=================================================================
Total params: 5,288,572
Trainable params: 5,281,748
Non-trainable params: 6,824
_________________________________________________________________
['2.2custom_n_b', 'mse', 64, 200, 0.0005, 0.5, 632, 9.595313895260915e-05, 9.495028643868864e-05, 0.001078841919230372
…
loat'>, <class 'float'>, <class 'float'>, <class 'float'>, <class 'float'>, <class 'float'>, <class 'float'>, <class 'float'>]
./DATAFILES/MP_GapFeats2_custom_n_b already created.
Shape of dataset to encode: (106113, 1264)
Model: "model_24"
_________________________________________________________________
 Layer (type)                Output Shape              Param #   
=================================================================
 input_25 (InputLayer)       [(None, 1264)]            0         
                                                                 
 dense_24 (Dense)            (None, 2907)              3677355   
                                                                 
 batch_normalization_24 (Bat  (None, 2907)             11628     
 chNormalization)                                                
                                                                 
 re_lu_24 (ReLU)             (None, 2907)              0         
                                                                 
 bottleneck (Dense)          (None, 632)               1837856   
                                                                 
 batch_normalization_25 (Bat  (None, 632)              2528      
 chNormalization)                                                
                                                                 
 re_lu_25 (ReLU)             (None, 632)               0         
                                                                 
 dense_25 (Dense)            (None, 2907)              1840131   
                                                                 
 batch_normalization_26 (Bat  (None, 2907)             11628     
 chNormalization)                                                
                                                                 
 re_lu_26 (ReLU)             (None, 2907)              0         
                                                                 
 dense_26 (Dense)            (None, 1264)              3675712   
                                                                 
=================================================================
Total params: 11,056,838
Trainable params: 11,043,946
Non-trainable params: 12,892
_________________________________________________________________
Epoch 1/200
1493/1493 - 67s - loss: 0.0094 - val_loss: 0.0042 - 67s/epoch - 45ms/step
Epoch 2/200
1493/1493 - 67s - loss: 0.0030 - val_loss: 0.0041 - 67s/epoch - 45ms/step
…
[==============================] - 2s 7ms/step
correlation 0.001110716575817751
cosine 0.0008752623617177274
MAE: 0.0055040726
RMSE: 0.009888025
r2: 0.9936583771181708
RMSE zero-vector: 0.23411466903540806
Full AutoEncoder
Model: "model_24"
_________________________________________________________________
 Layer (type)                Output Shape              Param #   
=================================================================
 input_25 (InputLayer)       multiple                  0         
                                                                 
 dense_24 (Dense)            (None, 2907)              3677355   
                                                                 
 batch_normalization_24 (Bat  (None, 2907)             11628     
 chNormalization)                                                
                                                                 
 re_lu_24 (ReLU)             (None, 2907)              0         
                                                                 
 bottleneck (Dense)          (None, 632)               1837856   
                                                                 
 batch_normalization_25 (Bat  (None, 632)              2528      
 chNormalization)                                                
                                                                 
 re_lu_25 (ReLU)             (None, 632)               0         
                                                                 
 dense_25 (Dense)            (None, 2907)              1840131   
                                                                 
 batch_normalization_26 (Bat  (None, 2907)             11628     
 chNormalization)                                                
                                                                 
 re_lu_26 (ReLU)             (None, 2907)              0         
                                                                 
 dense_26 (Dense)            (None, 1264)              3675712   
                                                                 
=================================================================
Total params: 11,056,838
Trainable params: 11,043,946
Non-trainable params: 12,892
_________________________________________________________________
Encoder
Model: "model_25"
_________________________________________________________________
 Layer (type)                Output Shape              Param #   
=================================================================
 input_26 (InputLayer)       [(None, 1264)]            0         
                                                                 
 input_25 (InputLayer)       multiple                  0         
                                                                 
 dense_24 (Dense)            (None, 2907)              3677355   
                                                                 
 batch_normalization_24 (Bat  (None, 2907)             11628     
 chNormalization)                                                
                                                                 
 re_lu_24 (ReLU)             (None, 2907)              0         
                                                                 
 bottleneck (Dense)          (None, 632)               1837856   
                                                                 
=================================================================
Total params: 5,526,839
Trainable params: 5,521,025
Non-trainable params: 5,814
_________________________________________________________________
Decoder
Model: "model_26"
_________________________________________________________________
 Layer (type)                Output Shape              Param #   
=================================================================
 input_27 (InputLayer)       [(None, 632)]             0         
                                                                 
 batch_normalization_25 (Bat  (None, 632)              2528      
 chNormalization)                                                
                                                                 
 re_lu_25 (ReLU)             (None, 632)               0         
                                                                 
 dense_25 (Dense)            (None, 2907)              1840131   
                                                                 
 batch_normalization_26 (Bat  (None, 2907)             11628     
 chNormalization)                                                
                                                                 
 re_lu_26 (ReLU)             (None, 2907)              0         
                                                                 
 dense_26 (Dense)            (None, 1264)              3675712   
                                                                 
=================================================================
Total params: 5,529,999
Trainable params: 5,522,921
Non-trainable params: 7,078
_________________________________________________________________
['2.3custom_n_b', 'mse', 64, 200, 0.0005, 0.5, 632, 9.611560381017625e-05, 9.777311788639054e-05, 0.001110716575817751
…
loat'>, <class 'float'>, <class 'float'>, <class 'float'>, <class 'float'>, <class 'float'>, <class 'float'>, <class 'float'>]
./DATAFILES/MP_GapFeats2_custom_n_b already created.
Shape of dataset to encode: (106113, 1264)
Model: "model_27"
_________________________________________________________________
 Layer (type)                Output Shape              Param #   
=================================================================
 input_28 (InputLayer)       [(None, 1264)]            0         
                                                                 
 dense_27 (Dense)            (None, 3033)              3836745   
                                                                 
 batch_normalization_27 (Bat  (None, 3033)             12132     
 chNormalization)                                                
                                                                 
 re_lu_27 (ReLU)             (None, 3033)              0         
                                                                 
 bottleneck (Dense)          (None, 632)               1917488   
                                                                 
 batch_normalization_28 (Bat  (None, 632)              2528      
 chNormalization)                                                
                                                                 
 re_lu_28 (ReLU)             (None, 632)               0         
                                                                 
 dense_28 (Dense)            (None, 3033)              1919889   
                                                                 
 batch_normalization_29 (Bat  (None, 3033)             12132     
 chNormalization)                                                
                                                                 
 re_lu_29 (ReLU)             (None, 3033)              0         
                                                                 
 dense_29 (Dense)            (None, 1264)              3834976   
                                                                 
=================================================================
Total params: 11,535,890
Trainable params: 11,522,494
Non-trainable params: 13,396
_________________________________________________________________
Epoch 1/200
1493/1493 - 79s - loss: 0.0094 - val_loss: 0.0038 - 79s/epoch - 53ms/step
Epoch 2/200
1493/1493 - 78s - loss: 0.0030 - val_loss: 0.0038 - 78s/epoch - 52ms/step
…
[==============================] - 3s 9ms/step
correlation 0.0010858197010915952
cosine 0.0008556382457490152
MAE: 0.005471497
RMSE: 0.009772151
r2: 0.9938063303622444
RMSE zero-vector: 0.23411466903540806
Full AutoEncoder
Model: "model_27"
_________________________________________________________________
 Layer (type)                Output Shape              Param #   
=================================================================
 input_28 (InputLayer)       multiple                  0         
                                                                 
 dense_27 (Dense)            (None, 3033)              3836745   
                                                                 
 batch_normalization_27 (Bat  (None, 3033)             12132     
 chNormalization)                                                
                                                                 
 re_lu_27 (ReLU)             (None, 3033)              0         
                                                                 
 bottleneck (Dense)          (None, 632)               1917488   
                                                                 
 batch_normalization_28 (Bat  (None, 632)              2528      
 chNormalization)                                                
                                                                 
 re_lu_28 (ReLU)             (None, 632)               0         
                                                                 
 dense_28 (Dense)            (None, 3033)              1919889   
                                                                 
 batch_normalization_29 (Bat  (None, 3033)             12132     
 chNormalization)                                                
                                                                 
 re_lu_29 (ReLU)             (None, 3033)              0         
                                                                 
 dense_29 (Dense)            (None, 1264)              3834976   
                                                                 
=================================================================
Total params: 11,535,890
Trainable params: 11,522,494
Non-trainable params: 13,396
_________________________________________________________________
Encoder
Model: "model_28"
_________________________________________________________________
 Layer (type)                Output Shape              Param #   
=================================================================
 input_29 (InputLayer)       [(None, 1264)]            0         
                                                                 
 input_28 (InputLayer)       multiple                  0         
                                                                 
 dense_27 (Dense)            (None, 3033)              3836745   
                                                                 
 batch_normalization_27 (Bat  (None, 3033)             12132     
 chNormalization)                                                
                                                                 
 re_lu_27 (ReLU)             (None, 3033)              0         
                                                                 
 bottleneck (Dense)          (None, 632)               1917488   
                                                                 
=================================================================
Total params: 5,766,365
Trainable params: 5,760,299
Non-trainable params: 6,066
_________________________________________________________________
Decoder
Model: "model_29"
_________________________________________________________________
 Layer (type)                Output Shape              Param #   
=================================================================
 input_30 (InputLayer)       [(None, 632)]             0         
                                                                 
 batch_normalization_28 (Bat  (None, 632)              2528      
 chNormalization)                                                
                                                                 
 re_lu_28 (ReLU)             (None, 632)               0         
                                                                 
 dense_28 (Dense)            (None, 3033)              1919889   
                                                                 
 batch_normalization_29 (Bat  (None, 3033)             12132     
 chNormalization)                                                
                                                                 
 re_lu_29 (ReLU)             (None, 3033)              0         
                                                                 
 dense_29 (Dense)            (None, 1264)              3834976   
                                                                 
=================================================================
Total params: 5,769,525
Trainable params: 5,762,195
Non-trainable params: 7,330
_________________________________________________________________
['2.4custom_n_b', 'mse', 64, 200, 0.0005, 0.5, 632, 0.00010277072578901425, 9.549500828143209e-05, 0.00108581970109159
…
loat'>, <class 'float'>, <class 'float'>, <class 'float'>, <class 'float'>, <class 'float'>, <class 'float'>, <class 'float'>]
./DATAFILES/MP_GapFeats2_custom_n_b already created.
Shape of dataset to encode: (106113, 1264)
Model: "model_30"
_________________________________________________________________
 Layer (type)                Output Shape              Param #   
=================================================================
 input_31 (InputLayer)       [(None, 1264)]            0         
                                                                 
 dense_30 (Dense)            (None, 3160)              3997400   
                                                                 
 batch_normalization_30 (Bat  (None, 3160)             12640     
 chNormalization)                                                
                                                                 
 re_lu_30 (ReLU)             (None, 3160)              0         
                                                                 
 bottleneck (Dense)          (None, 632)               1997752   
                                                                 
 batch_normalization_31 (Bat  (None, 632)              2528      
 chNormalization)                                                
                                                                 
 re_lu_31 (ReLU)             (None, 632)               0         
                                                                 
 dense_31 (Dense)            (None, 3160)              2000280   
                                                                 
 batch_normalization_32 (Bat  (None, 3160)             12640     
 chNormalization)                                                
                                                                 
 re_lu_32 (ReLU)             (None, 3160)              0         
                                                                 
 dense_32 (Dense)            (None, 1264)              3995504   
                                                                 
=================================================================
Total params: 12,018,744
Trainable params: 12,004,840
Non-trainable params: 13,904
_________________________________________________________________
Epoch 1/200
1493/1493 - 87s - loss: 0.0095 - val_loss: 0.0038 - 87s/epoch - 58ms/step
Epoch 2/200
1493/1493 - 86s - loss: 0.0030 - val_loss: 0.0054 - 86s/epoch - 58ms/step
…
 [==============================] - 3s 7ms/step
correlation 0.0011378336056106458
cosine 0.000896258148390349
MAE: 0.005581746
RMSE: 0.010027074
r2: 0.9934785588458314
RMSE zero-vector: 0.23411466903540806
Full AutoEncoder
Model: "model_30"
_________________________________________________________________
 Layer (type)                Output Shape              Param #   
=================================================================
 input_31 (InputLayer)       multiple                  0         
                                                                 
 dense_30 (Dense)            (None, 3160)              3997400   
                                                                 
 batch_normalization_30 (Bat  (None, 3160)             12640     
 chNormalization)                                                
                                                                 
 re_lu_30 (ReLU)             (None, 3160)              0         
                                                                 
 bottleneck (Dense)          (None, 632)               1997752   
                                                                 
 batch_normalization_31 (Bat  (None, 632)              2528      
 chNormalization)                                                
                                                                 
 re_lu_31 (ReLU)             (None, 632)               0         
                                                                 
 dense_31 (Dense)            (None, 3160)              2000280   
                                                                 
 batch_normalization_32 (Bat  (None, 3160)             12640     
 chNormalization)                                                
                                                                 
 re_lu_32 (ReLU)             (None, 3160)              0         
                                                                 
 dense_32 (Dense)            (None, 1264)              3995504   
                                                                 
=================================================================
Total params: 12,018,744
Trainable params: 12,004,840
Non-trainable params: 13,904
_________________________________________________________________
Encoder
Model: "model_31"
_________________________________________________________________
 Layer (type)                Output Shape              Param #   
=================================================================
 input_32 (InputLayer)       [(None, 1264)]            0         
                                                                 
 input_31 (InputLayer)       multiple                  0         
                                                                 
 dense_30 (Dense)            (None, 3160)              3997400   
                                                                 
 batch_normalization_30 (Bat  (None, 3160)             12640     
 chNormalization)                                                
                                                                 
 re_lu_30 (ReLU)             (None, 3160)              0         
                                                                 
 bottleneck (Dense)          (None, 632)               1997752   
                                                                 
=================================================================
Total params: 6,007,792
Trainable params: 6,001,472
Non-trainable params: 6,320
_________________________________________________________________
Decoder
Model: "model_32"
_________________________________________________________________
 Layer (type)                Output Shape              Param #   
=================================================================
 input_33 (InputLayer)       [(None, 632)]             0         
                                                                 
 batch_normalization_31 (Bat  (None, 632)              2528      
 chNormalization)                                                
                                                                 
 re_lu_31 (ReLU)             (None, 632)               0         
                                                                 
 dense_31 (Dense)            (None, 3160)              2000280   
                                                                 
 batch_normalization_32 (Bat  (None, 3160)             12640     
 chNormalization)                                                
                                                                 
 re_lu_32 (ReLU)             (None, 3160)              0         
                                                                 
 dense_32 (Dense)            (None, 1264)              3995504   
                                                                 
=================================================================
Total params: 6,010,952
Trainable params: 6,003,368
Non-trainable params: 7,584
_________________________________________________________________
['2.5custom_n_b', 'mse', 64, 200, 0.0005, 0.5, 632, 9.78766183834523e-05, 0.00010054231097456068, 0.001137833605610645
…
