…
2022-12-28 16:07:18.909665: I tensorflow/core/platform/cpu_feature_guard.cc:193] This TensorFlow binary is optimized with oneAPI Deep Neural Network Library (oneDNN) to use the following CPU instructions in performance-critical operations:  SSE4.1 SSE4.2 AVX AVX2 AVX512F AVX512_VNNI FMA
To enable them in other operations, rebuild TensorFlow with the appropriate compiler flags.
Model: "model"
_________________________________________________________________
 Layer (type)                Output Shape              Param #   
=================================================================
 input_1 (InputLayer)        [(None, 1264)]            0         
                                                                 
 dense (Dense)               (None, 1896)              2398440   
                                                                 
 batch_normalization (BatchN  (None, 1896)             7584      
 ormalization)                                                   
                                                                 
 re_lu (ReLU)                (None, 1896)              0         
                                                                 
 bottleneck (Dense)          (None, 1011)              1917867   
                                                                 
 batch_normalization_1 (Batc  (None, 1011)             4044      
 hNormalization)                                                 
                                                                 
 re_lu_1 (ReLU)              (None, 1011)              0         
                                                                 
 dense_1 (Dense)             (None, 1896)              1918752   
                                                                 
 batch_normalization_2 (Batc  (None, 1896)             7584      
 hNormalization)                                                 
                                                                 
 re_lu_2 (ReLU)              (None, 1896)              0         
                                                                 
 dense_2 (Dense)             (None, 1264)              2397808   
                                                                 
=================================================================
Total params: 8,652,079
Trainable params: 8,642,473
Non-trainable params: 9,606
_________________________________________________________________
Epoch 1/200
1493/1493 - 53s - loss: 0.0089 - val_loss: 0.0042 - 53s/epoch - 35ms/step
Epoch 2/200
1493/1493 - 52s - loss: 0.0028 - val_loss: 0.0027 - 52s/epoch - 35ms/step
…
