…
2022-12-28 01:22:19.925800: I tensorflow/core/platform/cpu_feature_guard.cc:193] This TensorFlow binary is optimized with oneAPI Deep Neural Network Library (oneDNN) to use the following CPU instructions in performance-critical operations:  SSE4.1 SSE4.2 AVX AVX2 AVX512F AVX512_VNNI FMA
To enable them in other operations, rebuild TensorFlow with the appropriate compiler flags.
Model: "model"
_________________________________________________________________
 Layer (type)                Output Shape              Param #   
=================================================================
 input_1 (InputLayer)        [(None, 1264)]            0         
                                                                 
 dense (Dense)               (None, 1896)              2398440   
                                                                 
 batch_normalization (BatchN  (None, 1896)             7584      
 ormalization)                                                   
                                                                 
 re_lu (ReLU)                (None, 1896)              0         
                                                                 
 bottleneck (Dense)          (None, 252)               478044    
                                                                 
 batch_normalization_1 (Batc  (None, 252)              1008      
 hNormalization)                                                 
                                                                 
 re_lu_1 (ReLU)              (None, 252)               0         
                                                                 
 dense_1 (Dense)             (None, 1896)              479688    
                                                                 
 batch_normalization_2 (Batc  (None, 1896)             7584      
 hNormalization)                                                 
                                                                 
 re_lu_2 (ReLU)              (None, 1896)              0         
                                                                 
 dense_2 (Dense)             (None, 1264)              2397808   
                                                                 
=================================================================
Total params: 5,770,156
Trainable params: 5,762,068
Non-trainable params: 8,088
_________________________________________________________________
Epoch 1/200
1493/1493 - 51s - loss: 0.0100 - val_loss: 0.0053 - 51s/epoch - 34ms/step
Epoch 2/200
1493/1493 - 50s - loss: 0.0036 - val_loss: 0.0029 - 50s/epoch - 33ms/step
…
32 [==============================] - 2s 5ms/step
correlation 0.0024594713551477805
cosine 0.0019404829121336953
MAE: 0.007963079
RMSE: 0.014605403
r2: 0.9861619153568315
RMSE zero-vector: 0.23411466903540806
Full AutoEncoder
Model: "model"
_________________________________________________________________
 Layer (type)                Output Shape              Param #   
=================================================================
 input_1 (InputLayer)        multiple                  0         
                                                                 
 dense (Dense)               (None, 1896)              2398440   
                                                                 
 batch_normalization (BatchN  (None, 1896)             7584      
 ormalization)                                                   
                                                                 
 re_lu (ReLU)                (None, 1896)              0         
                                                                 
 bottleneck (Dense)          (None, 252)               478044    
                                                                 
 batch_normalization_1 (Batc  (None, 252)              1008      
 hNormalization)                                                 
                                                                 
 re_lu_1 (ReLU)              (None, 252)               0         
                                                                 
 dense_1 (Dense)             (None, 1896)              479688    
                                                                 
 batch_normalization_2 (Batc  (None, 1896)             7584      
 hNormalization)                                                 
                                                                 
 re_lu_2 (ReLU)              (None, 1896)              0         
                                                                 
 dense_2 (Dense)             (None, 1264)              2397808   
                                                                 
=================================================================
Total params: 5,770,156
Trainable params: 5,762,068
Non-trainable params: 8,088
_________________________________________________________________
Encoder
Model: "model_1"
_________________________________________________________________
 Layer (type)                Output Shape              Param #   
=================================================================
 input_2 (InputLayer)        [(None, 1264)]            0         
                                                                 
 input_1 (InputLayer)        multiple                  0         
                                                                 
 dense (Dense)               (None, 1896)              2398440   
                                                                 
 batch_normalization (BatchN  (None, 1896)             7584      
 ormalization)                                                   
                                                                 
 re_lu (ReLU)                (None, 1896)              0         
                                                                 
 bottleneck (Dense)          (None, 252)               478044    
                                                                 
=================================================================
Total params: 2,884,068
Trainable params: 2,880,276
Non-trainable params: 3,792
_________________________________________________________________
Decoder
Model: "model_2"
_________________________________________________________________
 Layer (type)                Output Shape              Param #   
=================================================================
 input_3 (InputLayer)        [(None, 252)]             0         
                                                                 
 batch_normalization_1 (Batc  (None, 252)              1008      
 hNormalization)                                                 
                                                                 
 re_lu_1 (ReLU)              (None, 252)               0         
                                                                 
 dense_1 (Dense)             (None, 1896)              479688    
                                                                 
 batch_normalization_2 (Batc  (None, 1896)             7584      
 hNormalization)                                                 
                                                                 
 re_lu_2 (ReLU)              (None, 1896)              0         
                                                                 
 dense_2 (Dense)             (None, 1264)              2397808   
                                                                 
=================================================================
Total params: 2,886,088
Trainable params: 2,881,792
Non-trainable params: 4,296
_________________________________________________________________
['1.5custom_n_b', 'mse', 64, 200, 0.0005, 0.2, 252, 0.00020555446099024266, 0.00021331799507606775, 0.0024594713551477
…
'float'>, <class 'float'>, <class 'float'>, <class 'float'>, <class 'float'>, <class 'float'>, <class 'float'>, <class 'float'>]
./DATAFILES/MP_GapFeats_custom_n_b already created.
Shape of dataset to encode: (106113, 1264)
Model: "model_3"
_________________________________________________________________
 Layer (type)                Output Shape              Param #   
=================================================================
 input_4 (InputLayer)        [(None, 1264)]            0         
                                                                 
 dense_3 (Dense)             (None, 2022)              2557830   
                                                                 
 batch_normalization_3 (Batc  (None, 2022)             8088      
 hNormalization)                                                 
                                                                 
 re_lu_3 (ReLU)              (None, 2022)              0         
                                                                 
 bottleneck (Dense)          (None, 252)               509796    
                                                                 
 batch_normalization_4 (Batc  (None, 252)              1008      
 hNormalization)                                                 
                                                                 
 re_lu_4 (ReLU)              (None, 252)               0         
                                                                 
 dense_4 (Dense)             (None, 2022)              511566    
                                                                 
 batch_normalization_5 (Batc  (None, 2022)             8088      
 hNormalization)                                                 
                                                                 
 re_lu_5 (ReLU)              (None, 2022)              0         
                                                                 
 dense_5 (Dense)             (None, 1264)              2557072   
                                                                 
=================================================================
Total params: 6,153,448
Trainable params: 6,144,856
Non-trainable params: 8,592
_________________________________________________________________
Epoch 1/200
1493/1493 - 54s - loss: 0.0101 - val_loss: 0.0045 - 54s/epoch - 36ms/step
Epoch 2/200
1493/1493 - 54s - loss: 0.0035 - val_loss: 0.0031 - 54s/epoch - 36ms/step
…
2 [==============================] - 2s 5ms/step
correlation 0.0023637364888433867
cosine 0.0018629418918424132
MAE: 0.007816281
RMSE: 0.01433355
r2: 0.9866723531899937
RMSE zero-vector: 0.23411466903540806
Full AutoEncoder
Model: "model_3"
_________________________________________________________________
 Layer (type)                Output Shape              Param #   
=================================================================
 input_4 (InputLayer)        multiple                  0         
                                                                 
 dense_3 (Dense)             (None, 2022)              2557830   
                                                                 
 batch_normalization_3 (Batc  (None, 2022)             8088      
 hNormalization)                                                 
                                                                 
 re_lu_3 (ReLU)              (None, 2022)              0         
                                                                 
 bottleneck (Dense)          (None, 252)               509796    
                                                                 
 batch_normalization_4 (Batc  (None, 252)              1008      
 hNormalization)                                                 
                                                                 
 re_lu_4 (ReLU)              (None, 252)               0         
                                                                 
 dense_4 (Dense)             (None, 2022)              511566    
                                                                 
 batch_normalization_5 (Batc  (None, 2022)             8088      
 hNormalization)                                                 
                                                                 
 re_lu_5 (ReLU)              (None, 2022)              0         
                                                                 
 dense_5 (Dense)             (None, 1264)              2557072   
                                                                 
=================================================================
Total params: 6,153,448
Trainable params: 6,144,856
Non-trainable params: 8,592
_________________________________________________________________
Encoder
Model: "model_4"
_________________________________________________________________
 Layer (type)                Output Shape              Param #   
=================================================================
 input_5 (InputLayer)        [(None, 1264)]            0         
                                                                 
 input_4 (InputLayer)        multiple                  0         
                                                                 
 dense_3 (Dense)             (None, 2022)              2557830   
                                                                 
 batch_normalization_3 (Batc  (None, 2022)             8088      
 hNormalization)                                                 
                                                                 
 re_lu_3 (ReLU)              (None, 2022)              0         
                                                                 
 bottleneck (Dense)          (None, 252)               509796    
                                                                 
=================================================================
Total params: 3,075,714
Trainable params: 3,071,670
Non-trainable params: 4,044
_________________________________________________________________
Decoder
Model: "model_5"
_________________________________________________________________
 Layer (type)                Output Shape              Param #   
=================================================================
 input_6 (InputLayer)        [(None, 252)]             0         
                                                                 
 batch_normalization_4 (Batc  (None, 252)              1008      
 hNormalization)                                                 
                                                                 
 re_lu_4 (ReLU)              (None, 252)               0         
                                                                 
 dense_4 (Dense)             (None, 2022)              511566    
                                                                 
 batch_normalization_5 (Batc  (None, 2022)             8088      
 hNormalization)                                                 
                                                                 
 re_lu_5 (ReLU)              (None, 2022)              0         
                                                                 
 dense_5 (Dense)             (None, 1264)              2557072   
                                                                 
=================================================================
Total params: 3,077,734
Trainable params: 3,073,186
Non-trainable params: 4,548
_________________________________________________________________
['1.6custom_n_b', 'mse', 64, 200, 0.0005, 0.2, 252, 0.0002046617737505585, 0.00020545088045764714, 0.00236373648884338
…
'float'>, <class 'float'>, <class 'float'>, <class 'float'>, <class 'float'>, <class 'float'>, <class 'float'>, <class 'float'>]
./DATAFILES/MP_GapFeats_custom_n_b already created.
Shape of dataset to encode: (106113, 1264)
Model: "model_6"
_________________________________________________________________
 Layer (type)                Output Shape              Param #   
=================================================================
 input_7 (InputLayer)        [(None, 1264)]            0         
                                                                 
 dense_6 (Dense)             (None, 2148)              2717220   
                                                                 
 batch_normalization_6 (Batc  (None, 2148)             8592      
 hNormalization)                                                 
                                                                 
 re_lu_6 (ReLU)              (None, 2148)              0         
                                                                 
 bottleneck (Dense)          (None, 252)               541548    
                                                                 
 batch_normalization_7 (Batc  (None, 252)              1008      
 hNormalization)                                                 
                                                                 
 re_lu_7 (ReLU)              (None, 252)               0         
                                                                 
 dense_7 (Dense)             (None, 2148)              543444    
                                                                 
 batch_normalization_8 (Batc  (None, 2148)             8592      
 hNormalization)                                                 
                                                                 
 re_lu_8 (ReLU)              (None, 2148)              0         
                                                                 
 dense_8 (Dense)             (None, 1264)              2716336   
                                                                 
=================================================================
Total params: 6,536,740
Trainable params: 6,527,644
Non-trainable params: 9,096
_________________________________________________________________
Epoch 1/200
1493/1493 - 57s - loss: 0.0102 - val_loss: 0.0051 - 57s/epoch - 38ms/step
Epoch 2/200
1493/1493 - 56s - loss: 0.0035 - val_loss: 0.0031 - 56s/epoch - 38ms/step
…
 [==============================] - 2s 5ms/step
correlation 0.002314657680591996
cosine 0.0018240666045721999
MAE: 0.0078071402
RMSE: 0.014205975
r2: 0.9869085338635954
RMSE zero-vector: 0.23411466903540806
Full AutoEncoder
Model: "model_6"
_________________________________________________________________
 Layer (type)                Output Shape              Param #   
=================================================================
 input_7 (InputLayer)        multiple                  0         
                                                                 
 dense_6 (Dense)             (None, 2148)              2717220   
                                                                 
 batch_normalization_6 (Batc  (None, 2148)             8592      
 hNormalization)                                                 
                                                                 
 re_lu_6 (ReLU)              (None, 2148)              0         
                                                                 
 bottleneck (Dense)          (None, 252)               541548    
                                                                 
 batch_normalization_7 (Batc  (None, 252)              1008      
 hNormalization)                                                 
                                                                 
 re_lu_7 (ReLU)              (None, 252)               0         
                                                                 
 dense_7 (Dense)             (None, 2148)              543444    
                                                                 
 batch_normalization_8 (Batc  (None, 2148)             8592      
 hNormalization)                                                 
                                                                 
 re_lu_8 (ReLU)              (None, 2148)              0         
                                                                 
 dense_8 (Dense)             (None, 1264)              2716336   
                                                                 
=================================================================
Total params: 6,536,740
Trainable params: 6,527,644
Non-trainable params: 9,096
_________________________________________________________________
Encoder
Model: "model_7"
_________________________________________________________________
 Layer (type)                Output Shape              Param #   
=================================================================
 input_8 (InputLayer)        [(None, 1264)]            0         
                                                                 
 input_7 (InputLayer)        multiple                  0         
                                                                 
 dense_6 (Dense)             (None, 2148)              2717220   
                                                                 
 batch_normalization_6 (Batc  (None, 2148)             8592      
 hNormalization)                                                 
                                                                 
 re_lu_6 (ReLU)              (None, 2148)              0         
                                                                 
 bottleneck (Dense)          (None, 252)               541548    
                                                                 
=================================================================
Total params: 3,267,360
Trainable params: 3,263,064
Non-trainable params: 4,296
_________________________________________________________________
Decoder
Model: "model_8"
_________________________________________________________________
 Layer (type)                Output Shape              Param #   
=================================================================
 input_9 (InputLayer)        [(None, 252)]             0         
                                                                 
 batch_normalization_7 (Batc  (None, 252)              1008      
 hNormalization)                                                 
                                                                 
 re_lu_7 (ReLU)              (None, 252)               0         
                                                                 
 dense_7 (Dense)             (None, 2148)              543444    
                                                                 
 batch_normalization_8 (Batc  (None, 2148)             8592      
 hNormalization)                                                 
                                                                 
 re_lu_8 (ReLU)              (None, 2148)              0         
                                                                 
 dense_8 (Dense)             (None, 1264)              2716336   
                                                                 
=================================================================
Total params: 3,269,380
Trainable params: 3,264,580
Non-trainable params: 4,800
_________________________________________________________________
['1.7custom_n_b', 'mse', 64, 200, 0.0005, 0.2, 252, 0.00019598928338382393, 0.00020180991850793362, 0.0023146576805919
…
'float'>, <class 'float'>, <class 'float'>, <class 'float'>, <class 'float'>, <class 'float'>, <class 'float'>, <class 'float'>]
./DATAFILES/MP_GapFeats_custom_n_b already created.
Shape of dataset to encode: (106113, 1264)
Model: "model_9"
_________________________________________________________________
 Layer (type)                Output Shape              Param #   
=================================================================
 input_10 (InputLayer)       [(None, 1264)]            0         
                                                                 
 dense_9 (Dense)             (None, 2275)              2877875   
                                                                 
 batch_normalization_9 (Batc  (None, 2275)             9100      
 hNormalization)                                                 
                                                                 
 re_lu_9 (ReLU)              (None, 2275)              0         
                                                                 
 bottleneck (Dense)          (None, 252)               573552    
                                                                 
 batch_normalization_10 (Bat  (None, 252)              1008      
 chNormalization)                                                
                                                                 
 re_lu_10 (ReLU)             (None, 252)               0         
                                                                 
 dense_10 (Dense)            (None, 2275)              575575    
                                                                 
 batch_normalization_11 (Bat  (None, 2275)             9100      
 chNormalization)                                                
                                                                 
 re_lu_11 (ReLU)             (None, 2275)              0         
                                                                 
 dense_11 (Dense)            (None, 1264)              2876864   
                                                                 
=================================================================
Total params: 6,923,074
Trainable params: 6,913,470
Non-trainable params: 9,604
_________________________________________________________________
Epoch 1/200
1493/1493 - 61s - loss: 0.0099 - val_loss: 0.0050 - 61s/epoch - 41ms/step
Epoch 2/200
1493/1493 - 60s - loss: 0.0035 - val_loss: 0.0032 - 60s/epoch - 40ms/step
…
 [==============================] - 2s 6ms/step
correlation 0.0024438844877865645
cosine 0.001925442630373843
MAE: 0.007812967
RMSE: 0.0145820975
r2: 0.9862062739782043
RMSE zero-vector: 0.23411466903540806
Full AutoEncoder
Model: "model_9"
_________________________________________________________________
 Layer (type)                Output Shape              Param #   
=================================================================
 input_10 (InputLayer)       multiple                  0         
                                                                 
 dense_9 (Dense)             (None, 2275)              2877875   
                                                                 
 batch_normalization_9 (Batc  (None, 2275)             9100      
 hNormalization)                                                 
                                                                 
 re_lu_9 (ReLU)              (None, 2275)              0         
                                                                 
 bottleneck (Dense)          (None, 252)               573552    
                                                                 
 batch_normalization_10 (Bat  (None, 252)              1008      
 chNormalization)                                                
                                                                 
 re_lu_10 (ReLU)             (None, 252)               0         
                                                                 
 dense_10 (Dense)            (None, 2275)              575575    
                                                                 
 batch_normalization_11 (Bat  (None, 2275)             9100      
 chNormalization)                                                
                                                                 
 re_lu_11 (ReLU)             (None, 2275)              0         
                                                                 
 dense_11 (Dense)            (None, 1264)              2876864   
                                                                 
=================================================================
Total params: 6,923,074
Trainable params: 6,913,470
Non-trainable params: 9,604
_________________________________________________________________
Encoder
Model: "model_10"
_________________________________________________________________
 Layer (type)                Output Shape              Param #   
=================================================================
 input_11 (InputLayer)       [(None, 1264)]            0         
                                                                 
 input_10 (InputLayer)       multiple                  0         
                                                                 
 dense_9 (Dense)             (None, 2275)              2877875   
                                                                 
 batch_normalization_9 (Batc  (None, 2275)             9100      
 hNormalization)                                                 
                                                                 
 re_lu_9 (ReLU)              (None, 2275)              0         
                                                                 
 bottleneck (Dense)          (None, 252)               573552    
                                                                 
=================================================================
Total params: 3,460,527
Trainable params: 3,455,977
Non-trainable params: 4,550
_________________________________________________________________
Decoder
Model: "model_11"
_________________________________________________________________
 Layer (type)                Output Shape              Param #   
=================================================================
 input_12 (InputLayer)       [(None, 252)]             0         
                                                                 
 batch_normalization_10 (Bat  (None, 252)              1008      
 chNormalization)                                                
                                                                 
 re_lu_10 (ReLU)             (None, 252)               0         
                                                                 
 dense_10 (Dense)            (None, 2275)              575575    
                                                                 
 batch_normalization_11 (Bat  (None, 2275)             9100      
 chNormalization)                                                
                                                                 
 re_lu_11 (ReLU)             (None, 2275)              0         
                                                                 
 dense_11 (Dense)            (None, 1264)              2876864   
                                                                 
=================================================================
Total params: 3,462,547
Trainable params: 3,457,493
Non-trainable params: 5,054
_________________________________________________________________
['1.8custom_n_b', 'mse', 64, 200, 0.0005, 0.2, 252, 0.0001970883458852768, 0.00021263776579871774, 0.00244388448778656
…
float'>, <class 'float'>, <class 'float'>, <class 'float'>, <class 'float'>, <class 'float'>, <class 'float'>, <class 'float'>]
./DATAFILES/MP_GapFeats_custom_n_b already created.
Shape of dataset to encode: (106113, 1264)
Model: "model_12"
_________________________________________________________________
 Layer (type)                Output Shape              Param #   
=================================================================
 input_13 (InputLayer)       [(None, 1264)]            0         
                                                                 
 dense_12 (Dense)            (None, 2401)              3037265   
                                                                 
 batch_normalization_12 (Bat  (None, 2401)             9604      
 chNormalization)                                                
                                                                 
 re_lu_12 (ReLU)             (None, 2401)              0         
                                                                 
 bottleneck (Dense)          (None, 252)               605304    
                                                                 
 batch_normalization_13 (Bat  (None, 252)              1008      
 chNormalization)                                                
                                                                 
 re_lu_13 (ReLU)             (None, 252)               0         
                                                                 
 dense_13 (Dense)            (None, 2401)              607453    
                                                                 
 batch_normalization_14 (Bat  (None, 2401)             9604      
 chNormalization)                                                
                                                                 
 re_lu_14 (ReLU)             (None, 2401)              0         
                                                                 
 dense_14 (Dense)            (None, 1264)              3036128   
                                                                 
=================================================================
Total params: 7,306,366
Trainable params: 7,296,258
Non-trainable params: 10,108
_________________________________________________________________
Epoch 1/200
1493/1493 - 64s - loss: 0.0101 - val_loss: 0.0057 - 64s/epoch - 43ms/step
Epoch 2/200
1493/1493 - 62s - loss: 0.0037 - val_loss: 0.0036 - 62s/epoch - 42ms/step
…
[==============================] - 2s 6ms/step
correlation 0.002163571229396206
cosine 0.0017041182949369554
MAE: 0.0074844165
RMSE: 0.013727473
r2: 0.9877758070851974
RMSE zero-vector: 0.23411466903540806
Full AutoEncoder
Model: "model_12"
_________________________________________________________________
 Layer (type)                Output Shape              Param #   
=================================================================
 input_13 (InputLayer)       multiple                  0         
                                                                 
 dense_12 (Dense)            (None, 2401)              3037265   
                                                                 
 batch_normalization_12 (Bat  (None, 2401)             9604      
 chNormalization)                                                
                                                                 
 re_lu_12 (ReLU)             (None, 2401)              0         
                                                                 
 bottleneck (Dense)          (None, 252)               605304    
                                                                 
 batch_normalization_13 (Bat  (None, 252)              1008      
 chNormalization)                                                
                                                                 
 re_lu_13 (ReLU)             (None, 252)               0         
                                                                 
 dense_13 (Dense)            (None, 2401)              607453    
                                                                 
 batch_normalization_14 (Bat  (None, 2401)             9604      
 chNormalization)                                                
                                                                 
 re_lu_14 (ReLU)             (None, 2401)              0         
                                                                 
 dense_14 (Dense)            (None, 1264)              3036128   
                                                                 
=================================================================
Total params: 7,306,366
Trainable params: 7,296,258
Non-trainable params: 10,108
_________________________________________________________________
Encoder
Model: "model_13"
_________________________________________________________________
 Layer (type)                Output Shape              Param #   
=================================================================
 input_14 (InputLayer)       [(None, 1264)]            0         
                                                                 
 input_13 (InputLayer)       multiple                  0         
                                                                 
 dense_12 (Dense)            (None, 2401)              3037265   
                                                                 
 batch_normalization_12 (Bat  (None, 2401)             9604      
 chNormalization)                                                
                                                                 
 re_lu_12 (ReLU)             (None, 2401)              0         
                                                                 
 bottleneck (Dense)          (None, 252)               605304    
                                                                 
=================================================================
Total params: 3,652,173
Trainable params: 3,647,371
Non-trainable params: 4,802
_________________________________________________________________
Decoder
Model: "model_14"
_________________________________________________________________
 Layer (type)                Output Shape              Param #   
=================================================================
 input_15 (InputLayer)       [(None, 252)]             0         
                                                                 
 batch_normalization_13 (Bat  (None, 252)              1008      
 chNormalization)                                                
                                                                 
 re_lu_13 (ReLU)             (None, 252)               0         
                                                                 
 dense_13 (Dense)            (None, 2401)              607453    
                                                                 
 batch_normalization_14 (Bat  (None, 2401)             9604      
 chNormalization)                                                
                                                                 
 re_lu_14 (ReLU)             (None, 2401)              0         
                                                                 
 dense_14 (Dense)            (None, 1264)              3036128   
                                                                 
=================================================================
Total params: 3,654,193
Trainable params: 3,648,887
Non-trainable params: 5,306
_________________________________________________________________
['1.9custom_n_b', 'mse', 64, 200, 0.0005, 0.2, 252, 0.00017894463962875307, 0.00018844372243620455, 0.0021635712293962
…
float'>, <class 'float'>, <class 'float'>, <class 'float'>, <class 'float'>, <class 'float'>, <class 'float'>, <class 'float'>]
./DATAFILES/MP_GapFeats_custom_n_b already created.
Shape of dataset to encode: (106113, 1264)
Model: "model_15"
_________________________________________________________________
 Layer (type)                Output Shape              Param #   
=================================================================
 input_16 (InputLayer)       [(None, 1264)]            0         
                                                                 
 dense_15 (Dense)            (None, 2528)              3197920   
                                                                 
 batch_normalization_15 (Bat  (None, 2528)             10112     
 chNormalization)                                                
                                                                 
 re_lu_15 (ReLU)             (None, 2528)              0         
                                                                 
 bottleneck (Dense)          (None, 252)               637308    
                                                                 
 batch_normalization_16 (Bat  (None, 252)              1008      
 chNormalization)                                                
                                                                 
 re_lu_16 (ReLU)             (None, 252)               0         
                                                                 
 dense_16 (Dense)            (None, 2528)              639584    
                                                                 
 batch_normalization_17 (Bat  (None, 2528)             10112     
 chNormalization)                                                
                                                                 
 re_lu_17 (ReLU)             (None, 2528)              0         
                                                                 
 dense_17 (Dense)            (None, 1264)              3196656   
                                                                 
=================================================================
Total params: 7,692,700
Trainable params: 7,682,084
Non-trainable params: 10,616
_________________________________________________________________
Epoch 1/200
1493/1493 - 65s - loss: 0.0103 - val_loss: 0.0048 - 65s/epoch - 43ms/step
Epoch 2/200
1493/1493 - 64s - loss: 0.0035 - val_loss: 0.0034 - 64s/epoch - 43ms/step
…
==============================] - 2s 6ms/step
correlation 0.0022843231907261124
cosine 0.0017978932569487967
MAE: 0.0077361516
RMSE: 0.014169801
r2: 0.9869752388984494
RMSE zero-vector: 0.23411466903540806
Full AutoEncoder
Model: "model_15"
_________________________________________________________________
 Layer (type)                Output Shape              Param #   
=================================================================
 input_16 (InputLayer)       multiple                  0         
                                                                 
 dense_15 (Dense)            (None, 2528)              3197920   
                                                                 
 batch_normalization_15 (Bat  (None, 2528)             10112     
 chNormalization)                                                
                                                                 
 re_lu_15 (ReLU)             (None, 2528)              0         
                                                                 
 bottleneck (Dense)          (None, 252)               637308    
                                                                 
 batch_normalization_16 (Bat  (None, 252)              1008      
 chNormalization)                                                
                                                                 
 re_lu_16 (ReLU)             (None, 252)               0         
                                                                 
 dense_16 (Dense)            (None, 2528)              639584    
                                                                 
 batch_normalization_17 (Bat  (None, 2528)             10112     
 chNormalization)                                                
                                                                 
 re_lu_17 (ReLU)             (None, 2528)              0         
                                                                 
 dense_17 (Dense)            (None, 1264)              3196656   
                                                                 
=================================================================
Total params: 7,692,700
Trainable params: 7,682,084
Non-trainable params: 10,616
_________________________________________________________________
Encoder
Model: "model_16"
_________________________________________________________________
 Layer (type)                Output Shape              Param #   
=================================================================
 input_17 (InputLayer)       [(None, 1264)]            0         
                                                                 
 input_16 (InputLayer)       multiple                  0         
                                                                 
 dense_15 (Dense)            (None, 2528)              3197920   
                                                                 
 batch_normalization_15 (Bat  (None, 2528)             10112     
 chNormalization)                                                
                                                                 
 re_lu_15 (ReLU)             (None, 2528)              0         
                                                                 
 bottleneck (Dense)          (None, 252)               637308    
                                                                 
=================================================================
Total params: 3,845,340
Trainable params: 3,840,284
Non-trainable params: 5,056
_________________________________________________________________
Decoder
Model: "model_17"
_________________________________________________________________
 Layer (type)                Output Shape              Param #   
=================================================================
 input_18 (InputLayer)       [(None, 252)]             0         
                                                                 
 batch_normalization_16 (Bat  (None, 252)              1008      
 chNormalization)                                                
                                                                 
 re_lu_16 (ReLU)             (None, 252)               0         
                                                                 
 dense_16 (Dense)            (None, 2528)              639584    
                                                                 
 batch_normalization_17 (Bat  (None, 2528)             10112     
 chNormalization)                                                
                                                                 
 re_lu_17 (ReLU)             (None, 2528)              0         
                                                                 
 dense_17 (Dense)            (None, 1264)              3196656   
                                                                 
=================================================================
Total params: 3,847,360
Trainable params: 3,841,800
Non-trainable params: 5,560
_________________________________________________________________
['2.0custom_n_b', 'mse', 64, 200, 0.0005, 0.2, 252, 0.00018169268150813878, 0.00020078342640772462, 0.0022843231907261
…
float'>, <class 'float'>, <class 'float'>, <class 'float'>, <class 'float'>, <class 'float'>, <class 'float'>, <class 'float'>]
./DATAFILES/MP_GapFeats_custom_n_b already created.
Shape of dataset to encode: (106113, 1264)
Model: "model_18"
_________________________________________________________________
 Layer (type)                Output Shape              Param #   
=================================================================
 input_19 (InputLayer)       [(None, 1264)]            0         
                                                                 
 dense_18 (Dense)            (None, 2654)              3357310   
                                                                 
 batch_normalization_18 (Bat  (None, 2654)             10616     
 chNormalization)                                                
                                                                 
 re_lu_18 (ReLU)             (None, 2654)              0         
                                                                 
 bottleneck (Dense)          (None, 252)               669060    
                                                                 
 batch_normalization_19 (Bat  (None, 252)              1008      
 chNormalization)                                                
                                                                 
 re_lu_19 (ReLU)             (None, 252)               0         
                                                                 
 dense_19 (Dense)            (None, 2654)              671462    
                                                                 
 batch_normalization_20 (Bat  (None, 2654)             10616     
 chNormalization)                                                
                                                                 
 re_lu_20 (ReLU)             (None, 2654)              0         
                                                                 
 dense_20 (Dense)            (None, 1264)              3355920   
                                                                 
=================================================================
Total params: 8,075,992
Trainable params: 8,064,872
Non-trainable params: 11,120
_________________________________________________________________
Epoch 1/200
1493/1493 - 70s - loss: 0.0102 - val_loss: 0.0046 - 70s/epoch - 47ms/step
Epoch 2/200
1493/1493 - 69s - loss: 0.0035 - val_loss: 0.0029 - 69s/epoch - 46ms/step
…
 [==============================] - 2s 7ms/step
correlation 0.002302635235018969
cosine 0.0018122174011461249
MAE: 0.007565827
RMSE: 0.014138673
r2: 0.9870323999335023
RMSE zero-vector: 0.23411466903540806
Full AutoEncoder
Model: "model_18"
_________________________________________________________________
 Layer (type)                Output Shape              Param #   
=================================================================
 input_19 (InputLayer)       multiple                  0         
                                                                 
 dense_18 (Dense)            (None, 2654)              3357310   
                                                                 
 batch_normalization_18 (Bat  (None, 2654)             10616     
 chNormalization)                                                
                                                                 
 re_lu_18 (ReLU)             (None, 2654)              0         
                                                                 
 bottleneck (Dense)          (None, 252)               669060    
                                                                 
 batch_normalization_19 (Bat  (None, 252)              1008      
 chNormalization)                                                
                                                                 
 re_lu_19 (ReLU)             (None, 252)               0         
                                                                 
 dense_19 (Dense)            (None, 2654)              671462    
                                                                 
 batch_normalization_20 (Bat  (None, 2654)             10616     
 chNormalization)                                                
                                                                 
 re_lu_20 (ReLU)             (None, 2654)              0         
                                                                 
 dense_20 (Dense)            (None, 1264)              3355920   
                                                                 
=================================================================
Total params: 8,075,992
Trainable params: 8,064,872
Non-trainable params: 11,120
_________________________________________________________________
Encoder
Model: "model_19"
_________________________________________________________________
 Layer (type)                Output Shape              Param #   
=================================================================
 input_20 (InputLayer)       [(None, 1264)]            0         
                                                                 
 input_19 (InputLayer)       multiple                  0         
                                                                 
 dense_18 (Dense)            (None, 2654)              3357310   
                                                                 
 batch_normalization_18 (Bat  (None, 2654)             10616     
 chNormalization)                                                
                                                                 
 re_lu_18 (ReLU)             (None, 2654)              0         
                                                                 
 bottleneck (Dense)          (None, 252)               669060    
                                                                 
=================================================================
Total params: 4,036,986
Trainable params: 4,031,678
Non-trainable params: 5,308
_________________________________________________________________
Decoder
Model: "model_20"
_________________________________________________________________
 Layer (type)                Output Shape              Param #   
=================================================================
 input_21 (InputLayer)       [(None, 252)]             0         
                                                                 
 batch_normalization_19 (Bat  (None, 252)              1008      
 chNormalization)                                                
                                                                 
 re_lu_19 (ReLU)             (None, 252)               0         
                                                                 
 dense_19 (Dense)            (None, 2654)              671462    
                                                                 
 batch_normalization_20 (Bat  (None, 2654)             10616     
 chNormalization)                                                
                                                                 
 re_lu_20 (ReLU)             (None, 2654)              0         
                                                                 
 dense_20 (Dense)            (None, 1264)              3355920   
                                                                 
=================================================================
Total params: 4,039,006
Trainable params: 4,033,194
Non-trainable params: 5,812
_________________________________________________________________
['2.1custom_n_b', 'mse', 64, 200, 0.0005, 0.2, 252, 0.00019047314708586782, 0.00019990236614830792, 0.0023026352350189
…
float'>, <class 'float'>, <class 'float'>, <class 'float'>, <class 'float'>, <class 'float'>, <class 'float'>, <class 'float'>]
./DATAFILES/MP_GapFeats_custom_n_b already created.
Shape of dataset to encode: (106113, 1264)
Model: "model_21"
_________________________________________________________________
 Layer (type)                Output Shape              Param #   
=================================================================
 input_22 (InputLayer)       [(None, 1264)]            0         
                                                                 
 dense_21 (Dense)            (None, 2780)              3516700   
                                                                 
 batch_normalization_21 (Bat  (None, 2780)             11120     
 chNormalization)                                                
                                                                 
 re_lu_21 (ReLU)             (None, 2780)              0         
                                                                 
 bottleneck (Dense)          (None, 252)               700812    
                                                                 
 batch_normalization_22 (Bat  (None, 252)              1008      
 chNormalization)                                                
                                                                 
 re_lu_22 (ReLU)             (None, 252)               0         
                                                                 
 dense_22 (Dense)            (None, 2780)              703340    
                                                                 
 batch_normalization_23 (Bat  (None, 2780)             11120     
 chNormalization)                                                
                                                                 
 re_lu_23 (ReLU)             (None, 2780)              0         
                                                                 
 dense_23 (Dense)            (None, 1264)              3515184   
                                                                 
=================================================================
Total params: 8,459,284
Trainable params: 8,447,660
Non-trainable params: 11,624
_________________________________________________________________
Epoch 1/200
1493/1493 - 73s - loss: 0.0104 - val_loss: 0.0055 - 73s/epoch - 49ms/step
Epoch 2/200
1493/1493 - 73s - loss: 0.0036 - val_loss: 0.0032 - 73s/epoch - 49ms/step
…
 [==============================] - 2s 7ms/step
correlation 0.002171218563734789
cosine 0.0017083957482408767
MAE: 0.007432076
RMSE: 0.013733846
r2: 0.9877645635007061
RMSE zero-vector: 0.23411466903540806
Full AutoEncoder
Model: "model_21"
_________________________________________________________________
 Layer (type)                Output Shape              Param #   
=================================================================
 input_22 (InputLayer)       multiple                  0         
                                                                 
 dense_21 (Dense)            (None, 2780)              3516700   
                                                                 
 batch_normalization_21 (Bat  (None, 2780)             11120     
 chNormalization)                                                
                                                                 
 re_lu_21 (ReLU)             (None, 2780)              0         
                                                                 
 bottleneck (Dense)          (None, 252)               700812    
                                                                 
 batch_normalization_22 (Bat  (None, 252)              1008      
 chNormalization)                                                
                                                                 
 re_lu_22 (ReLU)             (None, 252)               0         
                                                                 
 dense_22 (Dense)            (None, 2780)              703340    
                                                                 
 batch_normalization_23 (Bat  (None, 2780)             11120     
 chNormalization)                                                
                                                                 
 re_lu_23 (ReLU)             (None, 2780)              0         
                                                                 
 dense_23 (Dense)            (None, 1264)              3515184   
                                                                 
=================================================================
Total params: 8,459,284
Trainable params: 8,447,660
Non-trainable params: 11,624
_________________________________________________________________
Encoder
Model: "model_22"
_________________________________________________________________
 Layer (type)                Output Shape              Param #   
=================================================================
 input_23 (InputLayer)       [(None, 1264)]            0         
                                                                 
 input_22 (InputLayer)       multiple                  0         
                                                                 
 dense_21 (Dense)            (None, 2780)              3516700   
                                                                 
 batch_normalization_21 (Bat  (None, 2780)             11120     
 chNormalization)                                                
                                                                 
 re_lu_21 (ReLU)             (None, 2780)              0         
                                                                 
 bottleneck (Dense)          (None, 252)               700812    
                                                                 
=================================================================
Total params: 4,228,632
Trainable params: 4,223,072
Non-trainable params: 5,560
_________________________________________________________________
Decoder
Model: "model_23"
_________________________________________________________________
 Layer (type)                Output Shape              Param #   
=================================================================
 input_24 (InputLayer)       [(None, 252)]             0         
                                                                 
 batch_normalization_22 (Bat  (None, 252)              1008      
 chNormalization)                                                
                                                                 
 re_lu_22 (ReLU)             (None, 252)               0         
                                                                 
 dense_22 (Dense)            (None, 2780)              703340    
                                                                 
 batch_normalization_23 (Bat  (None, 2780)             11120     
 chNormalization)                                                
                                                                 
 re_lu_23 (ReLU)             (None, 2780)              0         
                                                                 
 dense_23 (Dense)            (None, 1264)              3515184   
                                                                 
=================================================================
Total params: 4,230,652
Trainable params: 4,224,588
Non-trainable params: 6,064
_________________________________________________________________
['2.2custom_n_b', 'mse', 64, 200, 0.0005, 0.2, 252, 0.00018525385530665517, 0.0001886186801129952, 0.00217121856373478
…
float'>, <class 'float'>, <class 'float'>, <class 'float'>, <class 'float'>, <class 'float'>, <class 'float'>, <class 'float'>]
./DATAFILES/MP_GapFeats_custom_n_b already created.
Shape of dataset to encode: (106113, 1264)
Model: "model_24"
_________________________________________________________________
 Layer (type)                Output Shape              Param #   
=================================================================
 input_25 (InputLayer)       [(None, 1264)]            0         
                                                                 
 dense_24 (Dense)            (None, 2907)              3677355   
                                                                 
 batch_normalization_24 (Bat  (None, 2907)             11628     
 chNormalization)                                                
                                                                 
 re_lu_24 (ReLU)             (None, 2907)              0         
                                                                 
 bottleneck (Dense)          (None, 252)               732816    
                                                                 
 batch_normalization_25 (Bat  (None, 252)              1008      
 chNormalization)                                                
                                                                 
 re_lu_25 (ReLU)             (None, 252)               0         
                                                                 
 dense_25 (Dense)            (None, 2907)              735471    
                                                                 
 batch_normalization_26 (Bat  (None, 2907)             11628     
 chNormalization)                                                
                                                                 
 re_lu_26 (ReLU)             (None, 2907)              0         
                                                                 
 dense_26 (Dense)            (None, 1264)              3675712   
                                                                 
=================================================================
Total params: 8,845,618
Trainable params: 8,833,486
Non-trainable params: 12,132
_________________________________________________________________
Epoch 1/200
1493/1493 - 76s - loss: 0.0102 - val_loss: 0.0044 - 76s/epoch - 51ms/step
Epoch 2/200
1493/1493 - 75s - loss: 0.0036 - val_loss: 0.0035 - 75s/epoch - 50ms/step
…
==============================] - 3s 7ms/step
correlation 0.0022372606337137868
cosine 0.0017610585244700362
MAE: 0.0075353347
RMSE: 0.013942371
r2: 0.9873900752813356
RMSE zero-vector: 0.23411466903540806
Full AutoEncoder
Model: "model_24"
_________________________________________________________________
 Layer (type)                Output Shape              Param #   
=================================================================
 input_25 (InputLayer)       multiple                  0         
                                                                 
 dense_24 (Dense)            (None, 2907)              3677355   
                                                                 
 batch_normalization_24 (Bat  (None, 2907)             11628     
 chNormalization)                                                
                                                                 
 re_lu_24 (ReLU)             (None, 2907)              0         
                                                                 
 bottleneck (Dense)          (None, 252)               732816    
                                                                 
 batch_normalization_25 (Bat  (None, 252)              1008      
 chNormalization)                                                
                                                                 
 re_lu_25 (ReLU)             (None, 252)               0         
                                                                 
 dense_25 (Dense)            (None, 2907)              735471    
                                                                 
 batch_normalization_26 (Bat  (None, 2907)             11628     
 chNormalization)                                                
                                                                 
 re_lu_26 (ReLU)             (None, 2907)              0         
                                                                 
 dense_26 (Dense)            (None, 1264)              3675712   
                                                                 
=================================================================
Total params: 8,845,618
Trainable params: 8,833,486
Non-trainable params: 12,132
_________________________________________________________________
Encoder
Model: "model_25"
_________________________________________________________________
 Layer (type)                Output Shape              Param #   
=================================================================
 input_26 (InputLayer)       [(None, 1264)]            0         
                                                                 
 input_25 (InputLayer)       multiple                  0         
                                                                 
 dense_24 (Dense)            (None, 2907)              3677355   
                                                                 
 batch_normalization_24 (Bat  (None, 2907)             11628     
 chNormalization)                                                
                                                                 
 re_lu_24 (ReLU)             (None, 2907)              0         
                                                                 
 bottleneck (Dense)          (None, 252)               732816    
                                                                 
=================================================================
Total params: 4,421,799
Trainable params: 4,415,985
Non-trainable params: 5,814
_________________________________________________________________
Decoder
Model: "model_26"
_________________________________________________________________
 Layer (type)                Output Shape              Param #   
=================================================================
 input_27 (InputLayer)       [(None, 252)]             0         
                                                                 
 batch_normalization_25 (Bat  (None, 252)              1008      
 chNormalization)                                                
                                                                 
 re_lu_25 (ReLU)             (None, 252)               0         
                                                                 
 dense_25 (Dense)            (None, 2907)              735471    
                                                                 
 batch_normalization_26 (Bat  (None, 2907)             11628     
 chNormalization)                                                
                                                                 
 re_lu_26 (ReLU)             (None, 2907)              0         
                                                                 
 dense_26 (Dense)            (None, 1264)              3675712   
                                                                 
=================================================================
Total params: 4,423,819
Trainable params: 4,417,501
Non-trainable params: 6,318
_________________________________________________________________
['2.3custom_n_b', 'mse', 64, 200, 0.0005, 0.2, 252, 0.00018605144578032196, 0.00019438994058873504, 0.0022372606337137
…
float'>, <class 'float'>, <class 'float'>, <class 'float'>, <class 'float'>, <class 'float'>, <class 'float'>, <class 'float'>]
./DATAFILES/MP_GapFeats_custom_n_b already created.
Shape of dataset to encode: (106113, 1264)
Model: "model_27"
_________________________________________________________________
 Layer (type)                Output Shape              Param #   
=================================================================
 input_28 (InputLayer)       [(None, 1264)]            0         
                                                                 
 dense_27 (Dense)            (None, 3033)              3836745   
                                                                 
 batch_normalization_27 (Bat  (None, 3033)             12132     
 chNormalization)                                                
                                                                 
 re_lu_27 (ReLU)             (None, 3033)              0         
                                                                 
 bottleneck (Dense)          (None, 252)               764568    
                                                                 
 batch_normalization_28 (Bat  (None, 252)              1008      
 chNormalization)                                                
                                                                 
 re_lu_28 (ReLU)             (None, 252)               0         
                                                                 
 dense_28 (Dense)            (None, 3033)              767349    
                                                                 
 batch_normalization_29 (Bat  (None, 3033)             12132     
 chNormalization)                                                
                                                                 
 re_lu_29 (ReLU)             (None, 3033)              0         
                                                                 
 dense_29 (Dense)            (None, 1264)              3834976   
                                                                 
=================================================================
Total params: 9,228,910
Trainable params: 9,216,274
Non-trainable params: 12,636
_________________________________________________________________
Epoch 1/200
1493/1493 - 80s - loss: 0.0101 - val_loss: 0.0048 - 80s/epoch - 53ms/step
Epoch 2/200
1493/1493 - 79s - loss: 0.0035 - val_loss: 0.0036 - 79s/epoch - 53ms/step
…
2 [==============================] - 3s 8ms/step
correlation 0.0023221182364856706
cosine 0.001826972213053856
MAE: 0.00763182
RMSE: 0.014200894
r2: 0.9869182968825797
RMSE zero-vector: 0.23411466903540806
Full AutoEncoder
Model: "model_27"
_________________________________________________________________
 Layer (type)                Output Shape              Param #   
=================================================================
 input_28 (InputLayer)       multiple                  0         
                                                                 
 dense_27 (Dense)            (None, 3033)              3836745   
                                                                 
 batch_normalization_27 (Bat  (None, 3033)             12132     
 chNormalization)                                                
                                                                 
 re_lu_27 (ReLU)             (None, 3033)              0         
                                                                 
 bottleneck (Dense)          (None, 252)               764568    
                                                                 
 batch_normalization_28 (Bat  (None, 252)              1008      
 chNormalization)                                                
                                                                 
 re_lu_28 (ReLU)             (None, 252)               0         
                                                                 
 dense_28 (Dense)            (None, 3033)              767349    
                                                                 
 batch_normalization_29 (Bat  (None, 3033)             12132     
 chNormalization)                                                
                                                                 
 re_lu_29 (ReLU)             (None, 3033)              0         
                                                                 
 dense_29 (Dense)            (None, 1264)              3834976   
                                                                 
=================================================================
Total params: 9,228,910
Trainable params: 9,216,274
Non-trainable params: 12,636
_________________________________________________________________
Encoder
Model: "model_28"
_________________________________________________________________
 Layer (type)                Output Shape              Param #   
=================================================================
 input_29 (InputLayer)       [(None, 1264)]            0         
                                                                 
 input_28 (InputLayer)       multiple                  0         
                                                                 
 dense_27 (Dense)            (None, 3033)              3836745   
                                                                 
 batch_normalization_27 (Bat  (None, 3033)             12132     
 chNormalization)                                                
                                                                 
 re_lu_27 (ReLU)             (None, 3033)              0         
                                                                 
 bottleneck (Dense)          (None, 252)               764568    
                                                                 
=================================================================
Total params: 4,613,445
Trainable params: 4,607,379
Non-trainable params: 6,066
_________________________________________________________________
Decoder
Model: "model_29"
_________________________________________________________________
 Layer (type)                Output Shape              Param #   
=================================================================
 input_30 (InputLayer)       [(None, 252)]             0         
                                                                 
 batch_normalization_28 (Bat  (None, 252)              1008      
 chNormalization)                                                
                                                                 
 re_lu_28 (ReLU)             (None, 252)               0         
                                                                 
 dense_28 (Dense)            (None, 3033)              767349    
                                                                 
 batch_normalization_29 (Bat  (None, 3033)             12132     
 chNormalization)                                                
                                                                 
 re_lu_29 (ReLU)             (None, 3033)              0         
                                                                 
 dense_29 (Dense)            (None, 1264)              3834976   
                                                                 
=================================================================
Total params: 4,615,465
Trainable params: 4,608,895
Non-trainable params: 6,570
_________________________________________________________________
['2.4custom_n_b', 'mse', 64, 200, 0.0005, 0.2, 252, 0.00019027822418138385, 0.00020166551985312253, 0.0023221182364856
…
float'>, <class 'float'>, <class 'float'>, <class 'float'>, <class 'float'>, <class 'float'>, <class 'float'>, <class 'float'>]
./DATAFILES/MP_GapFeats_custom_n_b already created.
Shape of dataset to encode: (106113, 1264)
Model: "model_30"
_________________________________________________________________
 Layer (type)                Output Shape              Param #   
=================================================================
 input_31 (InputLayer)       [(None, 1264)]            0         
                                                                 
 dense_30 (Dense)            (None, 3160)              3997400   
                                                                 
 batch_normalization_30 (Bat  (None, 3160)             12640     
 chNormalization)                                                
                                                                 
 re_lu_30 (ReLU)             (None, 3160)              0         
                                                                 
 bottleneck (Dense)          (None, 252)               796572    
                                                                 
 batch_normalization_31 (Bat  (None, 252)              1008      
 chNormalization)                                                
                                                                 
 re_lu_31 (ReLU)             (None, 252)               0         
                                                                 
 dense_31 (Dense)            (None, 3160)              799480    
                                                                 
 batch_normalization_32 (Bat  (None, 3160)             12640     
 chNormalization)                                                
                                                                 
 re_lu_32 (ReLU)             (None, 3160)              0         
                                                                 
 dense_32 (Dense)            (None, 1264)              3995504   
                                                                 
=================================================================
Total params: 9,615,244
Trainable params: 9,602,100
Non-trainable params: 13,144
_________________________________________________________________
Epoch 1/200
1493/1493 - 82s - loss: 0.0103 - val_loss: 0.0044 - 82s/epoch - 55ms/step
Epoch 2/200
1493/1493 - 81s - loss: 0.0036 - val_loss: 0.0037 - 81s/epoch - 54ms/step
…
 [==============================] - 3s 7ms/step
correlation 0.0021925380925974037
cosine 0.0017250049374843157
MAE: 0.007505121
RMSE: 0.013818707
r2: 0.987612958529356
RMSE zero-vector: 0.23411466903540806
Full AutoEncoder
Model: "model_30"
_________________________________________________________________
 Layer (type)                Output Shape              Param #   
=================================================================
 input_31 (InputLayer)       multiple                  0         
                                                                 
 dense_30 (Dense)            (None, 3160)              3997400   
                                                                 
 batch_normalization_30 (Bat  (None, 3160)             12640     
 chNormalization)                                                
                                                                 
 re_lu_30 (ReLU)             (None, 3160)              0         
                                                                 
 bottleneck (Dense)          (None, 252)               796572    
                                                                 
 batch_normalization_31 (Bat  (None, 252)              1008      
 chNormalization)                                                
                                                                 
 re_lu_31 (ReLU)             (None, 252)               0         
                                                                 
 dense_31 (Dense)            (None, 3160)              799480    
                                                                 
 batch_normalization_32 (Bat  (None, 3160)             12640     
 chNormalization)                                                
                                                                 
 re_lu_32 (ReLU)             (None, 3160)              0         
                                                                 
 dense_32 (Dense)            (None, 1264)              3995504   
                                                                 
=================================================================
Total params: 9,615,244
Trainable params: 9,602,100
Non-trainable params: 13,144
_________________________________________________________________
Encoder
Model: "model_31"
_________________________________________________________________
 Layer (type)                Output Shape              Param #   
=================================================================
 input_32 (InputLayer)       [(None, 1264)]            0         
                                                                 
 input_31 (InputLayer)       multiple                  0         
                                                                 
 dense_30 (Dense)            (None, 3160)              3997400   
                                                                 
 batch_normalization_30 (Bat  (None, 3160)             12640     
 chNormalization)                                                
                                                                 
 re_lu_30 (ReLU)             (None, 3160)              0         
                                                                 
 bottleneck (Dense)          (None, 252)               796572    
                                                                 
=================================================================
Total params: 4,806,612
Trainable params: 4,800,292
Non-trainable params: 6,320
_________________________________________________________________
Decoder
Model: "model_32"
_________________________________________________________________
 Layer (type)                Output Shape              Param #   
=================================================================
 input_33 (InputLayer)       [(None, 252)]             0         
                                                                 
 batch_normalization_31 (Bat  (None, 252)              1008      
 chNormalization)                                                
                                                                 
 re_lu_31 (ReLU)             (None, 252)               0         
                                                                 
 dense_31 (Dense)            (None, 3160)              799480    
                                                                 
 batch_normalization_32 (Bat  (None, 3160)             12640     
 chNormalization)                                                
                                                                 
 re_lu_32 (ReLU)             (None, 3160)              0         
                                                                 
 dense_32 (Dense)            (None, 1264)              3995504   
                                                                 
=================================================================
Total params: 4,808,632
Trainable params: 4,801,808
Non-trainable params: 6,824
_________________________________________________________________
['2.5custom_n_b', 'mse', 64, 200, 0.0005, 0.2, 252, 0.00017889247101265937, 0.00019095685274805874, 0.0021925380925974
…
float'>, <class 'float'>, <class 'float'>, <class 'float'>, <class 'float'>, <class 'float'>, <class 'float'>, <class 'float'>]
./DATAFILES/MP_GapFeats_custom_n_b already created.
Shape of dataset to encode: (106113, 1264)
Model: "model_33"
_________________________________________________________________
 Layer (type)                Output Shape              Param #   
=================================================================
 input_34 (InputLayer)       [(None, 1264)]            0         
                                                                 
 dense_33 (Dense)            (None, 1896)              2398440   
                                                                 
 batch_normalization_33 (Bat  (None, 1896)             7584      
 chNormalization)                                                
                                                                 
 re_lu_33 (ReLU)             (None, 1896)              0         
                                                                 
 bottleneck (Dense)          (None, 632)               1198904   
                                                                 
 batch_normalization_34 (Bat  (None, 632)              2528      
 chNormalization)                                                
                                                                 
 re_lu_34 (ReLU)             (None, 632)               0         
                                                                 
 dense_34 (Dense)            (None, 1896)              1200168   
                                                                 
 batch_normalization_35 (Bat  (None, 1896)             7584      
 chNormalization)                                                
                                                                 
 re_lu_35 (ReLU)             (None, 1896)              0         
                                                                 
 dense_35 (Dense)            (None, 1264)              2397808   
                                                                 
=================================================================
Total params: 7,213,016
Trainable params: 7,204,168
Non-trainable params: 8,848
_________________________________________________________________
Epoch 1/200
1493/1493 - 63s - loss: 0.0093 - val_loss: 0.0043 - 63s/epoch - 42ms/step
Epoch 2/200
1493/1493 - 62s - loss: 0.0030 - val_loss: 0.0027 - 62s/epoch - 41ms/step
…
[==============================] - 2s 6ms/step
correlation 0.001328335987187043
cosine 0.0010460179806025217
MAE: 0.0062503666
RMSE: 0.010889637
r2: 0.9923075367946292
RMSE zero-vector: 0.23411466903540806
Full AutoEncoder
Model: "model_33"
_________________________________________________________________
 Layer (type)                Output Shape              Param #   
=================================================================
 input_34 (InputLayer)       multiple                  0         
                                                                 
 dense_33 (Dense)            (None, 1896)              2398440   
                                                                 
 batch_normalization_33 (Bat  (None, 1896)             7584      
 chNormalization)                                                
                                                                 
 re_lu_33 (ReLU)             (None, 1896)              0         
                                                                 
 bottleneck (Dense)          (None, 632)               1198904   
                                                                 
 batch_normalization_34 (Bat  (None, 632)              2528      
 chNormalization)                                                
                                                                 
 re_lu_34 (ReLU)             (None, 632)               0         
                                                                 
 dense_34 (Dense)            (None, 1896)              1200168   
                                                                 
 batch_normalization_35 (Bat  (None, 1896)             7584      
 chNormalization)                                                
                                                                 
 re_lu_35 (ReLU)             (None, 1896)              0         
                                                                 
 dense_35 (Dense)            (None, 1264)              2397808   
                                                                 
=================================================================
Total params: 7,213,016
Trainable params: 7,204,168
Non-trainable params: 8,848
_________________________________________________________________
Encoder
Model: "model_34"
_________________________________________________________________
 Layer (type)                Output Shape              Param #   
=================================================================
 input_35 (InputLayer)       [(None, 1264)]            0         
                                                                 
 input_34 (InputLayer)       multiple                  0         
                                                                 
 dense_33 (Dense)            (None, 1896)              2398440   
                                                                 
 batch_normalization_33 (Bat  (None, 1896)             7584      
 chNormalization)                                                
                                                                 
 re_lu_33 (ReLU)             (None, 1896)              0         
                                                                 
 bottleneck (Dense)          (None, 632)               1198904   
                                                                 
=================================================================
Total params: 3,604,928
Trainable params: 3,601,136
Non-trainable params: 3,792
_________________________________________________________________
Decoder
Model: "model_35"
_________________________________________________________________
 Layer (type)                Output Shape              Param #   
=================================================================
 input_36 (InputLayer)       [(None, 632)]             0         
                                                                 
 batch_normalization_34 (Bat  (None, 632)              2528      
 chNormalization)                                                
                                                                 
 re_lu_34 (ReLU)             (None, 632)               0         
                                                                 
 dense_34 (Dense)            (None, 1896)              1200168   
                                                                 
 batch_normalization_35 (Bat  (None, 1896)             7584      
 chNormalization)                                                
                                                                 
 re_lu_35 (ReLU)             (None, 1896)              0         
                                                                 
 dense_35 (Dense)            (None, 1264)              2397808   
                                                                 
=================================================================
Total params: 3,608,088
Trainable params: 3,603,032
Non-trainable params: 5,056
_________________________________________________________________
['1.5custom_n_b', 'mse', 64, 200, 0.0005, 0.5, 632, 0.00011210996308363974, 0.0001185842847917229, 0.00132833598718704
…
float'>, <class 'float'>, <class 'float'>, <class 'float'>, <class 'float'>, <class 'float'>, <class 'float'>, <class 'float'>]
./DATAFILES/MP_GapFeats_custom_n_b already created.
Shape of dataset to encode: (106113, 1264)
Model: "model_36"
_________________________________________________________________
 Layer (type)                Output Shape              Param #   
=================================================================
 input_37 (InputLayer)       [(None, 1264)]            0         
                                                                 
 dense_36 (Dense)            (None, 2022)              2557830   
                                                                 
 batch_normalization_36 (Bat  (None, 2022)             8088      
 chNormalization)                                                
                                                                 
 re_lu_36 (ReLU)             (None, 2022)              0         
                                                                 
 bottleneck (Dense)          (None, 632)               1278536   
                                                                 
 batch_normalization_37 (Bat  (None, 632)              2528      
 chNormalization)                                                
                                                                 
 re_lu_37 (ReLU)             (None, 632)               0         
                                                                 
 dense_37 (Dense)            (None, 2022)              1279926   
                                                                 
 batch_normalization_38 (Bat  (None, 2022)             8088      
 chNormalization)                                                
                                                                 
 re_lu_38 (ReLU)             (None, 2022)              0         
                                                                 
 dense_38 (Dense)            (None, 1264)              2557072   
                                                                 
=================================================================
Total params: 7,692,068
Trainable params: 7,682,716
Non-trainable params: 9,352
_________________________________________________________________
Epoch 1/200
1493/1493 - 68s - loss: 0.0093 - val_loss: 0.0048 - 68s/epoch - 45ms/step
Epoch 2/200
1493/1493 - 67s - loss: 0.0031 - val_loss: 0.0030 - 67s/epoch - 45ms/step
…
