…
2022-12-28 16:07:18.681631: I tensorflow/core/platform/cpu_feature_guard.cc:193] This TensorFlow binary is optimized with oneAPI Deep Neural Network Library (oneDNN) to use the following CPU instructions in performance-critical operations:  SSE4.1 SSE4.2 AVX AVX2 AVX512F AVX512_VNNI FMA
To enable them in other operations, rebuild TensorFlow with the appropriate compiler flags.
Model: "model"
_________________________________________________________________
 Layer (type)                Output Shape              Param #   
=================================================================
 input_1 (InputLayer)        [(None, 1264)]            0         
                                                                 
 dense (Dense)               (None, 1896)              2398440   
                                                                 
 batch_normalization (BatchN  (None, 1896)             7584      
 ormalization)                                                   
                                                                 
 re_lu (ReLU)                (None, 1896)              0         
                                                                 
 bottleneck (Dense)          (None, 632)               1198904   
                                                                 
 batch_normalization_1 (Batc  (None, 632)              2528      
 hNormalization)                                                 
                                                                 
 re_lu_1 (ReLU)              (None, 632)               0         
                                                                 
 dense_1 (Dense)             (None, 1896)              1200168   
                                                                 
 batch_normalization_2 (Batc  (None, 1896)             7584      
 hNormalization)                                                 
                                                                 
 re_lu_2 (ReLU)              (None, 1896)              0         
                                                                 
 dense_2 (Dense)             (None, 1264)              2397808   
                                                                 
=================================================================
Total params: 7,213,016
Trainable params: 7,204,168
Non-trainable params: 8,848
_________________________________________________________________
Epoch 1/200
1493/1493 - 42s - loss: 0.0094 - val_loss: 0.0044 - 42s/epoch - 28ms/step
Epoch 2/200
1493/1493 - 41s - loss: 0.0030 - val_loss: 0.0027 - 41s/epoch - 27ms/step
…
