…
2022-12-28 16:07:18.909665: I tensorflow/core/platform/cpu_feature_guard.cc:193] This TensorFlow binary is optimized with oneAPI Deep Neural Network Library (oneDNN) to use the following CPU instructions in performance-critical operations:  SSE4.1 SSE4.2 AVX AVX2 AVX512F AVX512_VNNI FMA
To enable them in other operations, rebuild TensorFlow with the appropriate compiler flags.
Model: "model"
_________________________________________________________________
 Layer (type)                Output Shape              Param #   
=================================================================
 input_1 (InputLayer)        [(None, 1264)]            0         
                                                                 
 dense (Dense)               (None, 1896)              2398440   
                                                                 
 batch_normalization (BatchN  (None, 1896)             7584      
 ormalization)                                                   
                                                                 
 re_lu (ReLU)                (None, 1896)              0         
                                                                 
 bottleneck (Dense)          (None, 1011)              1917867   
                                                                 
 batch_normalization_1 (Batc  (None, 1011)             4044      
 hNormalization)                                                 
                                                                 
 re_lu_1 (ReLU)              (None, 1011)              0         
                                                                 
 dense_1 (Dense)             (None, 1896)              1918752   
                                                                 
 batch_normalization_2 (Batc  (None, 1896)             7584      
 hNormalization)                                                 
                                                                 
 re_lu_2 (ReLU)              (None, 1896)              0         
                                                                 
 dense_2 (Dense)             (None, 1264)              2397808   
                                                                 
=================================================================
Total params: 8,652,079
Trainable params: 8,642,473
Non-trainable params: 9,606
_________________________________________________________________
Epoch 1/200
1493/1493 - 53s - loss: 0.0089 - val_loss: 0.0042 - 53s/epoch - 35ms/step
Epoch 2/200
1493/1493 - 52s - loss: 0.0028 - val_loss: 0.0027 - 52s/epoch - 35ms/step
…
332 [==============================] - 2s 5ms/step
correlation 0.0010583579001047455
cosine 0.0008343523835129347
MAE: 0.005484353
RMSE: 0.009637289
r2: 0.993975369408023
RMSE zero-vector: 0.23411466903540806
Full AutoEncoder
Model: "model"
_________________________________________________________________
 Layer (type)                Output Shape              Param #   
=================================================================
 input_1 (InputLayer)        multiple                  0         
                                                                 
 dense (Dense)               (None, 1896)              2398440   
                                                                 
 batch_normalization (BatchN  (None, 1896)             7584      
 ormalization)                                                   
                                                                 
 re_lu (ReLU)                (None, 1896)              0         
                                                                 
 bottleneck (Dense)          (None, 1011)              1917867   
                                                                 
 batch_normalization_1 (Batc  (None, 1011)             4044      
 hNormalization)                                                 
                                                                 
 re_lu_1 (ReLU)              (None, 1011)              0         
                                                                 
 dense_1 (Dense)             (None, 1896)              1918752   
                                                                 
 batch_normalization_2 (Batc  (None, 1896)             7584      
 hNormalization)                                                 
                                                                 
 re_lu_2 (ReLU)              (None, 1896)              0         
                                                                 
 dense_2 (Dense)             (None, 1264)              2397808   
                                                                 
=================================================================
Total params: 8,652,079
Trainable params: 8,642,473
Non-trainable params: 9,606
_________________________________________________________________
Encoder
Model: "model_1"
_________________________________________________________________
 Layer (type)                Output Shape              Param #   
=================================================================
 input_2 (InputLayer)        [(None, 1264)]            0         
                                                                 
 input_1 (InputLayer)        multiple                  0         
                                                                 
 dense (Dense)               (None, 1896)              2398440   
                                                                 
 batch_normalization (BatchN  (None, 1896)             7584      
 ormalization)                                                   
                                                                 
 re_lu (ReLU)                (None, 1896)              0         
                                                                 
 bottleneck (Dense)          (None, 1011)              1917867   
                                                                 
=================================================================
Total params: 4,323,891
Trainable params: 4,320,099
Non-trainable params: 3,792
_________________________________________________________________
Decoder
Model: "model_2"
_________________________________________________________________
 Layer (type)                Output Shape              Param #   
=================================================================
 input_3 (InputLayer)        [(None, 1011)]            0         
                                                                 
 batch_normalization_1 (Batc  (None, 1011)             4044      
 hNormalization)                                                 
                                                                 
 re_lu_1 (ReLU)              (None, 1011)              0         
                                                                 
 dense_1 (Dense)             (None, 1896)              1918752   
                                                                 
 batch_normalization_2 (Batc  (None, 1896)             7584      
 hNormalization)                                                 
                                                                 
 re_lu_2 (ReLU)              (None, 1896)              0         
                                                                 
 dense_2 (Dense)             (None, 1264)              2397808   
                                                                 
=================================================================
Total params: 4,328,188
Trainable params: 4,322,374
Non-trainable params: 5,814
_________________________________________________________________
['1.5custom_n_b', 'mse', 64, 200, 0.0005, 0.8, 1011, 9.707005665404722e-05, 9.287737339036539e-05, 0.00105835790010474
…
float'>, <class 'float'>, <class 'float'>, <class 'float'>, <class 'float'>, <class 'float'>, <class 'float'>, <class 'float'>]
./DATAFILES/MP_GapFeats3_custom_n_b already created.
Shape of dataset to encode: (106113, 1264)
Model: "model_3"
_________________________________________________________________
 Layer (type)                Output Shape              Param #   
=================================================================
 input_4 (InputLayer)        [(None, 1264)]            0         
                                                                 
 dense_3 (Dense)             (None, 2022)              2557830   
                                                                 
 batch_normalization_3 (Batc  (None, 2022)             8088      
 hNormalization)                                                 
                                                                 
 re_lu_3 (ReLU)              (None, 2022)              0         
                                                                 
 bottleneck (Dense)          (None, 1011)              2045253   
                                                                 
 batch_normalization_4 (Batc  (None, 1011)             4044      
 hNormalization)                                                 
                                                                 
 re_lu_4 (ReLU)              (None, 1011)              0         
                                                                 
 dense_4 (Dense)             (None, 2022)              2046264   
                                                                 
 batch_normalization_5 (Batc  (None, 2022)             8088      
 hNormalization)                                                 
                                                                 
 re_lu_5 (ReLU)              (None, 2022)              0         
                                                                 
 dense_5 (Dense)             (None, 1264)              2557072   
                                                                 
=================================================================
Total params: 9,226,639
Trainable params: 9,216,529
Non-trainable params: 10,110
_________________________________________________________________
Epoch 1/200
1493/1493 - 58s - loss: 0.0090 - val_loss: 0.0043 - 58s/epoch - 39ms/step
Epoch 2/200
1493/1493 - 57s - loss: 0.0028 - val_loss: 0.0025 - 57s/epoch - 38ms/step
…
2 [==============================] - 2s 6ms/step
correlation 0.0011199877267058192
cosine 0.0008809587167336542
MAE: 0.005616302
RMSE: 0.009975049
r2: 0.993545635966073
RMSE zero-vector: 0.23411466903540806
Full AutoEncoder
Model: "model_3"
_________________________________________________________________
 Layer (type)                Output Shape              Param #   
=================================================================
 input_4 (InputLayer)        multiple                  0         
                                                                 
 dense_3 (Dense)             (None, 2022)              2557830   
                                                                 
 batch_normalization_3 (Batc  (None, 2022)             8088      
 hNormalization)                                                 
                                                                 
 re_lu_3 (ReLU)              (None, 2022)              0         
                                                                 
 bottleneck (Dense)          (None, 1011)              2045253   
                                                                 
 batch_normalization_4 (Batc  (None, 1011)             4044      
 hNormalization)                                                 
                                                                 
 re_lu_4 (ReLU)              (None, 1011)              0         
                                                                 
 dense_4 (Dense)             (None, 2022)              2046264   
                                                                 
 batch_normalization_5 (Batc  (None, 2022)             8088      
 hNormalization)                                                 
                                                                 
 re_lu_5 (ReLU)              (None, 2022)              0         
                                                                 
 dense_5 (Dense)             (None, 1264)              2557072   
                                                                 
=================================================================
Total params: 9,226,639
Trainable params: 9,216,529
Non-trainable params: 10,110
_________________________________________________________________
Encoder
Model: "model_4"
_________________________________________________________________
 Layer (type)                Output Shape              Param #   
=================================================================
 input_5 (InputLayer)        [(None, 1264)]            0         
                                                                 
 input_4 (InputLayer)        multiple                  0         
                                                                 
 dense_3 (Dense)             (None, 2022)              2557830   
                                                                 
 batch_normalization_3 (Batc  (None, 2022)             8088      
 hNormalization)                                                 
                                                                 
 re_lu_3 (ReLU)              (None, 2022)              0         
                                                                 
 bottleneck (Dense)          (None, 1011)              2045253   
                                                                 
=================================================================
Total params: 4,611,171
Trainable params: 4,607,127
Non-trainable params: 4,044
_________________________________________________________________
Decoder
Model: "model_5"
_________________________________________________________________
 Layer (type)                Output Shape              Param #   
=================================================================
 input_6 (InputLayer)        [(None, 1011)]            0         
                                                                 
 batch_normalization_4 (Batc  (None, 1011)             4044      
 hNormalization)                                                 
                                                                 
 re_lu_4 (ReLU)              (None, 1011)              0         
                                                                 
 dense_4 (Dense)             (None, 2022)              2046264   
                                                                 
 batch_normalization_5 (Batc  (None, 2022)             8088      
 hNormalization)                                                 
                                                                 
 re_lu_5 (ReLU)              (None, 2022)              0         
                                                                 
 dense_5 (Dense)             (None, 1264)              2557072   
                                                                 
=================================================================
Total params: 4,615,468
Trainable params: 4,609,402
Non-trainable params: 6,066
_________________________________________________________________
['1.6custom_n_b', 'mse', 64, 200, 0.0005, 0.8, 1011, 9.308551670983434e-05, 9.950168896466494e-05, 0.00111998772670581
…
float'>, <class 'float'>, <class 'float'>, <class 'float'>, <class 'float'>, <class 'float'>, <class 'float'>, <class 'float'>]
./DATAFILES/MP_GapFeats3_custom_n_b already created.
Shape of dataset to encode: (106113, 1264)
Model: "model_6"
_________________________________________________________________
 Layer (type)                Output Shape              Param #   
=================================================================
 input_7 (InputLayer)        [(None, 1264)]            0         
                                                                 
 dense_6 (Dense)             (None, 2148)              2717220   
                                                                 
 batch_normalization_6 (Batc  (None, 2148)             8592      
 hNormalization)                                                 
                                                                 
 re_lu_6 (ReLU)              (None, 2148)              0         
                                                                 
 bottleneck (Dense)          (None, 1011)              2172639   
                                                                 
 batch_normalization_7 (Batc  (None, 1011)             4044      
 hNormalization)                                                 
                                                                 
 re_lu_7 (ReLU)              (None, 1011)              0         
                                                                 
 dense_7 (Dense)             (None, 2148)              2173776   
                                                                 
 batch_normalization_8 (Batc  (None, 2148)             8592      
 hNormalization)                                                 
                                                                 
 re_lu_8 (ReLU)              (None, 2148)              0         
                                                                 
 dense_8 (Dense)             (None, 1264)              2716336   
                                                                 
=================================================================
Total params: 9,801,199
Trainable params: 9,790,585
Non-trainable params: 10,614
_________________________________________________________________
Epoch 1/200
1493/1493 - 60s - loss: 0.0090 - val_loss: 0.0037 - 60s/epoch - 40ms/step
Epoch 2/200
1493/1493 - 60s - loss: 0.0028 - val_loss: 0.0028 - 60s/epoch - 40ms/step
…
 [==============================] - 2s 6ms/step
correlation 0.001049511693488235
cosine 0.0008276541065459786
MAE: 0.0053820526
RMSE: 0.009590543
r2: 0.9940337247807273
RMSE zero-vector: 0.23411466903540806
Full AutoEncoder
Model: "model_6"
_________________________________________________________________
 Layer (type)                Output Shape              Param #   
=================================================================
 input_7 (InputLayer)        multiple                  0         
                                                                 
 dense_6 (Dense)             (None, 2148)              2717220   
                                                                 
 batch_normalization_6 (Batc  (None, 2148)             8592      
 hNormalization)                                                 
                                                                 
 re_lu_6 (ReLU)              (None, 2148)              0         
                                                                 
 bottleneck (Dense)          (None, 1011)              2172639   
                                                                 
 batch_normalization_7 (Batc  (None, 1011)             4044      
 hNormalization)                                                 
                                                                 
 re_lu_7 (ReLU)              (None, 1011)              0         
                                                                 
 dense_7 (Dense)             (None, 2148)              2173776   
                                                                 
 batch_normalization_8 (Batc  (None, 2148)             8592      
 hNormalization)                                                 
                                                                 
 re_lu_8 (ReLU)              (None, 2148)              0         
                                                                 
 dense_8 (Dense)             (None, 1264)              2716336   
                                                                 
=================================================================
Total params: 9,801,199
Trainable params: 9,790,585
Non-trainable params: 10,614
_________________________________________________________________
Encoder
Model: "model_7"
_________________________________________________________________
 Layer (type)                Output Shape              Param #   
=================================================================
 input_8 (InputLayer)        [(None, 1264)]            0         
                                                                 
 input_7 (InputLayer)        multiple                  0         
                                                                 
 dense_6 (Dense)             (None, 2148)              2717220   
                                                                 
 batch_normalization_6 (Batc  (None, 2148)             8592      
 hNormalization)                                                 
                                                                 
 re_lu_6 (ReLU)              (None, 2148)              0         
                                                                 
 bottleneck (Dense)          (None, 1011)              2172639   
                                                                 
=================================================================
Total params: 4,898,451
Trainable params: 4,894,155
Non-trainable params: 4,296
_________________________________________________________________
Decoder
Model: "model_8"
_________________________________________________________________
 Layer (type)                Output Shape              Param #   
=================================================================
 input_9 (InputLayer)        [(None, 1011)]            0         
                                                                 
 batch_normalization_7 (Batc  (None, 1011)             4044      
 hNormalization)                                                 
                                                                 
 re_lu_7 (ReLU)              (None, 1011)              0         
                                                                 
 dense_7 (Dense)             (None, 2148)              2173776   
                                                                 
 batch_normalization_8 (Batc  (None, 2148)             8592      
 hNormalization)                                                 
                                                                 
 re_lu_8 (ReLU)              (None, 2148)              0         
                                                                 
 dense_8 (Dense)             (None, 1264)              2716336   
                                                                 
=================================================================
Total params: 4,902,748
Trainable params: 4,896,430
Non-trainable params: 6,318
_________________________________________________________________
['1.7custom_n_b', 'mse', 64, 200, 0.0005, 0.8, 1011, 9.275991033064201e-05, 9.197860345011577e-05, 0.00104951169348823
…
float'>, <class 'float'>, <class 'float'>, <class 'float'>, <class 'float'>, <class 'float'>, <class 'float'>, <class 'float'>]
./DATAFILES/MP_GapFeats3_custom_n_b already created.
Shape of dataset to encode: (106113, 1264)
Model: "model_9"
_________________________________________________________________
 Layer (type)                Output Shape              Param #   
=================================================================
 input_10 (InputLayer)       [(None, 1264)]            0         
                                                                 
 dense_9 (Dense)             (None, 2275)              2877875   
                                                                 
 batch_normalization_9 (Batc  (None, 2275)             9100      
 hNormalization)                                                 
                                                                 
 re_lu_9 (ReLU)              (None, 2275)              0         
                                                                 
 bottleneck (Dense)          (None, 1011)              2301036   
                                                                 
 batch_normalization_10 (Bat  (None, 1011)             4044      
 chNormalization)                                                
                                                                 
 re_lu_10 (ReLU)             (None, 1011)              0         
                                                                 
 dense_10 (Dense)            (None, 2275)              2302300   
                                                                 
 batch_normalization_11 (Bat  (None, 2275)             9100      
 chNormalization)                                                
                                                                 
 re_lu_11 (ReLU)             (None, 2275)              0         
                                                                 
 dense_11 (Dense)            (None, 1264)              2876864   
                                                                 
=================================================================
Total params: 10,380,319
Trainable params: 10,369,197
Non-trainable params: 11,122
_________________________________________________________________
Epoch 1/200
1493/1493 - 65s - loss: 0.0090 - val_loss: 0.0038 - 65s/epoch - 43ms/step
Epoch 2/200
1493/1493 - 64s - loss: 0.0028 - val_loss: 0.0031 - 64s/epoch - 43ms/step
…
[==============================] - 2s 7ms/step
correlation 0.0010412319500492152
cosine 0.0008196632760091409
MAE: 0.0052977414
RMSE: 0.009579775
r2: 0.9940471927206831
RMSE zero-vector: 0.23411466903540806
Full AutoEncoder
Model: "model_9"
_________________________________________________________________
 Layer (type)                Output Shape              Param #   
=================================================================
 input_10 (InputLayer)       multiple                  0         
                                                                 
 dense_9 (Dense)             (None, 2275)              2877875   
                                                                 
 batch_normalization_9 (Batc  (None, 2275)             9100      
 hNormalization)                                                 
                                                                 
 re_lu_9 (ReLU)              (None, 2275)              0         
                                                                 
 bottleneck (Dense)          (None, 1011)              2301036   
                                                                 
 batch_normalization_10 (Bat  (None, 1011)             4044      
 chNormalization)                                                
                                                                 
 re_lu_10 (ReLU)             (None, 1011)              0         
                                                                 
 dense_10 (Dense)            (None, 2275)              2302300   
                                                                 
 batch_normalization_11 (Bat  (None, 2275)             9100      
 chNormalization)                                                
                                                                 
 re_lu_11 (ReLU)             (None, 2275)              0         
                                                                 
 dense_11 (Dense)            (None, 1264)              2876864   
                                                                 
=================================================================
Total params: 10,380,319
Trainable params: 10,369,197
Non-trainable params: 11,122
_________________________________________________________________
Encoder
Model: "model_10"
_________________________________________________________________
 Layer (type)                Output Shape              Param #   
=================================================================
 input_11 (InputLayer)       [(None, 1264)]            0         
                                                                 
 input_10 (InputLayer)       multiple                  0         
                                                                 
 dense_9 (Dense)             (None, 2275)              2877875   
                                                                 
 batch_normalization_9 (Batc  (None, 2275)             9100      
 hNormalization)                                                 
                                                                 
 re_lu_9 (ReLU)              (None, 2275)              0         
                                                                 
 bottleneck (Dense)          (None, 1011)              2301036   
                                                                 
=================================================================
Total params: 5,188,011
Trainable params: 5,183,461
Non-trainable params: 4,550
_________________________________________________________________
Decoder
Model: "model_11"
_________________________________________________________________
 Layer (type)                Output Shape              Param #   
=================================================================
 input_12 (InputLayer)       [(None, 1011)]            0         
                                                                 
 batch_normalization_10 (Bat  (None, 1011)             4044      
 chNormalization)                                                
                                                                 
 re_lu_10 (ReLU)             (None, 1011)              0         
                                                                 
 dense_10 (Dense)            (None, 2275)              2302300   
                                                                 
 batch_normalization_11 (Bat  (None, 2275)             9100      
 chNormalization)                                                
                                                                 
 re_lu_11 (ReLU)             (None, 2275)              0         
                                                                 
 dense_11 (Dense)            (None, 1264)              2876864   
                                                                 
=================================================================
Total params: 5,192,308
Trainable params: 5,185,736
Non-trainable params: 6,572
_________________________________________________________________
['1.8custom_n_b', 'mse', 64, 200, 0.0005, 0.8, 1011, 8.680085011292249e-05, 9.177216270472854e-05, 0.00104123195004921
…
loat'>, <class 'float'>, <class 'float'>, <class 'float'>, <class 'float'>, <class 'float'>, <class 'float'>, <class 'float'>]
./DATAFILES/MP_GapFeats3_custom_n_b already created.
Shape of dataset to encode: (106113, 1264)
Model: "model_12"
_________________________________________________________________
 Layer (type)                Output Shape              Param #   
=================================================================
 input_13 (InputLayer)       [(None, 1264)]            0         
                                                                 
 dense_12 (Dense)            (None, 2401)              3037265   
                                                                 
 batch_normalization_12 (Bat  (None, 2401)             9604      
 chNormalization)                                                
                                                                 
 re_lu_12 (ReLU)             (None, 2401)              0         
                                                                 
 bottleneck (Dense)          (None, 1011)              2428422   
                                                                 
 batch_normalization_13 (Bat  (None, 1011)             4044      
 chNormalization)                                                
                                                                 
 re_lu_13 (ReLU)             (None, 1011)              0         
                                                                 
 dense_13 (Dense)            (None, 2401)              2429812   
                                                                 
 batch_normalization_14 (Bat  (None, 2401)             9604      
 chNormalization)                                                
                                                                 
 re_lu_14 (ReLU)             (None, 2401)              0         
                                                                 
 dense_14 (Dense)            (None, 1264)              3036128   
                                                                 
=================================================================
Total params: 10,954,879
Trainable params: 10,943,253
Non-trainable params: 11,626
_________________________________________________________________
Epoch 1/200
1493/1493 - 66s - loss: 0.0090 - val_loss: 0.0043 - 66s/epoch - 44ms/step
Epoch 2/200
1493/1493 - 65s - loss: 0.0028 - val_loss: 0.0031 - 65s/epoch - 44ms/step
…
[==============================] - 2s 7ms/step
correlation 0.0010241586511376844
cosine 0.0008061270735374361
MAE: 0.005246572
RMSE: 0.009506462
r2: 0.9941386288835073
RMSE zero-vector: 0.23411466903540806
Full AutoEncoder
Model: "model_12"
_________________________________________________________________
 Layer (type)                Output Shape              Param #   
=================================================================
 input_13 (InputLayer)       multiple                  0         
                                                                 
 dense_12 (Dense)            (None, 2401)              3037265   
                                                                 
 batch_normalization_12 (Bat  (None, 2401)             9604      
 chNormalization)                                                
                                                                 
 re_lu_12 (ReLU)             (None, 2401)              0         
                                                                 
 bottleneck (Dense)          (None, 1011)              2428422   
                                                                 
 batch_normalization_13 (Bat  (None, 1011)             4044      
 chNormalization)                                                
                                                                 
 re_lu_13 (ReLU)             (None, 1011)              0         
                                                                 
 dense_13 (Dense)            (None, 2401)              2429812   
                                                                 
 batch_normalization_14 (Bat  (None, 2401)             9604      
 chNormalization)                                                
                                                                 
 re_lu_14 (ReLU)             (None, 2401)              0         
                                                                 
 dense_14 (Dense)            (None, 1264)              3036128   
                                                                 
=================================================================
Total params: 10,954,879
Trainable params: 10,943,253
Non-trainable params: 11,626
_________________________________________________________________
Encoder
Model: "model_13"
_________________________________________________________________
 Layer (type)                Output Shape              Param #   
=================================================================
 input_14 (InputLayer)       [(None, 1264)]            0         
                                                                 
 input_13 (InputLayer)       multiple                  0         
                                                                 
 dense_12 (Dense)            (None, 2401)              3037265   
                                                                 
 batch_normalization_12 (Bat  (None, 2401)             9604      
 chNormalization)                                                
                                                                 
 re_lu_12 (ReLU)             (None, 2401)              0         
                                                                 
 bottleneck (Dense)          (None, 1011)              2428422   
                                                                 
=================================================================
Total params: 5,475,291
Trainable params: 5,470,489
Non-trainable params: 4,802
_________________________________________________________________
Decoder
Model: "model_14"
_________________________________________________________________
 Layer (type)                Output Shape              Param #   
=================================================================
 input_15 (InputLayer)       [(None, 1011)]            0         
                                                                 
 batch_normalization_13 (Bat  (None, 1011)             4044      
 chNormalization)                                                
                                                                 
 re_lu_13 (ReLU)             (None, 1011)              0         
                                                                 
 dense_13 (Dense)            (None, 2401)              2429812   
                                                                 
 batch_normalization_14 (Bat  (None, 2401)             9604      
 chNormalization)                                                
                                                                 
 re_lu_14 (ReLU)             (None, 2401)              0         
                                                                 
 dense_14 (Dense)            (None, 1264)              3036128   
                                                                 
=================================================================
Total params: 5,479,588
Trainable params: 5,472,764
Non-trainable params: 6,824
_________________________________________________________________
['1.9custom_n_b', 'mse', 64, 200, 0.0005, 0.8, 1011, 8.731397247174755e-05, 9.037289419211447e-05, 0.00102415865113768
…
loat'>, <class 'float'>, <class 'float'>, <class 'float'>, <class 'float'>, <class 'float'>, <class 'float'>, <class 'float'>]
./DATAFILES/MP_GapFeats3_custom_n_b already created.
Shape of dataset to encode: (106113, 1264)
Model: "model_15"
_________________________________________________________________
 Layer (type)                Output Shape              Param #   
=================================================================
 input_16 (InputLayer)       [(None, 1264)]            0         
                                                                 
 dense_15 (Dense)            (None, 2528)              3197920   
                                                                 
 batch_normalization_15 (Bat  (None, 2528)             10112     
 chNormalization)                                                
                                                                 
 re_lu_15 (ReLU)             (None, 2528)              0         
                                                                 
 bottleneck (Dense)          (None, 1011)              2556819   
                                                                 
 batch_normalization_16 (Bat  (None, 1011)             4044      
 chNormalization)                                                
                                                                 
 re_lu_16 (ReLU)             (None, 1011)              0         
                                                                 
 dense_16 (Dense)            (None, 2528)              2558336   
                                                                 
 batch_normalization_17 (Bat  (None, 2528)             10112     
 chNormalization)                                                
                                                                 
 re_lu_17 (ReLU)             (None, 2528)              0         
                                                                 
 dense_17 (Dense)            (None, 1264)              3196656   
                                                                 
=================================================================
Total params: 11,533,999
Trainable params: 11,521,865
Non-trainable params: 12,134
_________________________________________________________________
Epoch 1/200
1493/1493 - 63s - loss: 0.0089 - val_loss: 0.0039 - 63s/epoch - 42ms/step
Epoch 2/200
1493/1493 - 62s - loss: 0.0028 - val_loss: 0.0028 - 62s/epoch - 42ms/step
…
 [==============================] - 2s 7ms/step
correlation 0.0010179330044047948
cosine 0.000801902327544726
MAE: 0.005298399
RMSE: 0.009510057
r2: 0.9941329624846672
RMSE zero-vector: 0.23411466903540806
Full AutoEncoder
Model: "model_15"
_________________________________________________________________
 Layer (type)                Output Shape              Param #   
=================================================================
 input_16 (InputLayer)       multiple                  0         
                                                                 
 dense_15 (Dense)            (None, 2528)              3197920   
                                                                 
 batch_normalization_15 (Bat  (None, 2528)             10112     
 chNormalization)                                                
                                                                 
 re_lu_15 (ReLU)             (None, 2528)              0         
                                                                 
 bottleneck (Dense)          (None, 1011)              2556819   
                                                                 
 batch_normalization_16 (Bat  (None, 1011)             4044      
 chNormalization)                                                
                                                                 
 re_lu_16 (ReLU)             (None, 1011)              0         
                                                                 
 dense_16 (Dense)            (None, 2528)              2558336   
                                                                 
 batch_normalization_17 (Bat  (None, 2528)             10112     
 chNormalization)                                                
                                                                 
 re_lu_17 (ReLU)             (None, 2528)              0         
                                                                 
 dense_17 (Dense)            (None, 1264)              3196656   
                                                                 
=================================================================
Total params: 11,533,999
Trainable params: 11,521,865
Non-trainable params: 12,134
_________________________________________________________________
Encoder
Model: "model_16"
_________________________________________________________________
 Layer (type)                Output Shape              Param #   
=================================================================
 input_17 (InputLayer)       [(None, 1264)]            0         
                                                                 
 input_16 (InputLayer)       multiple                  0         
                                                                 
 dense_15 (Dense)            (None, 2528)              3197920   
                                                                 
 batch_normalization_15 (Bat  (None, 2528)             10112     
 chNormalization)                                                
                                                                 
 re_lu_15 (ReLU)             (None, 2528)              0         
                                                                 
 bottleneck (Dense)          (None, 1011)              2556819   
                                                                 
=================================================================
Total params: 5,764,851
Trainable params: 5,759,795
Non-trainable params: 5,056
_________________________________________________________________
Decoder
Model: "model_17"
_________________________________________________________________
 Layer (type)                Output Shape              Param #   
=================================================================
 input_18 (InputLayer)       [(None, 1011)]            0         
                                                                 
 batch_normalization_16 (Bat  (None, 1011)             4044      
 chNormalization)                                                
                                                                 
 re_lu_16 (ReLU)             (None, 1011)              0         
                                                                 
 dense_16 (Dense)            (None, 2528)              2558336   
                                                                 
 batch_normalization_17 (Bat  (None, 2528)             10112     
 chNormalization)                                                
                                                                 
 re_lu_17 (ReLU)             (None, 2528)              0         
                                                                 
 dense_17 (Dense)            (None, 1264)              3196656   
                                                                 
=================================================================
Total params: 5,769,148
Trainable params: 5,762,070
Non-trainable params: 7,078
_________________________________________________________________
['2.0custom_n_b', 'mse', 64, 200, 0.0005, 0.8, 1011, 8.513961802236736e-05, 9.044126636581495e-05, 0.00101793300440479
…
loat'>, <class 'float'>, <class 'float'>, <class 'float'>, <class 'float'>, <class 'float'>, <class 'float'>, <class 'float'>]
./DATAFILES/MP_GapFeats3_custom_n_b already created.
Shape of dataset to encode: (106113, 1264)
Model: "model_18"
_________________________________________________________________
 Layer (type)                Output Shape              Param #   
=================================================================
 input_19 (InputLayer)       [(None, 1264)]            0         
                                                                 
 dense_18 (Dense)            (None, 2654)              3357310   
                                                                 
 batch_normalization_18 (Bat  (None, 2654)             10616     
 chNormalization)                                                
                                                                 
 re_lu_18 (ReLU)             (None, 2654)              0         
                                                                 
 bottleneck (Dense)          (None, 1011)              2684205   
                                                                 
 batch_normalization_19 (Bat  (None, 1011)             4044      
 chNormalization)                                                
                                                                 
 re_lu_19 (ReLU)             (None, 1011)              0         
                                                                 
 dense_19 (Dense)            (None, 2654)              2685848   
                                                                 
 batch_normalization_20 (Bat  (None, 2654)             10616     
 chNormalization)                                                
                                                                 
 re_lu_20 (ReLU)             (None, 2654)              0         
                                                                 
 dense_20 (Dense)            (None, 1264)              3355920   
                                                                 
=================================================================
Total params: 12,108,559
Trainable params: 12,095,921
Non-trainable params: 12,638
_________________________________________________________________
Epoch 1/200
1493/1493 - 75s - loss: 0.0090 - val_loss: 0.0049 - 75s/epoch - 50ms/step
Epoch 2/200
1493/1493 - 77s - loss: 0.0028 - val_loss: 0.0035 - 77s/epoch - 51ms/step
…
==============================] - 2s 7ms/step
correlation 0.0008986511973673292
cosine 0.0007086222716830067
MAE: 0.0050231456
RMSE: 0.008929001
r2: 0.9948290420514337
RMSE zero-vector: 0.23411466903540806
Full AutoEncoder
Model: "model_18"
_________________________________________________________________
 Layer (type)                Output Shape              Param #   
=================================================================
 input_19 (InputLayer)       multiple                  0         
                                                                 
 dense_18 (Dense)            (None, 2654)              3357310   
                                                                 
 batch_normalization_18 (Bat  (None, 2654)             10616     
 chNormalization)                                                
                                                                 
 re_lu_18 (ReLU)             (None, 2654)              0         
                                                                 
 bottleneck (Dense)          (None, 1011)              2684205   
                                                                 
 batch_normalization_19 (Bat  (None, 1011)             4044      
 chNormalization)                                                
                                                                 
 re_lu_19 (ReLU)             (None, 1011)              0         
                                                                 
 dense_19 (Dense)            (None, 2654)              2685848   
                                                                 
 batch_normalization_20 (Bat  (None, 2654)             10616     
 chNormalization)                                                
                                                                 
 re_lu_20 (ReLU)             (None, 2654)              0         
                                                                 
 dense_20 (Dense)            (None, 1264)              3355920   
                                                                 
=================================================================
Total params: 12,108,559
Trainable params: 12,095,921
Non-trainable params: 12,638
_________________________________________________________________
Encoder
Model: "model_19"
_________________________________________________________________
 Layer (type)                Output Shape              Param #   
=================================================================
 input_20 (InputLayer)       [(None, 1264)]            0         
                                                                 
 input_19 (InputLayer)       multiple                  0         
                                                                 
 dense_18 (Dense)            (None, 2654)              3357310   
                                                                 
 batch_normalization_18 (Bat  (None, 2654)             10616     
 chNormalization)                                                
                                                                 
 re_lu_18 (ReLU)             (None, 2654)              0         
                                                                 
 bottleneck (Dense)          (None, 1011)              2684205   
                                                                 
=================================================================
Total params: 6,052,131
Trainable params: 6,046,823
Non-trainable params: 5,308
_________________________________________________________________
Decoder
Model: "model_20"
_________________________________________________________________
 Layer (type)                Output Shape              Param #   
=================================================================
 input_21 (InputLayer)       [(None, 1011)]            0         
                                                                 
 batch_normalization_19 (Bat  (None, 1011)             4044      
 chNormalization)                                                
                                                                 
 re_lu_19 (ReLU)             (None, 1011)              0         
                                                                 
 dense_19 (Dense)            (None, 2654)              2685848   
                                                                 
 batch_normalization_20 (Bat  (None, 2654)             10616     
 chNormalization)                                                
                                                                 
 re_lu_20 (ReLU)             (None, 2654)              0         
                                                                 
 dense_20 (Dense)            (None, 1264)              3355920   
                                                                 
=================================================================
Total params: 6,056,428
Trainable params: 6,049,098
Non-trainable params: 7,330
_________________________________________________________________
['2.1custom_n_b', 'mse', 64, 200, 0.0005, 0.8, 1011, 8.624602924101055e-05, 7.972709863679484e-05, 0.00089865119736732
…
loat'>, <class 'float'>, <class 'float'>, <class 'float'>, <class 'float'>, <class 'float'>, <class 'float'>, <class 'float'>]
./DATAFILES/MP_GapFeats3_custom_n_b already created.
Shape of dataset to encode: (106113, 1264)
Model: "model_21"
_________________________________________________________________
 Layer (type)                Output Shape              Param #   
=================================================================
 input_22 (InputLayer)       [(None, 1264)]            0         
                                                                 
 dense_21 (Dense)            (None, 2780)              3516700   
                                                                 
 batch_normalization_21 (Bat  (None, 2780)             11120     
 chNormalization)                                                
                                                                 
 re_lu_21 (ReLU)             (None, 2780)              0         
                                                                 
 bottleneck (Dense)          (None, 1011)              2811591   
                                                                 
 batch_normalization_22 (Bat  (None, 1011)             4044      
 chNormalization)                                                
                                                                 
 re_lu_22 (ReLU)             (None, 1011)              0         
                                                                 
 dense_22 (Dense)            (None, 2780)              2813360   
                                                                 
 batch_normalization_23 (Bat  (None, 2780)             11120     
 chNormalization)                                                
                                                                 
 re_lu_23 (ReLU)             (None, 2780)              0         
                                                                 
 dense_23 (Dense)            (None, 1264)              3515184   
                                                                 
=================================================================
Total params: 12,683,119
Trainable params: 12,669,977
Non-trainable params: 13,142
_________________________________________________________________
Epoch 1/200
1493/1493 - 95s - loss: 0.0090 - val_loss: 0.0044 - 95s/epoch - 64ms/step
Epoch 2/200
1493/1493 - 94s - loss: 0.0028 - val_loss: 0.0029 - 94s/epoch - 63ms/step
…
==============================] - 3s 7ms/step
correlation 0.0009026662093758179
cosine 0.0007106810190342437
MAE: 0.0048800893
RMSE: 0.008915094
r2: 0.9948442030112171
RMSE zero-vector: 0.23411466903540806
Full AutoEncoder
Model: "model_21"
_________________________________________________________________
 Layer (type)                Output Shape              Param #   
=================================================================
 input_22 (InputLayer)       multiple                  0         
                                                                 
 dense_21 (Dense)            (None, 2780)              3516700   
                                                                 
 batch_normalization_21 (Bat  (None, 2780)             11120     
 chNormalization)                                                
                                                                 
 re_lu_21 (ReLU)             (None, 2780)              0         
                                                                 
 bottleneck (Dense)          (None, 1011)              2811591   
                                                                 
 batch_normalization_22 (Bat  (None, 1011)             4044      
 chNormalization)                                                
                                                                 
 re_lu_22 (ReLU)             (None, 1011)              0         
                                                                 
 dense_22 (Dense)            (None, 2780)              2813360   
                                                                 
 batch_normalization_23 (Bat  (None, 2780)             11120     
 chNormalization)                                                
                                                                 
 re_lu_23 (ReLU)             (None, 2780)              0         
                                                                 
 dense_23 (Dense)            (None, 1264)              3515184   
                                                                 
=================================================================
Total params: 12,683,119
Trainable params: 12,669,977
Non-trainable params: 13,142
_________________________________________________________________
Encoder
Model: "model_22"
_________________________________________________________________
 Layer (type)                Output Shape              Param #   
=================================================================
 input_23 (InputLayer)       [(None, 1264)]            0         
                                                                 
 input_22 (InputLayer)       multiple                  0         
                                                                 
 dense_21 (Dense)            (None, 2780)              3516700   
                                                                 
 batch_normalization_21 (Bat  (None, 2780)             11120     
 chNormalization)                                                
                                                                 
 re_lu_21 (ReLU)             (None, 2780)              0         
                                                                 
 bottleneck (Dense)          (None, 1011)              2811591   
                                                                 
=================================================================
Total params: 6,339,411
Trainable params: 6,333,851
Non-trainable params: 5,560
_________________________________________________________________
Decoder
Model: "model_23"
_________________________________________________________________
 Layer (type)                Output Shape              Param #   
=================================================================
 input_24 (InputLayer)       [(None, 1011)]            0         
                                                                 
 batch_normalization_22 (Bat  (None, 1011)             4044      
 chNormalization)                                                
                                                                 
 re_lu_22 (ReLU)             (None, 1011)              0         
                                                                 
 dense_22 (Dense)            (None, 2780)              2813360   
                                                                 
 batch_normalization_23 (Bat  (None, 2780)             11120     
 chNormalization)                                                
                                                                 
 re_lu_23 (ReLU)             (None, 2780)              0         
                                                                 
 dense_23 (Dense)            (None, 1264)              3515184   
                                                                 
=================================================================
Total params: 6,343,708
Trainable params: 6,336,126
Non-trainable params: 7,582
_________________________________________________________________
['2.2custom_n_b', 'mse', 64, 200, 0.0005, 0.8, 1011, 8.169573993654922e-05, 7.947896665427834e-05, 0.00090266620937581
…
loat'>, <class 'float'>, <class 'float'>, <class 'float'>, <class 'float'>, <class 'float'>, <class 'float'>, <class 'float'>]
./DATAFILES/MP_GapFeats3_custom_n_b already created.
Shape of dataset to encode: (106113, 1264)
Model: "model_24"
_________________________________________________________________
 Layer (type)                Output Shape              Param #   
=================================================================
 input_25 (InputLayer)       [(None, 1264)]            0         
                                                                 
 dense_24 (Dense)            (None, 2907)              3677355   
                                                                 
 batch_normalization_24 (Bat  (None, 2907)             11628     
 chNormalization)                                                
                                                                 
 re_lu_24 (ReLU)             (None, 2907)              0         
                                                                 
 bottleneck (Dense)          (None, 1011)              2939988   
                                                                 
 batch_normalization_25 (Bat  (None, 1011)             4044      
 chNormalization)                                                
                                                                 
 re_lu_25 (ReLU)             (None, 1011)              0         
                                                                 
 dense_25 (Dense)            (None, 2907)              2941884   
                                                                 
 batch_normalization_26 (Bat  (None, 2907)             11628     
 chNormalization)                                                
                                                                 
 re_lu_26 (ReLU)             (None, 2907)              0         
                                                                 
 dense_26 (Dense)            (None, 1264)              3675712   
                                                                 
=================================================================
Total params: 13,262,239
Trainable params: 13,248,589
Non-trainable params: 13,650
_________________________________________________________________
Epoch 1/200
1493/1493 - 100s - loss: 0.0090 - val_loss: 0.0040 - 100s/epoch - 67ms/step
Epoch 2/200
1493/1493 - 100s - loss: 0.0028 - val_loss: 0.0031 - 100s/epoch - 67ms/step
…
=============================] - 4s 10ms/step
correlation 0.0009302553133473862
cosine 0.0007334647147645601
MAE: 0.0050676614
RMSE: 0.009078275
r2: 0.9946540329165434
RMSE zero-vector: 0.23411466903540806
Full AutoEncoder
Model: "model_24"
_________________________________________________________________
 Layer (type)                Output Shape              Param #   
=================================================================
 input_25 (InputLayer)       multiple                  0         
                                                                 
 dense_24 (Dense)            (None, 2907)              3677355   
                                                                 
 batch_normalization_24 (Bat  (None, 2907)             11628     
 chNormalization)                                                
                                                                 
 re_lu_24 (ReLU)             (None, 2907)              0         
                                                                 
 bottleneck (Dense)          (None, 1011)              2939988   
                                                                 
 batch_normalization_25 (Bat  (None, 1011)             4044      
 chNormalization)                                                
                                                                 
 re_lu_25 (ReLU)             (None, 1011)              0         
                                                                 
 dense_25 (Dense)            (None, 2907)              2941884   
                                                                 
 batch_normalization_26 (Bat  (None, 2907)             11628     
 chNormalization)                                                
                                                                 
 re_lu_26 (ReLU)             (None, 2907)              0         
                                                                 
 dense_26 (Dense)            (None, 1264)              3675712   
                                                                 
=================================================================
Total params: 13,262,239
Trainable params: 13,248,589
Non-trainable params: 13,650
_________________________________________________________________
Encoder
Model: "model_25"
_________________________________________________________________
 Layer (type)                Output Shape              Param #   
=================================================================
 input_26 (InputLayer)       [(None, 1264)]            0         
                                                                 
 input_25 (InputLayer)       multiple                  0         
                                                                 
 dense_24 (Dense)            (None, 2907)              3677355   
                                                                 
 batch_normalization_24 (Bat  (None, 2907)             11628     
 chNormalization)                                                
                                                                 
 re_lu_24 (ReLU)             (None, 2907)              0         
                                                                 
 bottleneck (Dense)          (None, 1011)              2939988   
                                                                 
=================================================================
Total params: 6,628,971
Trainable params: 6,623,157
Non-trainable params: 5,814
_________________________________________________________________
Decoder
Model: "model_26"
_________________________________________________________________
 Layer (type)                Output Shape              Param #   
=================================================================
 input_27 (InputLayer)       [(None, 1011)]            0         
                                                                 
 batch_normalization_25 (Bat  (None, 1011)             4044      
 chNormalization)                                                
                                                                 
 re_lu_25 (ReLU)             (None, 1011)              0         
                                                                 
 dense_25 (Dense)            (None, 2907)              2941884   
                                                                 
 batch_normalization_26 (Bat  (None, 2907)             11628     
 chNormalization)                                                
                                                                 
 re_lu_26 (ReLU)             (None, 2907)              0         
                                                                 
 dense_26 (Dense)            (None, 1264)              3675712   
                                                                 
=================================================================
Total params: 6,633,268
Trainable params: 6,625,432
Non-trainable params: 7,836
_________________________________________________________________
['2.3custom_n_b', 'mse', 64, 200, 0.0005, 0.8, 1011, 8.300480840262026e-05, 8.24151502456516e-05, 0.000930255313347386
…
loat'>, <class 'float'>, <class 'float'>, <class 'float'>, <class 'float'>, <class 'float'>, <class 'float'>, <class 'float'>]
./DATAFILES/MP_GapFeats3_custom_n_b already created.
Shape of dataset to encode: (106113, 1264)
Model: "model_27"
_________________________________________________________________
 Layer (type)                Output Shape              Param #   
=================================================================
 input_28 (InputLayer)       [(None, 1264)]            0         
                                                                 
 dense_27 (Dense)            (None, 3033)              3836745   
                                                                 
 batch_normalization_27 (Bat  (None, 3033)             12132     
 chNormalization)                                                
                                                                 
 re_lu_27 (ReLU)             (None, 3033)              0         
                                                                 
 bottleneck (Dense)          (None, 1011)              3067374   
                                                                 
 batch_normalization_28 (Bat  (None, 1011)             4044      
 chNormalization)                                                
                                                                 
 re_lu_28 (ReLU)             (None, 1011)              0         
                                                                 
 dense_28 (Dense)            (None, 3033)              3069396   
                                                                 
 batch_normalization_29 (Bat  (None, 3033)             12132     
 chNormalization)                                                
                                                                 
 re_lu_29 (ReLU)             (None, 3033)              0         
                                                                 
 dense_29 (Dense)            (None, 1264)              3834976   
                                                                 
=================================================================
Total params: 13,836,799
Trainable params: 13,822,645
Non-trainable params: 14,154
_________________________________________________________________
Epoch 1/200
1493/1493 - 100s - loss: 0.0091 - val_loss: 0.0039 - 100s/epoch - 67ms/step
Epoch 2/200
1493/1493 - 100s - loss: 0.0028 - val_loss: 0.0035 - 100s/epoch - 67ms/step
…
==============================] - 3s 7ms/step
correlation 0.0008840391456609037
cosine 0.0006972216139907348
MAE: 0.0048865075
RMSE: 0.008823869
r2: 0.9949496509045306
RMSE zero-vector: 0.23411466903540806
Full AutoEncoder
Model: "model_27"
_________________________________________________________________
 Layer (type)                Output Shape              Param #   
=================================================================
 input_28 (InputLayer)       multiple                  0         
                                                                 
 dense_27 (Dense)            (None, 3033)              3836745   
                                                                 
 batch_normalization_27 (Bat  (None, 3033)             12132     
 chNormalization)                                                
                                                                 
 re_lu_27 (ReLU)             (None, 3033)              0         
                                                                 
 bottleneck (Dense)          (None, 1011)              3067374   
                                                                 
 batch_normalization_28 (Bat  (None, 1011)             4044      
 chNormalization)                                                
                                                                 
 re_lu_28 (ReLU)             (None, 1011)              0         
                                                                 
 dense_28 (Dense)            (None, 3033)              3069396   
                                                                 
 batch_normalization_29 (Bat  (None, 3033)             12132     
 chNormalization)                                                
                                                                 
 re_lu_29 (ReLU)             (None, 3033)              0         
                                                                 
 dense_29 (Dense)            (None, 1264)              3834976   
                                                                 
=================================================================
Total params: 13,836,799
Trainable params: 13,822,645
Non-trainable params: 14,154
_________________________________________________________________
Encoder
Model: "model_28"
_________________________________________________________________
 Layer (type)                Output Shape              Param #   
=================================================================
 input_29 (InputLayer)       [(None, 1264)]            0         
                                                                 
 input_28 (InputLayer)       multiple                  0         
                                                                 
 dense_27 (Dense)            (None, 3033)              3836745   
                                                                 
 batch_normalization_27 (Bat  (None, 3033)             12132     
 chNormalization)                                                
                                                                 
 re_lu_27 (ReLU)             (None, 3033)              0         
                                                                 
 bottleneck (Dense)          (None, 1011)              3067374   
                                                                 
=================================================================
Total params: 6,916,251
Trainable params: 6,910,185
Non-trainable params: 6,066
_________________________________________________________________
Decoder
Model: "model_29"
_________________________________________________________________
 Layer (type)                Output Shape              Param #   
=================================================================
 input_30 (InputLayer)       [(None, 1011)]            0         
                                                                 
 batch_normalization_28 (Bat  (None, 1011)             4044      
 chNormalization)                                                
                                                                 
 re_lu_28 (ReLU)             (None, 1011)              0         
                                                                 
 dense_28 (Dense)            (None, 3033)              3069396   
                                                                 
 batch_normalization_29 (Bat  (None, 3033)             12132     
 chNormalization)                                                
                                                                 
 re_lu_29 (ReLU)             (None, 3033)              0         
                                                                 
 dense_29 (Dense)            (None, 1264)              3834976   
                                                                 
=================================================================
Total params: 6,920,548
Trainable params: 6,912,460
Non-trainable params: 8,088
_________________________________________________________________
['2.4custom_n_b', 'mse', 64, 200, 0.0005, 0.8, 1011, 8.30577700980939e-05, 7.786070636939257e-05, 0.000884039145660903
…
loat'>, <class 'float'>, <class 'float'>, <class 'float'>, <class 'float'>, <class 'float'>, <class 'float'>, <class 'float'>]
./DATAFILES/MP_GapFeats3_custom_n_b already created.
Shape of dataset to encode: (106113, 1264)
Model: "model_30"
_________________________________________________________________
 Layer (type)                Output Shape              Param #   
=================================================================
 input_31 (InputLayer)       [(None, 1264)]            0         
                                                                 
 dense_30 (Dense)            (None, 3160)              3997400   
                                                                 
 batch_normalization_30 (Bat  (None, 3160)             12640     
 chNormalization)                                                
                                                                 
 re_lu_30 (ReLU)             (None, 3160)              0         
                                                                 
 bottleneck (Dense)          (None, 1011)              3195771   
                                                                 
 batch_normalization_31 (Bat  (None, 1011)             4044      
 chNormalization)                                                
                                                                 
 re_lu_31 (ReLU)             (None, 1011)              0         
                                                                 
 dense_31 (Dense)            (None, 3160)              3197920   
                                                                 
 batch_normalization_32 (Bat  (None, 3160)             12640     
 chNormalization)                                                
                                                                 
 re_lu_32 (ReLU)             (None, 3160)              0         
                                                                 
 dense_32 (Dense)            (None, 1264)              3995504   
                                                                 
=================================================================
Total params: 14,415,919
Trainable params: 14,401,257
Non-trainable params: 14,662
_________________________________________________________________
Epoch 1/200
1493/1493 - 82s - loss: 0.0091 - val_loss: 0.0040 - 82s/epoch - 55ms/step
Epoch 2/200
1493/1493 - 80s - loss: 0.0028 - val_loss: 0.0027 - 80s/epoch - 54ms/step
…
[==============================] - 2s 7ms/step
correlation 0.0008559743054084763
cosine 0.0006741350141058676
MAE: 0.0048754946
RMSE: 0.008708854
r2: 0.995080446868171
RMSE zero-vector: 0.23411466903540806
Full AutoEncoder
Model: "model_30"
_________________________________________________________________
 Layer (type)                Output Shape              Param #   
=================================================================
 input_31 (InputLayer)       multiple                  0         
                                                                 
 dense_30 (Dense)            (None, 3160)              3997400   
                                                                 
 batch_normalization_30 (Bat  (None, 3160)             12640     
 chNormalization)                                                
                                                                 
 re_lu_30 (ReLU)             (None, 3160)              0         
                                                                 
 bottleneck (Dense)          (None, 1011)              3195771   
                                                                 
 batch_normalization_31 (Bat  (None, 1011)             4044      
 chNormalization)                                                
                                                                 
 re_lu_31 (ReLU)             (None, 1011)              0         
                                                                 
 dense_31 (Dense)            (None, 3160)              3197920   
                                                                 
 batch_normalization_32 (Bat  (None, 3160)             12640     
 chNormalization)                                                
                                                                 
 re_lu_32 (ReLU)             (None, 3160)              0         
                                                                 
 dense_32 (Dense)            (None, 1264)              3995504   
                                                                 
=================================================================
Total params: 14,415,919
Trainable params: 14,401,257
Non-trainable params: 14,662
_________________________________________________________________
Encoder
Model: "model_31"
_________________________________________________________________
 Layer (type)                Output Shape              Param #   
=================================================================
 input_32 (InputLayer)       [(None, 1264)]            0         
                                                                 
 input_31 (InputLayer)       multiple                  0         
                                                                 
 dense_30 (Dense)            (None, 3160)              3997400   
                                                                 
 batch_normalization_30 (Bat  (None, 3160)             12640     
 chNormalization)                                                
                                                                 
 re_lu_30 (ReLU)             (None, 3160)              0         
                                                                 
 bottleneck (Dense)          (None, 1011)              3195771   
                                                                 
=================================================================
Total params: 7,205,811
Trainable params: 7,199,491
Non-trainable params: 6,320
_________________________________________________________________
Decoder
Model: "model_32"
_________________________________________________________________
 Layer (type)                Output Shape              Param #   
=================================================================
 input_33 (InputLayer)       [(None, 1011)]            0         
                                                                 
 batch_normalization_31 (Bat  (None, 1011)             4044      
 chNormalization)                                                
                                                                 
 re_lu_31 (ReLU)             (None, 1011)              0         
                                                                 
 dense_31 (Dense)            (None, 3160)              3197920   
                                                                 
 batch_normalization_32 (Bat  (None, 3160)             12640     
 chNormalization)                                                
                                                                 
 re_lu_32 (ReLU)             (None, 3160)              0         
                                                                 
 dense_32 (Dense)            (None, 1264)              3995504   
                                                                 
=================================================================
Total params: 7,210,108
Trainable params: 7,201,766
Non-trainable params: 8,342
_________________________________________________________________
['2.5custom_n_b', 'mse', 64, 200, 0.0005, 0.8, 1011, 7.949701102916151e-05, 7.584418926853687e-05, 0.00085597430540847
…
