…
 1/60 [..............................] - ETA: 8s47/60 [======================>.......] - ETA: 0s60/60 [==============================] - 0s 1ms/step
correlation 0.005752662740320375
cosine 0.003970647361440049
MAE: 0.011862405812788343
RMSE: 0.08843480406292888
r2: 0.7752132405836923
RMSE zero-vector: 0.34573518857430263
Full AutoEncoder
Model: "model"
_________________________________________________________________
 Layer (type)                Output Shape              Param #   
=================================================================
 input_1 (InputLayer)        multiple                  0         
                                                                 
 dense (Dense)               (None, 2040)              2082840   
                                                                 
 batch_normalization (BatchN  (None, 2040)             8160      
 ormalization)                                                   
                                                                 
 re_lu (ReLU)                (None, 2040)              0         
                                                                 
 dense_1 (Dense)             (None, 1479)              3018639   
                                                                 
 batch_normalization_1 (Batc  (None, 1479)             5916      
 hNormalization)                                                 
                                                                 
 re_lu_1 (ReLU)              (None, 1479)              0         
                                                                 
 bottleneck (Dense)          (None, 918)               1358640   
                                                                 
 dense_2 (Dense)             (None, 1479)              1359201   
                                                                 
 batch_normalization_2 (Batc  (None, 1479)             5916      
 hNormalization)                                                 
                                                                 
 re_lu_2 (ReLU)              (None, 1479)              0         
                                                                 
 dense_3 (Dense)             (None, 2040)              3019200   
                                                                 
 batch_normalization_3 (Batc  (None, 2040)             8160      
 hNormalization)                                                 
                                                                 
 re_lu_3 (ReLU)              (None, 2040)              0         
                                                                 
 dense_4 (Dense)             (None, 1020)              2081820   
                                                                 
=================================================================
Total params: 12,948,492
Trainable params: 12,934,416
Non-trainable params: 14,076
_________________________________________________________________
Encoder
Model: "model_1"
_________________________________________________________________
 Layer (type)                Output Shape              Param #   
=================================================================
 input_2 (InputLayer)        [(None, 1020)]            0         
                                                                 
 input_1 (InputLayer)        multiple                  0         
                                                                 
 dense (Dense)               (None, 2040)              2082840   
                                                                 
 batch_normalization (BatchN  (None, 2040)             8160      
 ormalization)                                                   
                                                                 
 re_lu (ReLU)                (None, 2040)              0         
                                                                 
 dense_1 (Dense)             (None, 1479)              3018639   
                                                                 
 batch_normalization_1 (Batc  (None, 1479)             5916      
 hNormalization)                                                 
                                                                 
 re_lu_1 (ReLU)              (None, 1479)              0         
                                                                 
 bottleneck (Dense)          (None, 918)               1358640   
                                                                 
=================================================================
Total params: 6,474,195
Trainable params: 6,467,157
Non-trainable params: 7,038
_________________________________________________________________
Decoder
Model: "model_2"
_________________________________________________________________
 Layer (type)                Output Shape              Param #   
=================================================================
 input_3 (InputLayer)        [(None, 918)]             0         
                                                                 
 dense_2 (Dense)             (None, 1479)              1359201   
                                                                 
 batch_normalization_2 (Batc  (None, 1479)             5916      
 hNormalization)                                                 
                                                                 
 re_lu_2 (ReLU)              (None, 1479)              0         
                                                                 
 dense_3 (Dense)             (None, 2040)              3019200   
                                                                 
 batch_normalization_3 (Batc  (None, 2040)             8160      
 hNormalization)                                                 
                                                                 
 re_lu_3 (ReLU)              (None, 2040)              0         
                                                                 
 dense_4 (Dense)             (None, 1020)              2081820   
                                                                 
=================================================================
Total params: 6,474,297
Trainable params: 6,467,259
Non-trainable params: 7,038
_________________________________________________________________
Compressed layer size: 816
Epoch 1/400
1065/1065 - 4s - loss: 0.0222 - val_loss: 0.0171 - 4s/epoch - 4ms/step
Epoch 2/400
…
 1/60 [..............................] - ETA: 6s47/60 [======================>.......] - ETA: 0s60/60 [==============================] - 0s 1ms/step
correlation 0.007512931904419181
cosine 0.005287411841074974
MAE: 0.013832544223901497
RMSE: 0.06042447208376277
r2: 0.8952382826214542
RMSE zero-vector: 0.34573518857430263
Full AutoEncoder
Model: "model_3"
_________________________________________________________________
 Layer (type)                Output Shape              Param #   
=================================================================
 input_4 (InputLayer)        multiple                  0         
                                                                 
 dense_5 (Dense)             (None, 2040)              2082840   
                                                                 
 batch_normalization_4 (Batc  (None, 2040)             8160      
 hNormalization)                                                 
                                                                 
 re_lu_4 (ReLU)              (None, 2040)              0         
                                                                 
 dense_6 (Dense)             (None, 1428)              2914548   
                                                                 
 batch_normalization_5 (Batc  (None, 1428)             5712      
 hNormalization)                                                 
                                                                 
 re_lu_5 (ReLU)              (None, 1428)              0         
                                                                 
 bottleneck (Dense)          (None, 816)               1166064   
                                                                 
 dense_7 (Dense)             (None, 1428)              1166676   
                                                                 
 batch_normalization_6 (Batc  (None, 1428)             5712      
 hNormalization)                                                 
                                                                 
 re_lu_6 (ReLU)              (None, 1428)              0         
                                                                 
 dense_8 (Dense)             (None, 2040)              2915160   
                                                                 
 batch_normalization_7 (Batc  (None, 2040)             8160      
 hNormalization)                                                 
                                                                 
 re_lu_7 (ReLU)              (None, 2040)              0         
                                                                 
 dense_9 (Dense)             (None, 1020)              2081820   
                                                                 
=================================================================
Total params: 12,354,852
Trainable params: 12,340,980
Non-trainable params: 13,872
_________________________________________________________________
Encoder
Model: "model_4"
_________________________________________________________________
 Layer (type)                Output Shape              Param #   
=================================================================
 input_5 (InputLayer)        [(None, 1020)]            0         
                                                                 
 input_4 (InputLayer)        multiple                  0         
                                                                 
 dense_5 (Dense)             (None, 2040)              2082840   
                                                                 
 batch_normalization_4 (Batc  (None, 2040)             8160      
 hNormalization)                                                 
                                                                 
 re_lu_4 (ReLU)              (None, 2040)              0         
                                                                 
 dense_6 (Dense)             (None, 1428)              2914548   
                                                                 
 batch_normalization_5 (Batc  (None, 1428)             5712      
 hNormalization)                                                 
                                                                 
 re_lu_5 (ReLU)              (None, 1428)              0         
                                                                 
 bottleneck (Dense)          (None, 816)               1166064   
                                                                 
=================================================================
Total params: 6,177,324
Trainable params: 6,170,388
Non-trainable params: 6,936
_________________________________________________________________
Decoder
Model: "model_5"
_________________________________________________________________
 Layer (type)                Output Shape              Param #   
=================================================================
 input_6 (InputLayer)        [(None, 816)]             0         
                                                                 
 dense_7 (Dense)             (None, 1428)              1166676   
                                                                 
 batch_normalization_6 (Batc  (None, 1428)             5712      
 hNormalization)                                                 
                                                                 
 re_lu_6 (ReLU)              (None, 1428)              0         
                                                                 
 dense_8 (Dense)             (None, 2040)              2915160   
                                                                 
 batch_normalization_7 (Batc  (None, 2040)             8160      
 hNormalization)                                                 
                                                                 
 re_lu_7 (ReLU)              (None, 2040)              0         
                                                                 
 dense_9 (Dense)             (None, 1020)              2081820   
                                                                 
=================================================================
Total params: 6,177,528
Trainable params: 6,170,592
Non-trainable params: 6,936
_________________________________________________________________
Compressed layer size: 714
Epoch 1/400
1065/1065 - 4s - loss: 0.0223 - val_loss: 0.0163 - 4s/epoch - 4ms/step
Epoch 2/400
…
 1/60 [..............................] - ETA: 5s47/60 [======================>.......] - ETA: 0s60/60 [==============================] - 0s 1ms/step
correlation 0.013281643141848688
cosine 0.009778592369024865
MAE: 0.01632918644844363
RMSE: 0.06645711706638742
r2: 0.8761504377874663
RMSE zero-vector: 0.34573518857430263
Full AutoEncoder
Model: "model_6"
_________________________________________________________________
 Layer (type)                Output Shape              Param #   
=================================================================
 input_7 (InputLayer)        multiple                  0         
                                                                 
 dense_10 (Dense)            (None, 2040)              2082840   
                                                                 
 batch_normalization_8 (Batc  (None, 2040)             8160      
 hNormalization)                                                 
                                                                 
 re_lu_8 (ReLU)              (None, 2040)              0         
                                                                 
 dense_11 (Dense)            (None, 1377)              2810457   
                                                                 
 batch_normalization_9 (Batc  (None, 1377)             5508      
 hNormalization)                                                 
                                                                 
 re_lu_9 (ReLU)              (None, 1377)              0         
                                                                 
 bottleneck (Dense)          (None, 714)               983892    
                                                                 
 dense_12 (Dense)            (None, 1377)              984555    
                                                                 
 batch_normalization_10 (Bat  (None, 1377)             5508      
 chNormalization)                                                
                                                                 
 re_lu_10 (ReLU)             (None, 1377)              0         
                                                                 
 dense_13 (Dense)            (None, 2040)              2811120   
                                                                 
 batch_normalization_11 (Bat  (None, 2040)             8160      
 chNormalization)                                                
                                                                 
 re_lu_11 (ReLU)             (None, 2040)              0         
                                                                 
 dense_14 (Dense)            (None, 1020)              2081820   
                                                                 
=================================================================
Total params: 11,782,020
Trainable params: 11,768,352
Non-trainable params: 13,668
_________________________________________________________________
Encoder
Model: "model_7"
_________________________________________________________________
 Layer (type)                Output Shape              Param #   
=================================================================
 input_8 (InputLayer)        [(None, 1020)]            0         
                                                                 
 input_7 (InputLayer)        multiple                  0         
                                                                 
 dense_10 (Dense)            (None, 2040)              2082840   
                                                                 
 batch_normalization_8 (Batc  (None, 2040)             8160      
 hNormalization)                                                 
                                                                 
 re_lu_8 (ReLU)              (None, 2040)              0         
                                                                 
 dense_11 (Dense)            (None, 1377)              2810457   
                                                                 
 batch_normalization_9 (Batc  (None, 1377)             5508      
 hNormalization)                                                 
                                                                 
 re_lu_9 (ReLU)              (None, 1377)              0         
                                                                 
 bottleneck (Dense)          (None, 714)               983892    
                                                                 
=================================================================
Total params: 5,890,857
Trainable params: 5,884,023
Non-trainable params: 6,834
_________________________________________________________________
Decoder
Model: "model_8"
_________________________________________________________________
 Layer (type)                Output Shape              Param #   
=================================================================
 input_9 (InputLayer)        [(None, 714)]             0         
                                                                 
 dense_12 (Dense)            (None, 1377)              984555    
                                                                 
 batch_normalization_10 (Bat  (None, 1377)             5508      
 chNormalization)                                                
                                                                 
 re_lu_10 (ReLU)             (None, 1377)              0         
                                                                 
 dense_13 (Dense)            (None, 2040)              2811120   
                                                                 
 batch_normalization_11 (Bat  (None, 2040)             8160      
 chNormalization)                                                
                                                                 
 re_lu_11 (ReLU)             (None, 2040)              0         
                                                                 
 dense_14 (Dense)            (None, 1020)              2081820   
                                                                 
=================================================================
Total params: 5,891,163
Trainable params: 5,884,329
Non-trainable params: 6,834
_________________________________________________________________
Compressed layer size: 612
Epoch 1/400
1065/1065 - 4s - loss: 0.0223 - val_loss: 0.0179 - 4s/epoch - 4ms/step
Epoch 2/400
…
 1/60 [..............................] - ETA: 6s48/60 [=======================>......] - ETA: 0s60/60 [==============================] - 0s 1ms/step
correlation 0.01328229444119105
cosine 0.010090824242355885
MAE: 0.01715110088902566
RMSE: 0.06950793612581481
r2: 0.8677831726030889
RMSE zero-vector: 0.34573518857430263
Full AutoEncoder
Model: "model_9"
_________________________________________________________________
 Layer (type)                Output Shape              Param #   
=================================================================
 input_10 (InputLayer)       multiple                  0         
                                                                 
 dense_15 (Dense)            (None, 2040)              2082840   
                                                                 
 batch_normalization_12 (Bat  (None, 2040)             8160      
 chNormalization)                                                
                                                                 
 re_lu_12 (ReLU)             (None, 2040)              0         
                                                                 
 dense_16 (Dense)            (None, 1326)              2706366   
                                                                 
 batch_normalization_13 (Bat  (None, 1326)             5304      
 chNormalization)                                                
                                                                 
 re_lu_13 (ReLU)             (None, 1326)              0         
                                                                 
 bottleneck (Dense)          (None, 612)               812124    
                                                                 
 dense_17 (Dense)            (None, 1326)              812838    
                                                                 
 batch_normalization_14 (Bat  (None, 1326)             5304      
 chNormalization)                                                
                                                                 
 re_lu_14 (ReLU)             (None, 1326)              0         
                                                                 
 dense_18 (Dense)            (None, 2040)              2707080   
                                                                 
 batch_normalization_15 (Bat  (None, 2040)             8160      
 chNormalization)                                                
                                                                 
 re_lu_15 (ReLU)             (None, 2040)              0         
                                                                 
 dense_19 (Dense)            (None, 1020)              2081820   
                                                                 
=================================================================
Total params: 11,229,996
Trainable params: 11,216,532
Non-trainable params: 13,464
_________________________________________________________________
Encoder
Model: "model_10"
_________________________________________________________________
 Layer (type)                Output Shape              Param #   
=================================================================
 input_11 (InputLayer)       [(None, 1020)]            0         
                                                                 
 input_10 (InputLayer)       multiple                  0         
                                                                 
 dense_15 (Dense)            (None, 2040)              2082840   
                                                                 
 batch_normalization_12 (Bat  (None, 2040)             8160      
 chNormalization)                                                
                                                                 
 re_lu_12 (ReLU)             (None, 2040)              0         
                                                                 
 dense_16 (Dense)            (None, 1326)              2706366   
                                                                 
 batch_normalization_13 (Bat  (None, 1326)             5304      
 chNormalization)                                                
                                                                 
 re_lu_13 (ReLU)             (None, 1326)              0         
                                                                 
 bottleneck (Dense)          (None, 612)               812124    
                                                                 
=================================================================
Total params: 5,614,794
Trainable params: 5,608,062
Non-trainable params: 6,732
_________________________________________________________________
Decoder
Model: "model_11"
_________________________________________________________________
 Layer (type)                Output Shape              Param #   
=================================================================
 input_12 (InputLayer)       [(None, 612)]             0         
                                                                 
 dense_17 (Dense)            (None, 1326)              812838    
                                                                 
 batch_normalization_14 (Bat  (None, 1326)             5304      
 chNormalization)                                                
                                                                 
 re_lu_14 (ReLU)             (None, 1326)              0         
                                                                 
 dense_18 (Dense)            (None, 2040)              2707080   
                                                                 
 batch_normalization_15 (Bat  (None, 2040)             8160      
 chNormalization)                                                
                                                                 
 re_lu_15 (ReLU)             (None, 2040)              0         
                                                                 
 dense_19 (Dense)            (None, 1020)              2081820   
                                                                 
=================================================================
Total params: 5,615,202
Trainable params: 5,608,470
Non-trainable params: 6,732
_________________________________________________________________
Compressed layer size: 510
Epoch 1/400
1065/1065 - 4s - loss: 0.0228 - val_loss: 0.0173 - 4s/epoch - 4ms/step
Epoch 2/400
…
 1/60 [..............................] - ETA: 6s47/60 [======================>.......] - ETA: 0s60/60 [==============================] - 0s 1ms/step
correlation 0.0066647105826764886
cosine 0.004722358041044391
MAE: 0.013733758375201363
RMSE: 0.058978158048978796
r2: 0.9005667731191642
RMSE zero-vector: 0.34573518857430263
Full AutoEncoder
Model: "model_12"
_________________________________________________________________
 Layer (type)                Output Shape              Param #   
=================================================================
 input_13 (InputLayer)       multiple                  0         
                                                                 
 dense_20 (Dense)            (None, 2040)              2082840   
                                                                 
 batch_normalization_16 (Bat  (None, 2040)             8160      
 chNormalization)                                                
                                                                 
 re_lu_16 (ReLU)             (None, 2040)              0         
                                                                 
 dense_21 (Dense)            (None, 1275)              2602275   
                                                                 
 batch_normalization_17 (Bat  (None, 1275)             5100      
 chNormalization)                                                
                                                                 
 re_lu_17 (ReLU)             (None, 1275)              0         
                                                                 
 bottleneck (Dense)          (None, 510)               650760    
                                                                 
 dense_22 (Dense)            (None, 1275)              651525    
                                                                 
 batch_normalization_18 (Bat  (None, 1275)             5100      
 chNormalization)                                                
                                                                 
 re_lu_18 (ReLU)             (None, 1275)              0         
                                                                 
 dense_23 (Dense)            (None, 2040)              2603040   
                                                                 
 batch_normalization_19 (Bat  (None, 2040)             8160      
 chNormalization)                                                
                                                                 
 re_lu_19 (ReLU)             (None, 2040)              0         
                                                                 
 dense_24 (Dense)            (None, 1020)              2081820   
                                                                 
=================================================================
Total params: 10,698,780
Trainable params: 10,685,520
Non-trainable params: 13,260
_________________________________________________________________
Encoder
Model: "model_13"
_________________________________________________________________
 Layer (type)                Output Shape              Param #   
=================================================================
 input_14 (InputLayer)       [(None, 1020)]            0         
                                                                 
 input_13 (InputLayer)       multiple                  0         
                                                                 
 dense_20 (Dense)            (None, 2040)              2082840   
                                                                 
 batch_normalization_16 (Bat  (None, 2040)             8160      
 chNormalization)                                                
                                                                 
 re_lu_16 (ReLU)             (None, 2040)              0         
                                                                 
 dense_21 (Dense)            (None, 1275)              2602275   
                                                                 
 batch_normalization_17 (Bat  (None, 1275)             5100      
 chNormalization)                                                
                                                                 
 re_lu_17 (ReLU)             (None, 1275)              0         
                                                                 
 bottleneck (Dense)          (None, 510)               650760    
                                                                 
=================================================================
Total params: 5,349,135
Trainable params: 5,342,505
Non-trainable params: 6,630
_________________________________________________________________
Decoder
Model: "model_14"
_________________________________________________________________
 Layer (type)                Output Shape              Param #   
=================================================================
 input_15 (InputLayer)       [(None, 510)]             0         
                                                                 
 dense_22 (Dense)            (None, 1275)              651525    
                                                                 
 batch_normalization_18 (Bat  (None, 1275)             5100      
 chNormalization)                                                
                                                                 
 re_lu_18 (ReLU)             (None, 1275)              0         
                                                                 
 dense_23 (Dense)            (None, 2040)              2603040   
                                                                 
 batch_normalization_19 (Bat  (None, 2040)             8160      
 chNormalization)                                                
                                                                 
 re_lu_19 (ReLU)             (None, 2040)              0         
                                                                 
 dense_24 (Dense)            (None, 1020)              2081820   
                                                                 
=================================================================
Total params: 5,349,645
Trainable params: 5,343,015
Non-trainable params: 6,630
_________________________________________________________________
Compressed layer size: 408
Epoch 1/400
1065/1065 - 4s - loss: 0.0224 - val_loss: 0.0182 - 4s/epoch - 4ms/step
Epoch 2/400
…
 1/60 [..............................] - ETA: 6s47/60 [======================>.......] - ETA: 0s60/60 [==============================] - 0s 1ms/step
correlation 0.013373519135845533
cosine 0.010118000927675463
MAE: 0.015088842646171668
RMSE: 0.07538381441771529
r2: 0.836931891772732
RMSE zero-vector: 0.34573518857430263
Full AutoEncoder
Model: "model_15"
_________________________________________________________________
 Layer (type)                Output Shape              Param #   
=================================================================
 input_16 (InputLayer)       multiple                  0         
                                                                 
 dense_25 (Dense)            (None, 2040)              2082840   
                                                                 
 batch_normalization_20 (Bat  (None, 2040)             8160      
 chNormalization)                                                
                                                                 
 re_lu_20 (ReLU)             (None, 2040)              0         
                                                                 
 dense_26 (Dense)            (None, 1224)              2498184   
                                                                 
 batch_normalization_21 (Bat  (None, 1224)             4896      
 chNormalization)                                                
                                                                 
 re_lu_21 (ReLU)             (None, 1224)              0         
                                                                 
 bottleneck (Dense)          (None, 408)               499800    
                                                                 
 dense_27 (Dense)            (None, 1224)              500616    
                                                                 
 batch_normalization_22 (Bat  (None, 1224)             4896      
 chNormalization)                                                
                                                                 
 re_lu_22 (ReLU)             (None, 1224)              0         
                                                                 
 dense_28 (Dense)            (None, 2040)              2499000   
                                                                 
 batch_normalization_23 (Bat  (None, 2040)             8160      
 chNormalization)                                                
                                                                 
 re_lu_23 (ReLU)             (None, 2040)              0         
                                                                 
 dense_29 (Dense)            (None, 1020)              2081820   
                                                                 
=================================================================
Total params: 10,188,372
Trainable params: 10,175,316
Non-trainable params: 13,056
_________________________________________________________________
Encoder
Model: "model_16"
_________________________________________________________________
 Layer (type)                Output Shape              Param #   
=================================================================
 input_17 (InputLayer)       [(None, 1020)]            0         
                                                                 
 input_16 (InputLayer)       multiple                  0         
                                                                 
 dense_25 (Dense)            (None, 2040)              2082840   
                                                                 
 batch_normalization_20 (Bat  (None, 2040)             8160      
 chNormalization)                                                
                                                                 
 re_lu_20 (ReLU)             (None, 2040)              0         
                                                                 
 dense_26 (Dense)            (None, 1224)              2498184   
                                                                 
 batch_normalization_21 (Bat  (None, 1224)             4896      
 chNormalization)                                                
                                                                 
 re_lu_21 (ReLU)             (None, 1224)              0         
                                                                 
 bottleneck (Dense)          (None, 408)               499800    
                                                                 
=================================================================
Total params: 5,093,880
Trainable params: 5,087,352
Non-trainable params: 6,528
_________________________________________________________________
Decoder
Model: "model_17"
_________________________________________________________________
 Layer (type)                Output Shape              Param #   
=================================================================
 input_18 (InputLayer)       [(None, 408)]             0         
                                                                 
 dense_27 (Dense)            (None, 1224)              500616    
                                                                 
 batch_normalization_22 (Bat  (None, 1224)             4896      
 chNormalization)                                                
                                                                 
 re_lu_22 (ReLU)             (None, 1224)              0         
                                                                 
 dense_28 (Dense)            (None, 2040)              2499000   
                                                                 
 batch_normalization_23 (Bat  (None, 2040)             8160      
 chNormalization)                                                
                                                                 
 re_lu_23 (ReLU)             (None, 2040)              0         
                                                                 
 dense_29 (Dense)            (None, 1020)              2081820   
                                                                 
=================================================================
Total params: 5,094,492
Trainable params: 5,087,964
Non-trainable params: 6,528
_________________________________________________________________
Compressed layer size: 306
Epoch 1/400
1065/1065 - 4s - loss: 0.0225 - val_loss: 0.0180 - 4s/epoch - 4ms/step
Epoch 2/400
…
 1/60 [..............................] - ETA: 6s47/60 [======================>.......] - ETA: 0s60/60 [==============================] - 0s 1ms/step
correlation 0.00682050730728438
cosine 0.004918841239105885
MAE: 0.01305123333128403
RMSE: 0.052881263284707235
r2: 0.9196586745807012
RMSE zero-vector: 0.34573518857430263
Full AutoEncoder
Model: "model_18"
_________________________________________________________________
 Layer (type)                Output Shape              Param #   
=================================================================
 input_19 (InputLayer)       multiple                  0         
                                                                 
 dense_30 (Dense)            (None, 2040)              2082840   
                                                                 
 batch_normalization_24 (Bat  (None, 2040)             8160      
 chNormalization)                                                
                                                                 
 re_lu_24 (ReLU)             (None, 2040)              0         
                                                                 
 dense_31 (Dense)            (None, 1173)              2394093   
                                                                 
 batch_normalization_25 (Bat  (None, 1173)             4692      
 chNormalization)                                                
                                                                 
 re_lu_25 (ReLU)             (None, 1173)              0         
                                                                 
 bottleneck (Dense)          (None, 306)               359244    
                                                                 
 dense_32 (Dense)            (None, 1173)              360111    
                                                                 
 batch_normalization_26 (Bat  (None, 1173)             4692      
 chNormalization)                                                
                                                                 
 re_lu_26 (ReLU)             (None, 1173)              0         
                                                                 
 dense_33 (Dense)            (None, 2040)              2394960   
                                                                 
 batch_normalization_27 (Bat  (None, 2040)             8160      
 chNormalization)                                                
                                                                 
 re_lu_27 (ReLU)             (None, 2040)              0         
                                                                 
 dense_34 (Dense)            (None, 1020)              2081820   
                                                                 
=================================================================
Total params: 9,698,772
Trainable params: 9,685,920
Non-trainable params: 12,852
_________________________________________________________________
Encoder
Model: "model_19"
_________________________________________________________________
 Layer (type)                Output Shape              Param #   
=================================================================
 input_20 (InputLayer)       [(None, 1020)]            0         
                                                                 
 input_19 (InputLayer)       multiple                  0         
                                                                 
 dense_30 (Dense)            (None, 2040)              2082840   
                                                                 
 batch_normalization_24 (Bat  (None, 2040)             8160      
 chNormalization)                                                
                                                                 
 re_lu_24 (ReLU)             (None, 2040)              0         
                                                                 
 dense_31 (Dense)            (None, 1173)              2394093   
                                                                 
 batch_normalization_25 (Bat  (None, 1173)             4692      
 chNormalization)                                                
                                                                 
 re_lu_25 (ReLU)             (None, 1173)              0         
                                                                 
 bottleneck (Dense)          (None, 306)               359244    
                                                                 
=================================================================
Total params: 4,849,029
Trainable params: 4,842,603
Non-trainable params: 6,426
_________________________________________________________________
Decoder
Model: "model_20"
_________________________________________________________________
 Layer (type)                Output Shape              Param #   
=================================================================
 input_21 (InputLayer)       [(None, 306)]             0         
                                                                 
 dense_32 (Dense)            (None, 1173)              360111    
                                                                 
 batch_normalization_26 (Bat  (None, 1173)             4692      
 chNormalization)                                                
                                                                 
 re_lu_26 (ReLU)             (None, 1173)              0         
                                                                 
 dense_33 (Dense)            (None, 2040)              2394960   
                                                                 
 batch_normalization_27 (Bat  (None, 2040)             8160      
 chNormalization)                                                
                                                                 
 re_lu_27 (ReLU)             (None, 2040)              0         
                                                                 
 dense_34 (Dense)            (None, 1020)              2081820   
                                                                 
=================================================================
Total params: 4,849,743
Trainable params: 4,843,317
Non-trainable params: 6,426
_________________________________________________________________
Compressed layer size: 204
Epoch 1/400
1065/1065 - 4s - loss: 0.0226 - val_loss: 0.0174 - 4s/epoch - 4ms/step
Epoch 2/400
…
 1/60 [..............................] - ETA: 5s48/60 [=======================>......] - ETA: 0s60/60 [==============================] - 0s 1ms/step
correlation 0.007335278653171591
cosine 0.005405787289374404
MAE: 0.013454341003130909
RMSE: 0.0927485972562946
r2: 0.7527703545090547
RMSE zero-vector: 0.34573518857430263
Full AutoEncoder
Model: "model_21"
_________________________________________________________________
 Layer (type)                Output Shape              Param #   
=================================================================
 input_22 (InputLayer)       multiple                  0         
                                                                 
 dense_35 (Dense)            (None, 2040)              2082840   
                                                                 
 batch_normalization_28 (Bat  (None, 2040)             8160      
 chNormalization)                                                
                                                                 
 re_lu_28 (ReLU)             (None, 2040)              0         
                                                                 
 dense_36 (Dense)            (None, 1122)              2290002   
                                                                 
 batch_normalization_29 (Bat  (None, 1122)             4488      
 chNormalization)                                                
                                                                 
 re_lu_29 (ReLU)             (None, 1122)              0         
                                                                 
 bottleneck (Dense)          (None, 204)               229092    
                                                                 
 dense_37 (Dense)            (None, 1122)              230010    
                                                                 
 batch_normalization_30 (Bat  (None, 1122)             4488      
 chNormalization)                                                
                                                                 
 re_lu_30 (ReLU)             (None, 1122)              0         
                                                                 
 dense_38 (Dense)            (None, 2040)              2290920   
                                                                 
 batch_normalization_31 (Bat  (None, 2040)             8160      
 chNormalization)                                                
                                                                 
 re_lu_31 (ReLU)             (None, 2040)              0         
                                                                 
 dense_39 (Dense)            (None, 1020)              2081820   
                                                                 
=================================================================
Total params: 9,229,980
Trainable params: 9,217,332
Non-trainable params: 12,648
_________________________________________________________________
Encoder
Model: "model_22"
_________________________________________________________________
 Layer (type)                Output Shape              Param #   
=================================================================
 input_23 (InputLayer)       [(None, 1020)]            0         
                                                                 
 input_22 (InputLayer)       multiple                  0         
                                                                 
 dense_35 (Dense)            (None, 2040)              2082840   
                                                                 
 batch_normalization_28 (Bat  (None, 2040)             8160      
 chNormalization)                                                
                                                                 
 re_lu_28 (ReLU)             (None, 2040)              0         
                                                                 
 dense_36 (Dense)            (None, 1122)              2290002   
                                                                 
 batch_normalization_29 (Bat  (None, 1122)             4488      
 chNormalization)                                                
                                                                 
 re_lu_29 (ReLU)             (None, 1122)              0         
                                                                 
 bottleneck (Dense)          (None, 204)               229092    
                                                                 
=================================================================
Total params: 4,614,582
Trainable params: 4,608,258
Non-trainable params: 6,324
_________________________________________________________________
Decoder
Model: "model_23"
_________________________________________________________________
 Layer (type)                Output Shape              Param #   
=================================================================
 input_24 (InputLayer)       [(None, 204)]             0         
                                                                 
 dense_37 (Dense)            (None, 1122)              230010    
                                                                 
 batch_normalization_30 (Bat  (None, 1122)             4488      
 chNormalization)                                                
                                                                 
 re_lu_30 (ReLU)             (None, 1122)              0         
                                                                 
 dense_38 (Dense)            (None, 2040)              2290920   
                                                                 
 batch_normalization_31 (Bat  (None, 2040)             8160      
 chNormalization)                                                
                                                                 
 re_lu_31 (ReLU)             (None, 2040)              0         
                                                                 
 dense_39 (Dense)            (None, 1020)              2081820   
                                                                 
=================================================================
Total params: 4,615,398
Trainable params: 4,609,074
Non-trainable params: 6,324
_________________________________________________________________
Compressed layer size: 102
Epoch 1/400
1065/1065 - 5s - loss: 0.0223 - val_loss: 0.0168 - 5s/epoch - 4ms/step
Epoch 2/400
…
 1/60 [..............................] - ETA: 5s48/60 [=======================>......] - ETA: 0s60/60 [==============================] - 0s 1ms/step
correlation 0.014180166096504288
cosine 0.01048279733490068
MAE: 0.016080527923406137
RMSE: 0.09976314319609181
r2: 0.7157904792695522
RMSE zero-vector: 0.34573518857430263
Full AutoEncoder
Model: "model_24"
_________________________________________________________________
 Layer (type)                Output Shape              Param #   
=================================================================
 input_25 (InputLayer)       multiple                  0         
                                                                 
 dense_40 (Dense)            (None, 2040)              2082840   
                                                                 
 batch_normalization_32 (Bat  (None, 2040)             8160      
 chNormalization)                                                
                                                                 
 re_lu_32 (ReLU)             (None, 2040)              0         
                                                                 
 dense_41 (Dense)            (None, 1071)              2185911   
                                                                 
 batch_normalization_33 (Bat  (None, 1071)             4284      
 chNormalization)                                                
                                                                 
 re_lu_33 (ReLU)             (None, 1071)              0         
                                                                 
 bottleneck (Dense)          (None, 102)               109344    
                                                                 
 dense_42 (Dense)            (None, 1071)              110313    
                                                                 
 batch_normalization_34 (Bat  (None, 1071)             4284      
 chNormalization)                                                
                                                                 
 re_lu_34 (ReLU)             (None, 1071)              0         
                                                                 
 dense_43 (Dense)            (None, 2040)              2186880   
                                                                 
 batch_normalization_35 (Bat  (None, 2040)             8160      
 chNormalization)                                                
                                                                 
 re_lu_35 (ReLU)             (None, 2040)              0         
                                                                 
 dense_44 (Dense)            (None, 1020)              2081820   
                                                                 
=================================================================
Total params: 8,781,996
Trainable params: 8,769,552
Non-trainable params: 12,444
_________________________________________________________________
Encoder
Model: "model_25"
_________________________________________________________________
 Layer (type)                Output Shape              Param #   
=================================================================
 input_26 (InputLayer)       [(None, 1020)]            0         
                                                                 
 input_25 (InputLayer)       multiple                  0         
                                                                 
 dense_40 (Dense)            (None, 2040)              2082840   
                                                                 
 batch_normalization_32 (Bat  (None, 2040)             8160      
 chNormalization)                                                
                                                                 
 re_lu_32 (ReLU)             (None, 2040)              0         
                                                                 
 dense_41 (Dense)            (None, 1071)              2185911   
                                                                 
 batch_normalization_33 (Bat  (None, 1071)             4284      
 chNormalization)                                                
                                                                 
 re_lu_33 (ReLU)             (None, 1071)              0         
                                                                 
 bottleneck (Dense)          (None, 102)               109344    
                                                                 
=================================================================
Total params: 4,390,539
Trainable params: 4,384,317
Non-trainable params: 6,222
_________________________________________________________________
Decoder
Model: "model_26"
_________________________________________________________________
 Layer (type)                Output Shape              Param #   
=================================================================
 input_27 (InputLayer)       [(None, 102)]             0         
                                                                 
 dense_42 (Dense)            (None, 1071)              110313    
                                                                 
 batch_normalization_34 (Bat  (None, 1071)             4284      
 chNormalization)                                                
                                                                 
 re_lu_34 (ReLU)             (None, 1071)              0         
                                                                 
 dense_43 (Dense)            (None, 2040)              2186880   
                                                                 
 batch_normalization_35 (Bat  (None, 2040)             8160      
 chNormalization)                                                
                                                                 
 re_lu_35 (ReLU)             (None, 2040)              0         
                                                                 
 dense_44 (Dense)            (None, 1020)              2081820   
                                                                 
=================================================================
Total params: 4,391,457
Trainable params: 4,385,235
Non-trainable params: 6,222
_________________________________________________________________
Fri Dec 16 15:59:46 CET 2022
done
