…
 1/60 [..............................] - ETA: 7s48/60 [=======================>......] - ETA: 0s60/60 [==============================] - 0s 1ms/step
correlation 0.004678612894181794
cosine 0.0031821803338606324
MAE: 0.012063944416900677
RMSE: 0.06877937211402106
r2: 0.8640410855099907
RMSE zero-vector: 0.34573518857430263
Full AutoEncoder
Model: "model"
_________________________________________________________________
 Layer (type)                Output Shape              Param #   
=================================================================
 input_1 (InputLayer)        multiple                  0         
                                                                 
 dense (Dense)               (None, 2040)              2082840   
                                                                 
 batch_normalization (BatchN  (None, 2040)             8160      
 ormalization)                                                   
                                                                 
 re_lu (ReLU)                (None, 2040)              0         
                                                                 
 dense_1 (Dense)             (None, 1530)              3122730   
                                                                 
 batch_normalization_1 (Batc  (None, 1530)             6120      
 hNormalization)                                                 
                                                                 
 re_lu_1 (ReLU)              (None, 1530)              0         
                                                                 
 bottleneck (Dense)          (None, 1020)              1561620   
                                                                 
 dense_2 (Dense)             (None, 1530)              1562130   
                                                                 
 batch_normalization_2 (Batc  (None, 1530)             6120      
 hNormalization)                                                 
                                                                 
 re_lu_2 (ReLU)              (None, 1530)              0         
                                                                 
 dense_3 (Dense)             (None, 2040)              3123240   
                                                                 
 batch_normalization_3 (Batc  (None, 2040)             8160      
 hNormalization)                                                 
                                                                 
 re_lu_3 (ReLU)              (None, 2040)              0         
                                                                 
 dense_4 (Dense)             (None, 1020)              2081820   
                                                                 
=================================================================
Total params: 13,562,940
Trainable params: 13,548,660
Non-trainable params: 14,280
_________________________________________________________________
Encoder
Model: "model_1"
_________________________________________________________________
 Layer (type)                Output Shape              Param #   
=================================================================
 input_2 (InputLayer)        [(None, 1020)]            0         
                                                                 
 input_1 (InputLayer)        multiple                  0         
                                                                 
 dense (Dense)               (None, 2040)              2082840   
                                                                 
 batch_normalization (BatchN  (None, 2040)             8160      
 ormalization)                                                   
                                                                 
 re_lu (ReLU)                (None, 2040)              0         
                                                                 
 dense_1 (Dense)             (None, 1530)              3122730   
                                                                 
 batch_normalization_1 (Batc  (None, 1530)             6120      
 hNormalization)                                                 
                                                                 
 re_lu_1 (ReLU)              (None, 1530)              0         
                                                                 
 bottleneck (Dense)          (None, 1020)              1561620   
                                                                 
=================================================================
Total params: 6,781,470
Trainable params: 6,774,330
Non-trainable params: 7,140
_________________________________________________________________
Decoder
Model: "model_2"
_________________________________________________________________
 Layer (type)                Output Shape              Param #   
=================================================================
 input_3 (InputLayer)        [(None, 1020)]            0         
                                                                 
 dense_2 (Dense)             (None, 1530)              1562130   
                                                                 
 batch_normalization_2 (Batc  (None, 1530)             6120      
 hNormalization)                                                 
                                                                 
 re_lu_2 (ReLU)              (None, 1530)              0         
                                                                 
 dense_3 (Dense)             (None, 2040)              3123240   
                                                                 
 batch_normalization_3 (Batc  (None, 2040)             8160      
 hNormalization)                                                 
                                                                 
 re_lu_3 (ReLU)              (None, 2040)              0         
                                                                 
 dense_4 (Dense)             (None, 1020)              2081820   
                                                                 
=================================================================
Total params: 6,781,470
Trainable params: 6,774,330
Non-trainable params: 7,140
_________________________________________________________________
Compressed layer size: 969
Epoch 1/400
1065/1065 - 4s - loss: 0.0218 - val_loss: 0.0175 - 4s/epoch - 4ms/step
Epoch 2/400
…
